Connect6/BitBoard/model/6_6_4_current_policy_with_evaluator.model (torch, 414742 bytes, 15 tensors)

conv1.weight f4 [32, 4, 3, 3]
0	0x3d609dd0	0.054838
1	0xbdd38bc0	-0.103293896
2	0x3ddce13a	0.10785146
3	0xbe05ae43	-0.13054757
4	0xbbcb0fa0	-0.006196931
5	0x3dbfc452	0.09363617
6	0x3cc025f8	0.023455605
7	0x3d083a7c	0.0332589
8	0xbcdb0448	-0.02673544
9	0xbd3c9180	-0.046037197
10	0x3e284f75	0.1643656
11	0xbdf0c076	-0.11755459
12	0x3e0669b9	0.13126267
13	0xbdac6a40	-0.08418703
14	0xbc874e40	-0.016516805
15	0x3c0dab90	0.008646861
16	0xbd29d584	-0.04146339
17	0xbc4b8090	-0.012420788
18	0x3dc0d03e	0.09414719
19	0xbe06acb7	-0.13151823
20	0xbd90b26e	-0.07065283
21	0x3e1da39f	0.15394448
22	0xbc2c1780	-0.01050365
23	0xbe113c8f	-0.14183258
24	0x3dca6ec6	0.098844096
25	0x3d7ea95c	0.062173232
26	0xbdb63698	-0.08897132
27	0x3e107a5d	0.14109178
28	0x3da3c17e	0.0799589
29	0x3c7b7c40	0.015349448
30	0xbdc871fb	-0.09787365
31	0xbd506e76	-0.050886594
32	0x3dddfe62	0.10839535
33	0x3e1bd8f5	0.15219481
34	0xbdf87963	-0.12132528
35	0xbe24edf0	-0.16106391
36	0xbe19ea90	-0.15030885
37	0xbdd14873	-0.10218897
38	0x3d6b075c	0.057380065
39	0xbcb54278	-0.022126421
40	0xbe109f94	-0.14123374
41	0x3dac11aa	0.08401807
42	0x3d98df66	0.07464485
43	0xbdb322e8	-0.08746892
44	0x3a63c400	0.0008688569
45	0x3d4a9884	0.049461856
46	0xbd9974e8	-0.07493001
47	0xbb2fcc40	-0.0026824623
48	0x3d9e5e8a	0.07732876
49	0x3d245090	0.040115893
50	0xbd06a034	-0.032867625
51	0xbd00404c	-0.03131132
52	0xbd316c90	-0.043316424
53	0xbe28d1b4	-0.16486245
54	0x3db25456	0.08707492
55	0x3e033947	0.12814818
56	0x3ab20200	0.0013580918
57	0xbad1ec80	-0.0016015917
58	0xbe005840	-0.12533665
59	0xbe129a2e	-0.14316627
60	0x3d90afe2	0.07064797
61	0x3db569da	0.0885808
62	0xbca366e0	-0.019946516
63	0x3bd95b00	0.0066331625
64	0xbd989c46	-0.07451682
65	0xbd9670ab	-0.073457085
66	0xbe277646	-0.16353711
67	0x3cf95d98	0.030440137
68	0xbd1b2a00	-0.03788185
69	0xbe1951f2	-0.14972666
70	0x3dd5bbba	0.104361966
71	0x3de8cc5a	0.11367102
72	0xbe141187	-0.14459811
73	0x3e075423	0.1321569
74	0xbd2e9036	-0.042618
75	0x3e146e79	0.14495267
76	0x3ca285b8	0.019839153
77	0x3d52f9d0	0.05150777
78	0xbe200eee	-0.15630695
79	0xbe020ab3	-0.12699394
80	0x3cc56938	0.024098024
81	0xbcd1e0a0	-0.025619805
82	0xbe11aa4c	-0.1422512
83	0xbd5a25dc	-0.05325876
84	0x3d96f712	0.07371344
85	0xbd36395c	-0.044488296
86	0x3d9ab1be	0.07553433
87	0xbd9bddeb	-0.07610687
88	0x3e0f5f91	0.140013
89	0xbb945060	-0.004526183
90	0x3cef5ef8	0.02922009
91	0xbd2d9380	-0.042376995
92	0xbd9b8980	-0.075945854
93	0x3e138855	0.14407475
94	0xbe04e708	-0.12978756
95	0xbd453a4c	-0.0481513
96	0x3b880120	0.0041505247
97	0x3e2962d9	0.16541614
98	0x3d166564	0.036717787
99	0x3d681920	0.056664586
100	0xbdf07c8e	-0.11742507
101	0x3e23fee1	0.16015197
102	0xbd51d8cc	-0.051232144
103	0x3dfa72f2	0.12228955
104	0x3e1efd2d	0.15526266
105	0x3d74482c	0.05963914
106	0xbe04a8d6	-0.12955031
107	0x3d312440	0.04324746
108	0xbd3578b0	-0.04430455
109	0xbd145970	-0.036218107
110	0xbdc2244e	-0.09479581
111	0x3d6390f4	0.05555816
112	0xbdcdfd50	-0.10058081
113	0x3e202bb3	0.1564167
114	0x3dac6612	0.08417906
115	0xbe214f78	-0.15752971
116	0x3d70c1f4	0.058778718
117	0x3d707fac	0.058715507
118	0x3db9d3d6	0.090736076
119	0xbdf7ef00	-0.121061325
120	0x3d798d80	0.06092596
121	0x3dcb98ce	0.099412546
122	0xbd206550	-0.03915912
123	0x3d9d1062	0.076691404
124	0x3d5e62ac	0.05429332
125	0xbc842900	-0.016132832
126	0x3d82328e	0.06357299
127	0x3d06c4d4	0.032902554
128	0x3e18f959	0.14938869
129	0xbd96ec1b	-0.07369252
130	0xbe067952	-0.13132218
131	0x3d5515ac	0.05202262
132	0xbd8e5ccb	-0.069512926
133	0x3d85de32	0.06536521
134	0x3da77b8e	0.08177863
135	0xbdb85853	-0.090012215
136	0xbd8f5043	-0.069977306
137	0xbd81e20e	-0.06341945
138	0x3d4a68c0	0.049416304
139	0x3deafce2	0.11474015
140	0xbe02c9a7	-0.12772237
141	0x3e02a931	0.12759854
142	0x3de215d2	0.11039318
143	0xbcf3c3e0	-0.029756486
144	0xbd89e15e	-0.067324385
145	0x3dfc1c7a	0.12310119
146	0x3d9f1786	0.077681586
147	0x3dbe0366	0.09277992
148	0x3df1e4e2	0.11811234
149	0x3dfe1ca2	0.12407805
150	0xbde447de	-0.1114652
151	0xbe264608	-0.16237652
152	0x3e0dbf73	0.13842563
153	0x3e10b201	0.14130403
154	0x3d8dffea	0.06933577
155	0xbd2ebd80	-0.04266119
156	0xbda5a2db	-0.08087703
157	0xbdcdba1e	-0.10045265
158	0x3d7b4be4	0.06135167
159	0xbdadd730	-0.084883094
160	0xbe05aa00	-0.13053131
161	0xbd7e6a26	-0.06211295
162	0x3cb54228	0.022126272
163	0x3d2556bc	0.04036592
164	0x3d370e30	0.044691265
165	0xbe0564de	-0.13026759
166	0xbe04a5f2	-0.12953928
167	0xbe1ae4d0	-0.15126348
168	0x3dffba92	0.12486757
169	0xbdb17ae3	-0.08666017
170	0xbdb24d83	-0.087061904
171	0xbe254292	-0.16138676
172	0xbe2667c8	-0.16250527
173	0xbd1b356c	-0.037892744
174	0x3dfd646e	0.12372671
175	0x3d09ffa0	0.03369105
176	0x3dfae016	0.12249772
177	0x3dd38622	0.10328318
178	0xbd6d163c	-0.057882532
179	0x3e14ce83	0.14531903
180	0xbd1a7cf4	-0.03771682
181	0xbd0eff1c	-0.03491126
182	0x3d93b7b2	0.072127715
183	0xbe049b54	-0.12949878
184	0xbdae144e	-0.084999666
185	0x3ca746f8	0.020419583
186	0xbd5f81cc	-0.054567143
187	0x3e0e71f1	0.13910653
188	0xbd88c84b	-0.06678828
189	0xbde993e6	-0.114051625
190	0x3dae960a	0.085247114
191	0xbd924688	-0.07142359
192	0x3e0023fb	0.12513725
193	0x3d0d6464	0.034519568
194	0xbd8cb45b	-0.068703376
195	0x3cdc4e80	0.0268929
196	0x3e163341	0.1466799
197	0x3e231b27	0.15928327
198	0x3d7826dc	0.060583934
199	0x3dd85e6a	0.10564883
200	0x3ddcc666	0.10780029
201	0x3e0a5053	0.13507204
202	0x3d9bb78e	0.0760337
203	0x3d92c148	0.07165772
204	0xbe10971b	-0.14120142
205	0xbcc2d328	-0.023782328
206	0x3cd255c0	0.025675654
207	0x3e173063	0.14764552
208	0x3dfb200a	0.1226197
209	0xbdd5a7d6	-0.10432403
210	0x3ded4436	0.11585276
211	0x3df0f79e	0.11765979
212	0x3dbb7c0e	0.09154521
213	0xbe02c524	-0.12770516
214	0x3dd1f48e	0.10251723
215	0xbe0626ff	-0.13100813
216	0x3bffee80	0.007810414
217	0xbe13cb27	-0.14432965
218	0xbb8cb660	-0.0042942017
219	0xbe287b8e	-0.16453382
220	0x3def35a2	0.116801515
221	0x3c529b10	0.012854353
222	0x3d9b623a	0.075870946
223	0xb8dc2000	-0.00010496378
224	0x3e255a81	0.16147806
225	0x3da0b460	0.07846904
226	0xbdf39526	-0.11893682
227	0x3e030df1	0.12798287
228	0x3e10e0e1	0.14148284
229	0x3d2718bc	0.040795073
230	0xbd238e64	-0.039930716
231	0xbe2744f7	-0.16334902
232	0xbe0200b8	-0.12695587
233	0x3d96b3ee	0.073585376
234	0xbd12ec20	-0.035869718
235	0x3d789a84	0.060694233
236	0xbdbd0bc6	-0.09230761
237	0xbd2dfa06	-0.04247477
238	0xbe1e4094	-0.15454322
239	0xbd87ca7e	-0.06630419
240	0xbdb6bb16	-0.089224026
241	0xbc3f0ed0	-0.011661246
242	0xbd9fa41e	-0.07794975
243	0xbd8a4943	-0.06752255
244	0x3d4449ec	0.04792206
245	0x3d3f8abc	0.046763167
246	0x3d848508	0.06470686
247	0xbe030f9f	-0.12798928
248	0x3bb4d0a0	0.005518034
249	0x3d9fcc50	0.078026414
250	0xbe18dc7e	-0.14927861
251	0x3c75c4c0	0.015000522
252	0x3d95102a	0.07278474
253	0x3d7a7bfc	0.061153397
254	0x3d27236c	0.040805265
255	0xbbc06680	-0.005871594

conv1.bias f4 [32]
0	0xbdd1d1fb	-0.10245129
1	0xbd472afc	-0.048624977
2	0xbdd13153	-0.10214486
3	0x3e1b3fa3	0.15160994
4	0x3e277801	0.16354372
5	0xbe188fe7	-0.14898644
6	0x3dae9b32	0.08525695
7	0x3d63f75c	0.055655822
8	0x3c804100	0.015655994
9	0xbdcbfaa6	-0.09959917
10	0xbc5c8850	-0.013460234
11	0x3d99b456	0.075050995
12	0x3db56dc2	0.08858825
13	0xbe1612ca	-0.14655605
14	0x3cc87558	0.024470016
15	0x3d8c10d0	0.06839144
16	0xbe03e3b4	-0.1287983
17	0xbd895748	-0.06706101
18	0xbdda03eb	-0.106452785
19	0x3cfeb248	0.03109087
20	0xbdb28248	-0.087162554
21	0x3e0025bd	0.12514396
22	0xbd97b636	-0.07407801
23	0xbbb2c400	-0.005455494
24	0xbcd6a028	-0.026199415
25	0x3d6e03f4	0.05810924
26	0xbd051af4	-0.032496408
27	0xbd63c4ec	-0.05560772
28	0x3e1621cd	0.14661331
29	0x3d993230	0.07480276
30	0x3d74bc30	0.059749782
31	0xbe057094	-0.13031226

conv2.weight f4 [64, 32, 3, 3]
0	0xbbb35838	-0.005473163
1	0x3bcc8c28	0.006242294
2	0x3d6bda61	0.05758131
3	0xbd647b5d	-0.05578171
4	0x3b80a478	0.003925856
5	0xbd6748f6	-0.056466065
6	0xbd696377	-0.056979623
7	0xba509ec0	-0.0007958226
8	0xbcc4a144	-0.024002679
9	0xbbd79018	-0.0065784566
10	0xbd454637	-0.048162665
11	0x3d3b626f	0.04574817
12	0xbcebd3d6	-0.028787535
13	0x3cddab6a	0.027059276
14	0xb8c70a00	-9.490922e-05
15	0xbd338de4	-0.04383649
16	0xbd17004c	-0.036865517
17	0x3d04c6d9	0.0324162
18	0x3cd880e2	0.026428644
19	0xbd2ed8c4	-0.042687193
20	0x3d0270c5	0.031845827
21	0x3d6334e7	0.055470373
22	0xbc43f874	-0.011961091
23	0xbc4ce5f4	-0.012505997
24	0x3d11b23f	0.03557038
25	0xbd010df8	-0.031507462
26	0x39d26780	0.00040131435
27	0x3bc11508	0.0058923997
28	0xbd209ef0	-0.039214075
29	0x3cb365d6	0.021899145
30	0x3c60e004	0.0137252845
31	0x3d3d34ed	0.046193052
32	0xbcab805a	-0.020935226
33	0xbd4b33dc	-0.049610004
34	0x3d25dc57	0.040493336
35	0x3cb461ba	0.022019256
36	0xbbd8de98	-0.006618332
37	0xbca41618	-0.020030066
38	0x3d37c3e3	0.044864547
39	0xbd4a7384	-0.04942657
40	0xbcd0f65e	-0.025508102
41	0x3bef8808	0.0073099174
42	0xbd0e3fe8	-0.034728914
43	0xbcb217be	-0.021739837
44	0xbd44f39a	-0.04808388
45	0xbbacea98	-0.005276989
46	0x3d5b9ad7	0.053614464
47	0xbcf3cc38	-0.029760465
48	0xbd1560ee	-0.036469392
49	0xbd177f4a	-0.036986627
50	0xbd3b31a6	-0.045701645
51	0xbd280d50	-0.04102832
52	0x3b8cc4d8	0.0042959265
53	0xbd3651f6	-0.044511758
54	0xbcb11422	-0.021616045
55	0x3ceb2c1e	0.02870756
56	0xbd3a11d8	-0.045427173
57	0xbd0e7322	-0.034777768
58	0x3c14a77c	0.0090731345
59	0x3c6d1a7c	0.014471646
60	0x3adf8d00	0.0017055571
61	0xbd20594a	-0.039147653
62	0xbbe89a68	-0.007098485
63	0x3bad86e8	0.005295623
64	0xbd4cebf2	-0.050029702
65	0x3b931458	0.004488509
66	0x3cce5c42	0.025190476
67	0xbcc063be	-0.02348506
68	0xbd24321c	-0.04008685
69	0x3c3eaf0c	0.011638414
70	0xbc63d49c	-0.0139056705
71	0x3d37f1dd	0.044908393
72	0x3d2824cf	0.04105073
73	0x3d476719	0.048682306
74	0x3ca27c8a	0.019834775
75	0x3d6d413f	0.05792355
76	0x3d0fc60d	0.035100985
77	0x3d6c25f3	0.05765338
78	0x3d7032dd	0.058642257
79	0x3c056864	0.008142564
80	0x3d08871b	0.03333197
81	0x3d004bcd	0.03132229
82	0x3ab2ffe0	0.0013656579
83	0xbd4ac9fc	-0.049509034
84	0xbd0fce30	-0.035108745
85	0xbc2621d4	-0.010139901
86	0xbd3cd789	-0.046103988
87	0x3d550321	0.052004937
88	0xbd2ee1d4	-0.042695835
89	0xbcfe3569	-0.031031327
90	0x3cfedd9e	0.031111535
91	0xbc2d0b08	-0.010561712
92	0xbce062f0	-0.027390927
93	0xbc4abbc8	-0.012373872
94	0xbcd6e5a2	-0.026232544
95	0xbc51e560	-0.012811035
96	0xbd4e8e0e	-0.050428443
97	0x3d557613	0.052114557
98	0x3d52aad5	0.05143245
99	0xbc0b3dfc	-0.008498665
100	0xbcab1d90	-0.02088812
101	0x3d152777	0.03641459
102	0xba8d9c00	-0.0010803938
103	0xbd281853	-0.041038822
104	0xbd3cd90a	-0.046105422
105	0xbb9bcf60	-0.0047549456
106	0x3d1b4687	0.037909057
107	0x3cad96ae	0.021190014
108	0x3d252bb9	0.0403249
109	0x3d1a852b	0.037724655
110	0xbd6f0699	-0.0583559
111	0x3d499549	0.049214635
112	0x3cf3ae82	0.029746298
113	0x3c4ce3ec	0.012505513
114	0xbb75a3a0	-0.0037481561
115	0xbd0ea84e	-0.034828477
116	0xbc997102	-0.018730644
117	0x3b6049e0	0.003422372
118	0xbd054fca	-0.032546796
119	0x3c81fea2	0.015868489
120	0x3d5b4f97	0.0535427
121	0xbc62af6c	-0.013835769
122	0xbd112148	-0.03543213
123	0x3cb7fa26	0.022458147
124	0xb8a3c800	-7.8096986e-05
125	0xbd29ae5e	-0.041426055
126	0xbc41a9d8	-0.011820279
127	0x3d300c8d	0.04298072
128	0xbd405842	-0.04695917
129	0xbcff54d5	-0.03116838
130	0xbc934466	-0.01797695
131	0xbd069f0c	-0.032866523
132	0xbbd6ee08	-0.0065591373
133	0xbd299818	-0.041404814
134	0x3d4c842f	0.049930748
135	0x3adbb260	0.0016761534
136	0x3be72698	0.0070541613
137	0x3d4a85cb	0.049444
138	0xbd365187	-0.044511344
139	0xbbf0c360	-0.0073475093
140	0x3d51974d	0.051169682
141	0xbd38f7f7	-0.045158353
142	0x3d184ec3	0.037184488
143	0x3d2e689f	0.042580243
144	0xbd5612f3	-0.052264165
145	0xbd6563ce	-0.056003384
146	0xbd0b16d0	-0.033957303
147	0xbd0c0c18	-0.03419122
148	0xbc2c20c0	-0.010505855
149	0xbc2e6430	-0.010644004
150	0xbc800d62	-0.015631381
151	0xbccd570a	-0.025065918
152	0xbcb3ff8a	-0.021972436
153	0xbbd0ecd8	-0.00637589
154	0xbd110c45	-0.03541209
155	0x3c528bd4	0.01285072
156	0x3cc4ff22	0.024047438
157	0x3d348ef5	0.044081647
158	0x3cadb31e	0.021203574
159	0x38d95200	0.0001036264
160	0xbd6c9d4d	-0.0577672
161	0x3d4069ed	0.04697602
162	0x3d307bbb	0.04308675
163	0x3d55f0d1	0.052231614
164	0xbcfe2708	-0.03102447
165	0xbc1b3ca4	-0.009474907
166	0x3c7318f4	0.014837492
167	0x3d5c67a1	0.053809766
168	0x3cb5b34e	0.022180226
169	0xbce64663	-0.028109735
170	0xbd36701e	-0.044540517
171	0x3d15bde7	0.036558058
172	0x3d116e5f	0.03550565
173	0xbcba1928	-0.022717074
174	0x3d5a312b	0.053269546
175	0x3d66324d	0.056200314
176	0xbd49cd75	-0.049268205
177	0x3c0cfa24	0.00860456
178	0xbc9ea35e	-0.019365009
179	0x3cc0e6a2	0.023547474
180	0x3d6cdc5b	0.057827335
181	0x3d1dadef	0.038495954
182	0x3d4f2a85	0.05057766
183	0x3ca2e2aa	0.019883472
184	0xbd4771e6	-0.048692606
185	0x3c19966c	0.009374242
186	0xbc33900c	-0.010959636
187	0x3d56e8ab	0.052467983
188	0x3cfaec7e	0.030630346
189	0xbc614ef0	-0.01375173
190	0x3d2f2127	0.042756226
191	0x3cca46b2	0.024691913
192	0x3d56713f	0.052354094
193	0xbd55c85d	-0.052193034
194	0x3d1a5bb3	0.037685107
195	0xbd269467	-0.04066887
196	0xbd460287	-0.048342254
197	0xbc39b068	-0.011333562
198	0x3b81a9b8	0.0039569996
199	0x3c3e754c	0.011624645
200	0xbd0d9d48	-0.034573823
201	0x3ace5d20	0.0015744306
202	0xbd344d6f	-0.04401916
203	0x3d2aba47	0.041681554
204	0x3d1b3c71	0.03789944
205	0x3d390ddf	0.045179244
206	0xbb784c10	-0.0037887134
207	0x3d334c6d	0.043774057
208	0xbc9151a0	-0.017739117
209	0xbd1d374c	-0.038382813
210	0x3d708cad	0.05872791
211	0x3bea6b58	0.0071539097
212	0xbb9091a0	-0.004411891
213	0x3d02ad83	0.031903755
214	0xbcbfd1a2	-0.02341539
215	0x3d51f839	0.051262114
216	0x3b62e600	0.0034621954
217	0xbd55274e	-0.052039437
218	0xbd45af49	-0.048262868
219	0x3ba24c18	0.0049529187
220	0x3caa2c86	0.020773184
221	0xbd1bf81e	-0.03807842
222	0xbd569c30	-0.052395046
223	0xbd3fd734	-0.046836093
224	0xbd170322	-0.036868222
225	0x3b69a020	0.003564842
226	0xbd198243	-0.037477743
227	0xbc18fde0	-0.009337872
228	0x3d032b25	0.032023568
229	0xbcbe0bf0	-0.023199052
230	0x3d4a73f1	0.049426977
231	0x3d250199	0.040284727
232	0x3ca09f3e	0.019607183
233	0x3cbd44b6	0.023104053
234	0xbd58bd50	-0.052914917
235	0x3d202ab1	0.039103214
236	0x3b95e3e8	0.0045742877
237	0xbd7108c4	-0.05884625
238	0xbd237012	-0.0399018
239	0x3d65e12f	0.056122955
240	0xbd3f0663	-0.04663695
241	0xbb3487b0	-0.0027546696
242	0xbd6ec290	-0.058291018
243	0xbc720b00	-0.01477313
244	0xbca26a8a	-0.019826192
245	0xbbd0e500	-0.006374955
246	0x3d2b1359	0.0417665
247	0x3d6fbc75	0.058529336
248	0xbcb506a2	-0.02209789
249	0xbd6fca44	-0.058542505
250	0x3d1742d5	0.03692897
251	0xbd426143	-0.047456037
252	0xbcca9768	-0.0247304
253	0xbcc4a076	-0.024002295
254	0xbd313e18	-0.043272108
255	0x3c0faa6c	0.008768659

conv2.bias f4 [64]
0	0xbd195e55	-0.037443478
1	0x3c83f862	0.01610965
2	0xbd668a1c	-0.056284055
3	0xbd58f691	-0.05296952
4	0xbd1565d0	-0.03647405
5	0x3bebdf68	0.007198263
6	0xbc388cd8	-0.0112640485
7	0xbccb2b20	-0.024800837
8	0xbc473f88	-0.012161143
9	0x3bf1eee8	0.007383216
10	0x3d189ced	0.03725903
11	0xbcca481c	-0.024692588
12	0x3cd1f57a	0.025629748
13	0x3bfd5448	0.0077309944
14	0x3ca05736	0.019572835
15	0xbd412c06	-0.047161125
16	0xbd0bc60a	-0.03412441
17	0x3cb3ddd2	0.021956358
18	0x3b0f5b30	0.002187442
19	0x3d277239	0.040880416
20	0xbd279120	-0.040909886
21	0x3c8135ce	0.015772726
22	0x3d1d49d1	0.038400475
23	0xbc1881c8	-0.009308286
24	0x3d1b1973	0.037866067
25	0x3c63a74c	0.013894867
26	0xbc575c10	-0.013144508
27	0x3ca1aeda	0.019736696
28	0xbc518d18	-0.012789987
29	0x3cfc2be6	0.030782651
30	0xbbf0ddd8	-0.0073506646
31	0xbc8f416e	-0.017487254
32	0x3d3ab823	0.045585763
33	0xbd5a629a	-0.05331669
34	0xbb54d1a0	-0.003247358
35	0xbd4fcfa4	-0.05073513
36	0x3d431f1b	0.047637086
37	0x3d606c4d	0.054790784
38	0x3d51b309	0.05119613
39	0xbd271082	-0.040787227
40	0x3d39b859	0.045341823
41	0xbcf37f0f	-0.029723672
42	0x3b9d1a28	0.004794378
43	0xbc35ca1c	-0.01109555
44	0x3cb26c0a	0.021780033
45	0x3c169114	0.009189863
46	0x3c9fc02a	0.01950081
47	0xbcb40e98	-0.021979615
48	0xbd6f2779	-0.058387253
49	0xbd65f319	-0.05614004
50	0xbcc2bb84	-0.023771055
51	0xba461d00	-0.0007557422
52	0xbb13c540	-0.002254799
53	0x3d591bbb	0.05300496
54	0x3c9b0ae6	0.018926095
55	0xbd12fb7e	-0.035884373
56	0x3baea438	0.005329635
57	0xbbdf7b30	-0.006820105
58	0xbd273fdc	-0.040832385
59	0x3d13664f	0.03598624
60	0xbd00f61c	-0.03148471
61	0xbbcddf70	-0.0062827393
62	0x3d365cc9	0.04452208
63	0x3c1a7aa4	0.009428654

conv3.weight f4 [128, 64, 3, 3]
0	0x3b826998	0.003979873
1	0xbce7bdb6	-0.028288703
2	0x3d0fbc31	0.035091583
3	0x3b75a450	0.003748197
4	0x3cee19da	0.029065061
5	0x3caba6a2	0.02095348
6	0x3b484730	0.003056001
7	0x3d01d675	0.031698663
8	0xbc82153e	-0.01587927
9	0xbc037c34	-0.008025218
10	0x3bbf2358	0.0058330707
11	0x3c84445a	0.016145874
12	0x3acfc820	0.0015852489
13	0x3a79af40	0.00095247105
14	0x3d174cef	0.036938604
15	0x3b758140	0.0037461072
16	0xbd28af3f	-0.041182753
17	0xbd099b94	-0.033595636
18	0x3cdcffe2	0.026977483
19	0xbb3ecd70	-0.002911415
20	0xbcee4910	-0.029087573
21	0xbcd2cb18	-0.025731608
22	0xbd06c08c	-0.03289847
23	0x3d1fae41	0.03898454
24	0xbc9467ab	-0.018115839
25	0xbbf30ea8	-0.0074175186
26	0x3c1f7594	0.009732623
27	0x3d1d0d61	0.038342837
28	0x3d27cb2f	0.040965255
29	0xbd0037da	-0.031303264
30	0xbc6b58ac	-0.014364403
31	0xbc81100b	-0.01575472
32	0x3ca093de	0.019601759
33	0xbcee7e18	-0.02911286
34	0x3d00426d	0.03131335
35	0xbccb8fee	-0.024848904
36	0x3c9affa8	0.018920735
37	0x3c3abb1c	0.011397149
38	0x3d27579d	0.04085504
39	0x3b259b00	0.002526939
40	0xbc083e9c	-0.0083157085
41	0x3cf720d2	0.030167017
42	0xbca8fff3	-0.020629859
43	0x3a3ed640	0.00072798505
44	0x3ccfd832	0.025371645
45	0xbd07e5ca	-0.03317813
46	0x3d1c9819	0.03823099
47	0x3cc76e9a	0.024344731
48	0x3cae8522	0.021303717
49	0xbd0c26ff	-0.034216877
50	0xbc9f0888	-0.019413248
51	0xbc1995f0	-0.009374127
52	0xbc5aca50	-0.013353899
53	0xbcd67100	-0.02617693
54	0x3cc3422a	0.02383526
55	0x3cba3886	0.02273203
56	0xbcd2ee8b	-0.025748512
57	0xbc67594c	-0.014120411
58	0x3adae880	0.001670137
59	0xbd00eab2	-0.031473823
60	0xbc902886	-0.017597448
61	0xbd162226	-0.03665366
62	0xbb9839c0	-0.004645556
63	0xbc6eb626	-0.014569795
64	0x3c6a9f30	0.01432018
65	0xbc61b31c	-0.013775613
66	0xbceb456b	-0.028719625
67	0x3d0a2aa3	0.033732068
68	0x3a9988e0	0.0011713766
69	0xbb73b900	-0.0037189126
70	0x3d217af5	0.0394239
71	0xbb2a6250	-0.002599854
72	0x3c25196c	0.010076862
73	0x3ccf3af6	0.02529667
74	0x3c436650	0.011926249
75	0x3b521170	0.003205385
76	0x3d034d65	0.03205623
77	0x3d257bc9	0.040401254
78	0x3d033a59	0.032038067
79	0xbc8ee3a3	-0.01744253
80	0x3d048e09	0.032362018
81	0x3c2689a0	0.010164648
82	0xbcf04123	-0.029327935
83	0xbbc771d8	-0.0060865693
84	0xbcec2466	-0.02882595
85	0xbcf91720	-0.030406535
86	0x3cda8a22	0.026677195
87	0x3d0ea711	0.034827296
88	0xbba1b320	-0.0049346834
89	0x3cb2c5ea	0.021822888
90	0x3afe90e0	0.0019421838
91	0x3cc7548a	0.024332304
92	0x3c048cd4	0.008090217
93	0x3cc9f6e2	0.024653856
94	0x3d1a44cb	0.037663262
95	0xbc17aa3c	-0.009256896
96	0xbd02d732	-0.031943507
97	0x3bdfc7b8	0.0068292283
98	0xbc80269b	-0.015643409
99	0x3d2a1373	0.041522454
100	0xbc14065c	-0.009034719
101	0x3c85ee7a	0.016349066
102	0x3cc9f57e	0.024653193
103	0x3d1550eb	0.036454123
104	0xbbe6f378	-0.0070480667
105	0xbc79ad40	-0.01523906
106	0x3cf8b39a	0.030359078
107	0xbd0cbb1e	-0.034358136
108	0xbccae58b	-0.024767658
109	0xbd1188fb	-0.035531025
110	0xbd206ab6	-0.039164267
111	0xbccbdd76	-0.024885874
112	0xbb0c9d30	-0.0021455996
113	0x3ce2afea	0.027671773
114	0x3b9f1220	0.0048544556
115	0xba588640	-0.0008259751
116	0x3d1a89f1	0.037729207
117	0x3ce454f6	0.027872544
118	0xbcad9ffe	-0.021194454
119	0x3d10df73	0.035369348
120	0xbd1e79fe	-0.03869056
121	0xbcc8fade	-0.024533685
122	0x3cbacdea	0.022803266
123	0x3c829110	0.015938312
124	0xbcaf84a3	-0.02142555
125	0xbc16d234	-0.00920539
126	0xbcd907e0	-0.026493013
127	0x3c4f275c	0.012643661
128	0x3cce77b2	0.02520356
129	0xbca9d583	-0.020731693
130	0xbac164a0	-0.001475472
131	0x3c4bbfa4	0.012435827
132	0x3d1af407	0.03783038
133	0xbd215eb3	-0.039396953
134	0xbcef7adb	-0.029233387
135	0xbc83fbd8	-0.0161113
136	0xbc9b047e	-0.01892304
137	0xbd1938ef	-0.03740781
138	0xbcf9020e	-0.030396488
139	0xbcca7243	-0.024712687
140	0xbc98dfb8	-0.018661365
141	0xba532b40	-0.0008055456
142	0x3cfe319a	0.031029511
143	0x3bdfbc38	0.0068278573
144	0x3cce1d5e	0.025160488
145	0xbcf0877e	-0.029361483
146	0xbd02a244	-0.03189303
147	0xbd26cb78	-0.040721387
148	0x3d12be75	0.035826165
149	0xbb0a9000	-0.002114296
150	0xbcb541eb	-0.022126159
151	0x3bda3498	0.0066591017
152	0xbcc0fc36	-0.023557764
153	0xbd243a28	-0.040094525
154	0xbd1a59df	-0.037683364
155	0xbd068950	-0.032845795
156	0x3cc3cd42	0.023901585
157	0x3c373e60	0.011184305
158	0xbbbacf20	-0.0057009608
159	0x3cc9435e	0.024568256
160	0x3c84bc8e	0.016203191
161	0x3c9b190e	0.018932845
162	0xbbf62060	-0.0075111836
163	0xbc98953b	-0.018625846
164	0xbc8c4353	-0.017121946
165	0x3b06ea30	0.0020586364
166	0x3b94ba38	0.0045388006
167	0xbc4921a6	-0.012276089
168	0x3c5352b0	0.012898132
169	0xbd271432	-0.040790744
170	0xbd12dfb0	-0.035857856
171	0xbc0cd580	-0.008595824
172	0x3d23ac85	0.03995945
173	0xbb6c7db0	-0.0036085658
174	0xbd1c50ac	-0.038162872
175	0x3cb0a032	0.021560762
176	0x3cee24ae	0.029070225
177	0xbca6ddeb	-0.02036949
178	0x3caae442	0.020860795
179	0xbd26256a	-0.040563025
180	0xbc58ed86	-0.013240224
181	0xbb379a00	-0.0028015375
182	0xbc326026	-0.010887181
183	0x3c71404c	0.014724802
184	0x3d27f7ad	0.041007686
185	0xbc2b25cc	-0.010446023
186	0x3ce7831a	0.028260756
187	0xbca9f4d6	-0.02074663
188	0x3ce5d39e	0.028055009
189	0xbc784b80	-0.015154719
190	0xbc829db3	-0.015944337
191	0xbc696a70	-0.014246568
192	0xbd00318f	-0.031297263
193	0x3c98a9a6	0.018635582
194	0x3bc5a020	0.0060310513
195	0xbd1aa44c	-0.037754342
196	0xbb2a3100	-0.0025969148
197	0x3d0380f3	0.032105397
198	0x3b964018	0.0045852773
199	0x3b6e6680	0.0036377013
200	0x3cab74c6	0.020929705
201	0x3d17aa9f	0.03702795
202	0x3c9ed100	0.019386768
203	0x3cab13de	0.020883497
204	0xbc87635e	-0.016526874
205	0x3cac0542	0.0209986
206	0xbd0b3bd0	-0.03399259
207	0x3c9428b8	0.018085822
208	0xbcfee080	-0.03111291
209	0x3d1a9aa9	0.03774515
210	0xbbb39c80	-0.0054813027
211	0x3c9161ee	0.017746892
212	0x3d009017	0.031387415
213	0x3cd352c2	0.025796298
214	0x3ba631f8	0.0050718747
215	0xbc961350	-0.018319756
216	0x3cf83fc2	0.03030384
217	0x3d0dd4a3	0.034626614
218	0xbc797570	-0.015225753
219	0x3d12c525	0.035832543
220	0xbcc0628e	-0.023484495
221	0xbb23acb0	-0.0024974756
222	0xbbf73140	-0.007543713
223	0x3a3bdd00	0.00071664155
224	0xbd1f39a8	-0.038873345
225	0x3b827f28	0.0039824434
226	0xbcc59346	-0.024118077
227	0x3c445c60	0.011984915
228	0x3c5e78f0	0.013578638
229	0x3c84dbba	0.016218055
230	0xbbbb5478	-0.0057168566
231	0xbc6881ec	-0.014191132
232	0x3d1fef6b	0.039046686
233	0x3ab741e0	0.0013981424
234	0xbcc6000e	-0.024169948
235	0xbc3f80b6	-0.011688402
236	0x3ceb0512	0.028688941
237	0xbca8d046	-0.020607125
238	0xbbfb25c8	-0.007664416
239	0x3c75ca3c	0.01500183
240	0x3c1cd52c	0.0095723085
241	0xbd0d3d6f	-0.034482416
242	0xbd19126a	-0.037371077
243	0x3ba1b208	0.004934553
244	0xbc892380	-0.01674056
245	0x3d1b99e5	0.037988562
246	0xbb7d9910	-0.0038695969
247	0x3cccbe42	0.024993066
248	0xbc5af256	-0.013363441
249	0x3c7f7b00	0.01559329
250	0xbcee2c9b	-0.029074004
251	0xbc3a2b10	-0.011362806
252	0xbbff0588	-0.007782642
253	0xbba9aaa8	-0.0051778145
254	0x3d0b1aeb	0.033961218
255	0xbcd9cb76	-0.026586276

conv3.bias f4 [128]
0	0x3d1edc19	0.03878412
1	0x3d2720bb	0.0408027
2	0x3c0d71a4	0.008633051
3	0x3cece5a2	0.028918091
4	0xbd043eab	-0.032286327
5	0x3c8d3562	0.017237369
6	0x3ab7ce20	0.0014023222
7	0x3d0efd17	0.034909334
8	0xbaa50aa0	-0.0012591667
9	0xbbfc85c0	-0.007706374
10	0xbd21e554	-0.039525345
11	0x3b7fccd0	0.003903199
12	0xbb358390	-0.0027696826
13	0x3d0527ed	0.03250878
14	0x3c4a888c	0.012361657
15	0x3d251e6d	0.04031222
16	0x3d15954d	0.036519337
17	0x3c84608a	0.016159315
18	0x3cdad172	0.0267112
19	0x3d0fd6db	0.03511701
20	0x3d1689bd	0.03675245
21	0x3d213e01	0.039365772
22	0xbce36b48	-0.027761117
23	0x3d009375	0.031390626
24	0xbd13dec6	-0.036101125
25	0x3c1d93e0	0.009617776
26	0xbd00fce2	-0.031491168
27	0x3d20f75d	0.039298404
28	0xbb406cf0	-0.0029361807
29	0xbcbcf6f8	-0.023066983
30	0x3cc98c9a	0.024603177
31	0xbb382440	-0.0028097779
32	0xbced6270	-0.028977603
33	0xbd04bed7	-0.03240856
34	0xbc21e13c	-0.00988036
35	0x3cd2db1a	0.025739241
36	0x3d0cc031	0.034362976
37	0xbc6fb206	-0.014629846
38	0xbcf83b73	-0.030301785
39	0x3ca2af50	0.019858986
40	0x3d045391	0.032306258
41	0x3d18134d	0.03712778
42	0xbc438010	-0.011932388
43	0x3c0a5350	0.008442715
44	0xbc6a8696	-0.014314314
45	0x3b6eec40	0.0036456734
46	0x3c8c965a	0.017161537
47	0x3cdb0e4a	0.026740212
48	0xbd28f957	-0.041253414
49	0xbcff350b	-0.031153223
50	0xbcff3336	-0.031152349
51	0x3ba43158	0.005010765
52	0x3d27adf5	0.040937383
53	0x3c875ace	0.016522791
54	0xbc913f0e	-0.017730262
55	0x3cdaaa76	0.02669261
56	0xbd052bef	-0.0325126
57	0xbd2a94dc	-0.04164587
58	0xbc377dd0	-0.01119943
59	0xbca8c4de	-0.020601686
60	0xbd08ca8a	-0.03339628
61	0x3d12ab41	0.03580785
62	0xbcb457f6	-0.0220146
63	0xbce225f6	-0.027605992
64	0x3c057350	0.008145168
65	0xbc815696	-0.015788358
66	0xbcd2e7d8	-0.025745317
67	0xbd25bd7f	-0.04046392
68	0xbc980240	-0.01855576
69	0x3cd6f036	0.026237588
70	0x3c90b6e6	0.017665338
71	0x3d0a81d9	0.03381524
72	0xbcc5bffe	-0.0241394
73	0xbcf3d096	-0.029762547
74	0xbcb5de18	-0.02220063
75	0x3d115e71	0.035490457
76	0xbd213c78	-0.039364308
77	0x3cf1ef86	0.029533159
78	0x3bb2ef60	0.0054606646
79	0xbbbca600	-0.0057570934
80	0x3d223e9f	0.0396105
81	0xbc758c76	-0.014987102
82	0xbc0bd6b4	-0.008535076
83	0xbc8abfb0	-0.016937107
84	0xbd165b53	-0.036708187
85	0xbc813fc3	-0.015777474
86	0xbd0a5bf8	-0.033779114
87	0xbca087fb	-0.01959609
88	0x3d0aa345	0.033847112
89	0x3c162ac0	0.009165466
90	0xb9dca380	-0.00042083487
91	0x3d1cf047	0.038315084
92	0xbce93866	-0.028469276
93	0x3c2185bc	0.009858545
94	0x3b98d9e0	0.0046646446
95	0x3d03f45d	0.032215465
96	0x3d01df13	0.03170688
97	0xbcbe0818	-0.023197219
98	0x3c9c59d8	0.01908581
99	0xbcb412eb	-0.021981677
100	0x3d0e54c7	0.03474882
101	0xbc2e7886	-0.010648852
102	0xb98c0f80	-0.0002671443
103	0xbcb9da1b	-0.022687009
104	0xbccea160	-0.025223434
105	0x3bcfb1d8	0.0063383393
106	0xbcbb00f0	-0.022827595
107	0x3cb45382	0.022012476
108	0xbb299350	-0.0025875159
109	0x3cfee416	0.03111462
110	0xba4d4bc0	-0.0007831417
111	0x3ca30ee6	0.019904565
112	0x3cf52626	0.029925417
113	0xbcaa405b	-0.02078264
114	0xbc65fea0	-0.014037758
115	0xbccfc0be	-0.025360461
116	0xbcb8c570	-0.022555083
117	0x3d13620f	0.035982188
118	0xbc8c80fb	-0.017151346
119	0x3d1b7d8d	0.03796153
120	0x3d1f8b95	0.038951475
121	0x3a4d5140	0.00078322366
122	0xbc022ff0	-0.0079459995
123	0x3d0d75fd	0.03453635
124	0xbcdc142e	-0.026865091
125	0xbd185ec7	-0.03719976
126	0x3b7ba8f0	0.0038400255
127	0x3d14d59f	0.036336537

act_conv1.weight f4 [4, 128, 1, 1]
0	0x3da7c9f1	0.08192814
1	0xbd41b42c	-0.047290966
2	0x3d9500df	0.07275557
3	0xbda53570	-0.08066833
4	0xbca6233c	-0.020280473
5	0xbd512f21	-0.051070336
6	0x3da128af	0.07869088
7	0x3c9c8244	0.019105084
8	0x3d319712	0.043356963
9	0x3d95e263	0.073185705
10	0xbd434f85	-0.047683258
11	0xbce3d8b6	-0.027813297
12	0x3d94b68b	0.0726138
13	0xbd6f800c	-0.058471724
14	0x3c577c48	0.01315219
15	0xbd094c4d	-0.03352003
16	0x3cd42e60	0.02590102
17	0xbd35a0ae	-0.04434269
18	0x3af7e200	0.0018911958
19	0xbdae3137	-0.08505481
20	0xbd970f6a	-0.07375987
21	0xbd8b7773	-0.068098925
22	0x3d7f9702	0.06239987
23	0x3d80b1b9	0.06283898
24	0x3c35d578	0.011098258
25	0xbd9fda8c	-0.078053564
26	0xbd36dc53	-0.04464371
27	0x3c95abe8	0.018270448
28	0xbcc9a554	-0.024614967
29	0xbcb72ad4	-0.02235929
30	0xbc870bb0	-0.016485065
31	0xbc3b6150	-0.011436775
32	0x3d9f4527	0.07776862
33	0xbd74284c	-0.059608743
34	0x3d903ea3	0.07043197
35	0xbdad735a	-0.08469267
36	0x3d6e92e2	0.058245547
37	0xbcb110ec	-0.021614514
38	0xbc88ada0	-0.016684353
39	0x3d8426ed	0.06452737
40	0x3d9bb62f	0.07603108
41	0x3bd1f3b0	0.0064072236
42	0xbd6af7df	-0.057365295
43	0xbd07d0d6	-0.033158146
44	0x3cee7214	0.029107131
45	0xbd5482af	-0.051882442
46	0x3c137e70	0.009002313
47	0xbc579f30	-0.013160512
48	0xbd2eb621	-0.04265416
49	0x3da3a16f	0.079897754
50	0xbcba1070	-0.022712916
51	0xbd92f9ff	-0.07176589
52	0xbbe0db00	-0.0068620443
53	0x3d1301d6	0.035890423
54	0x3d13c73a	0.03607867
55	0x3d0ec618	0.034856886
56	0x3d28b236	0.04118558
57	0x3bda9a70	0.0066712424
58	0xbd6614ca	-0.05617217
59	0xbd11f5fc	-0.03563498
60	0x3d4473b2	0.0479619
61	0xbd9a9332	-0.075476065
62	0x3d3e8322	0.046511777
63	0xbd3dfa98	-0.046381563
64	0x3c7b2c90	0.015330449
65	0xbd944fb3	-0.07241764
66	0x3a817b00	0.0009878576
67	0xbd6e750c	-0.058217093
68	0xbd2b69b0	-0.04184884
69	0x3dacdb3d	0.08440254
70	0xbcd5a5a6	-0.026079964
71	0x3d1aa5be	0.03775572
72	0xbd8a6078	-0.06756681
73	0x3db2e2cf	0.087346666
74	0x3d8a6321	0.067571886
75	0xbd942aaa	-0.072347
76	0xbb90e520	-0.004421845
77	0x3c0ef568	0.008725502
78	0xbda1fdda	-0.079097465
79	0x3d02b9ee	0.031915598
80	0x3cae8768	0.021304801
81	0xbda59af6	-0.08086197
82	0xbd3f7315	-0.04674061
83	0x3b0448c0	0.0020184964
84	0x3d455bc6	0.048183225
85	0x3c8014a0	0.015634835
86	0xbd6d5728	-0.057944447
87	0xbbbd6320	-0.005779639
88	0xbb9fc890	-0.004876204
89	0x3a50f080	0.00079704076
90	0x3cfe4ce0	0.031042516
91	0xbce617c2	-0.0280875
92	0x3ca1a904	0.019733913
93	0xbc9094f8	-0.017649159
94	0xbbd10280	-0.006378472
95	0xbdaaef53	-0.08346429
96	0xbc556e30	-0.013026759
97	0xbda91fc4	-0.08258012
98	0xbd1a3a9f	-0.03765356
99	0xbd9f0476	-0.07764523
100	0x3da6f3f9	0.08152003
101	0xbdb4dac1	-0.088307865
102	0xbcf94e1c	-0.030432753
103	0xbb4de860	-0.0031419024
104	0x3cc96154	0.024582542
105	0x3d96fbb5	0.07372228
106	0x3daca7a9	0.08430416
107	0x3d804793	0.06263652
108	0xbd9f7687	-0.07786279
109	0x3d0ed8de	0.03487479
110	0x3d72a06a	0.059235014
111	0x3c7fcd40	0.0156129
112	0xbd657b2c	-0.05602567
113	0xbcaba7e8	-0.020954087
114	0xbcfdc646	-0.030978333
115	0x3d64535a	0.055743553
116	0xbd24fdb5	-0.040281016
117	0x3bda5280	0.006662667
118	0x3d3a1632	0.045431323
119	0xbd8f313a	-0.06991811
120	0x3b939050	0.0045032874
121	0xbd236936	-0.03989526
122	0x3d99009b	0.074708186
123	0xbd25ab2c	-0.040446445
124	0x3cfff790	0.031245977
125	0x3bb317a0	0.005465463
126	0xbdae664a	-0.08515604
127	0xbdaffffb	-0.08593746
128	0x3d3051f2	0.0430469
129	0xbd2e08eb	-0.042488974
130	0x3d5cada6	0.05387654
131	0xbc4dfb38	-0.012572102
132	0xbd270270	-0.04077381
133	0xbd954a0b	-0.07289513
134	0xbd6f96c6	-0.058493398
135	0xbd516bb5	-0.051128108
136	0xbd9bab28	-0.07601005
137	0xbd7fbd4b	-0.062436383
138	0xbd966964	-0.073443204
139	0xbd2c159a	-0.04201279
140	0xbd63db34	-0.05562897
141	0x3da51e93	0.08062472
142	0xbbac5b60	-0.005259916
143	0xbd83df6a	-0.06439097
144	0xbc7834b0	-0.01514928
145	0x3d997157	0.07492321
146	0x3d7cee56	0.061750732
147	0xbdacd01a	-0.0843813
148	0xbd77cf0e	-0.060500197
149	0x3d8a14d1	0.06742252
150	0xbd0455dc	-0.032308444
151	0x3d32ed82	0.043683536
152	0x3c9bcbf0	0.019018143
153	0xbb9c5480	-0.0047708154
154	0x3dabad99	0.083827205
155	0x3cced6d4	0.025248922
156	0x3d515732	0.051108547
157	0x3d8c8b43	0.068624996
158	0x3c60f538	0.01373034
159	0xbcc33d00	-0.023832798
160	0xbd9ddbdf	-0.07707953
161	0xbd498bcb	-0.049205583
162	0x3c3ddf30	0.011588857
163	0x3cdd12b4	0.026986457
164	0xbd985736	-0.07438509
165	0xbc9782dc	-0.018495016
166	0x3cda0258	0.026612446
167	0xbd9b2296	-0.07574956
168	0xbca72d14	-0.020407237
169	0x3d347cc2	0.04406429
170	0xbd9e01af	-0.07715165
171	0xbc8c2244	-0.017106183
172	0x3d887069	0.066620655
173	0xbc843ce4	-0.016142316
174	0x3d36587e	0.044517986
175	0x3db1afbf	0.08676099
176	0x3bddd8d0	0.006770231
177	0xbd88b771	-0.06675614
178	0xbaee8980	-0.0018198937
179	0x3d26ac56	0.040691696
180	0x3d486326	0.04892268
181	0xbd9ffe92	-0.07812227
182	0x3cd15604	0.02555371
183	0xbd282fc6	-0.041061185
184	0x3d5fb172	0.054612584
185	0xbd42e196	-0.047578417
186	0x3d834ae3	0.06410768
187	0xbda90393	-0.08252635
188	0xbd4c38ec	-0.049858972
189	0x3d990e5d	0.07473443
190	0x3cfdd318	0.030984446
191	0xbbe17770	-0.006880693
192	0x3d8de6bd	0.069287755
193	0xbda2cf18	-0.07949656
194	0x3d177e8a	0.03698591
195	0x3da1577b	0.07878014
196	0x3c555818	0.0130214915
197	0x3b4574c0	0.0030129403
198	0xbd329c63	-0.043606173
199	0x3c892ea4	0.016745873
200	0x3d4a7822	0.049430974
201	0x3cd83bc8	0.026395693
202	0xbd0c2ecc	-0.034224316
203	0x3ccf4c24	0.025304861
204	0xbd3836dd	-0.044974197
205	0x3d256b52	0.04038555
206	0xbda34b26	-0.07973318
207	0x3daf9873	0.08573999
208	0xbb84d470	-0.004053645
209	0x3d9fd93f	0.07805108
210	0xbc223338	-0.009899907
211	0xbc9f9af8	-0.019483075
212	0xbce61bd4	-0.028089441
213	0xbc7b1468	-0.015324689
214	0xb9a76f00	-0.00031935424
215	0x3b1b2500	0.0023673177
216	0x3d925c3f	0.07146501
217	0xbc98225c	-0.018571071
218	0xbda5330e	-0.080663785
219	0xbcbfdb1c	-0.02341991
220	0x3d46f052	0.04856903
221	0xbc9d90f4	-0.019234158
222	0xbdb05e55	-0.086117424
223	0xbce13900	-0.027493
224	0xbd2235e2	-0.039602168
225	0x3c3bbe00	0.011458874
226	0xbccc590c	-0.024944805
227	0x3d440db6	0.04786464
228	0x3b8fe3c0	0.0043911636
229	0xbdb12e8c	-0.08651456
230	0xbc82c608	-0.01596357
231	0x3c84e224	0.016221114
232	0x3c3ad4e0	0.011403292
233	0xbd3e7e2f	-0.046507057
234	0x3d872a1f	0.06599831
235	0xbd96c67f	-0.07362079
236	0x3d229d7e	0.039700978
237	0xbd83a16f	-0.064272754
238	0x3d1b4d1a	0.037915327
239	0x3cc2b1b4	0.023766376
240	0x3d09682a	0.033546604
241	0x3d4f59fe	0.050622933
242	0xbda0d07e	-0.07852267
243	0x3d903d27	0.07042914
244	0x3d81ae79	0.06332106
245	0xba2f7900	-0.00066937506
246	0x3da57c71	0.08080376
247	0x3d5c4e66	0.053785704
248	0xbd2c05d0	-0.04199773
249	0x3d47c1de	0.04876887
250	0x3d8f8525	0.07007817
251	0xbce1df14	-0.027572192
252	0xbd85a313	-0.065252446
253	0x3c1d2210	0.009590641
254	0x3d891e8f	0.06695282
255	0xbd01fddf	-0.03173625

act_conv1.bias f4 [4]
0	0x3cd0d390	0.025491506
1	0xbd853b3f	-0.06505441
2	0x3cba6688	0.022753969
3	0xbd8ee55a	-0.06977339

act_fc1.weight f4 [36, 144]
0	0x3d31ce66	0.043409728
1	0xbd778353	-0.060427975
2	0x3c646108	0.01393915
3	0xbceaea76	-0.028676253
4	0xbd6595c0	-0.056051016
5	0x3c8a8b9c	0.016912274
6	0x3d29e12a	0.0414745
7	0xbd60c7ab	-0.05487792
8	0x3d44c6aa	0.048041023
9	0xbd82858f	-0.063731305
10	0x3d61460e	0.05499845
11	0xbd877c2a	-0.06615479
12	0x3c2005d8	0.009767018
13	0x3cdd3b30	0.027005762
14	0xbd733b5b	-0.059382778
15	0xbd4d50d0	-0.050125897
16	0x3d852f0d	0.06503115
17	0x3d0b1ca0	0.033962846
18	0x3d156e4e	0.036482148
19	0xbcb1b64c	-0.021693371
20	0x3cd98afc	0.02655553
21	0xbcf4507c	-0.029823534
22	0xbd88aeaf	-0.06673943
23	0xbd6291e8	-0.05531493
24	0xbd5b772b	-0.053580444
25	0xbd264d93	-0.040601324
26	0xbd6bd360	-0.05757463
27	0x3cfaf5f0	0.03063485
28	0xbc7f3118	-0.01557567
29	0xbbeadb10	-0.0071672276
30	0xbbd81ad0	-0.006594993
31	0xbd0de5ee	-0.034643106
32	0x3d5ffb36	0.054682933
33	0x3da12d75	0.07869998
34	0x3d16e77e	0.036841862
35	0xbc4a3c00	-0.012343407
36	0xbd86ec27	-0.06588011
37	0x3ce9eb30	0.028554529
38	0xbd80f102	-0.062959686
39	0xbcbe6dd0	-0.023245722
40	0x3cc0eca4	0.023550339
41	0xbd96d48e	-0.0736476
42	0xbb4378a0	-0.0029826537
43	0x3da13983	0.078722976
44	0xbd1e2570	-0.038609922
45	0x3c95e53c	0.018297784
46	0x3d3d6672	0.046240278
47	0x3d138078	0.03601119
48	0x3d817bc7	0.06322437
49	0xbc9ce3ec	-0.01915165
50	0x3c299ce8	0.010352351
51	0xbc77c780	-0.015123248
52	0x3d65df72	0.056121297
53	0x3d0322f2	0.03201575
54	0x3d1a031a	0.037600614
55	0x3d8ce3f7	0.06879418
56	0x3da17f7b	0.07885643
57	0x3d513fc6	0.05108621
58	0x3b85c580	0.0040823817
59	0xbd8b1a93	-0.06792178
60	0x3a1b6380	0.00059276074
61	0x3d2b8e5a	0.041883804
62	0xbda48bc6	-0.08034472
63	0x3d984f81	0.07437039
64	0x3d93ceb1	0.07217158
65	0x3d9fd677	0.07804578
66	0x3d4b4aaa	0.049631752
67	0x3c82f9ac	0.015988193
68	0xbb14aaa0	-0.0022684708
69	0xbc980040	-0.018554807
70	0xbd788d1e	-0.060681455
71	0x3da4b44d	0.08042202
72	0x3d8094d1	0.062783845
73	0x3c1d7be8	0.009612061
74	0x3c8a4214	0.016877212
75	0x3cd2f360	0.025750816
76	0xbd08001e	-0.033203237
77	0xbc404260	-0.011734575
78	0xbcf37100	-0.029716969
79	0x3d61bc3a	0.055111147
80	0x3d4481ca	0.04797534
81	0xbce401f6	-0.027832966
82	0xbd8bbf48	-0.068235934
83	0xbd549956	-0.051904045
84	0xbc979e70	-0.018508166
85	0x3d3c1682	0.045919903
86	0xbd3f2330	-0.046664417
87	0xbd216e8b	-0.039412063
88	0xbd10a6ae	-0.035315208
89	0x3d9f0ed5	0.07766501
90	0xbd8921ca	-0.06695898
91	0xbd3d084b	-0.046150487
92	0x3d84de39	0.06487698
93	0xbd95f9df	-0.0732305
94	0xbd6e9da8	-0.05825582
95	0x3d494192	0.0491348
96	0xbd9ad06b	-0.07559284
97	0xbd72fb78	-0.05932185
98	0x3cb9bfe0	0.022674501
99	0x3d493ec2	0.049132116
100	0xbc8e05b0	-0.017336696
101	0x3c8e1e44	0.017348416
102	0x3a4be800	0.0007778406
103	0x3c32f8a0	0.010923535
104	0x3d4a5b26	0.049403332
105	0x3c5a6108	0.013328798
106	0xbc80106c	-0.01563283
107	0xbd8d3882	-0.06895544
108	0x3d6623f6	0.05618664
109	0xbd78dfdb	-0.06076036
110	0x3d515c9e	0.051113717
111	0x3d874b65	0.06606177
112	0x3c59fae0	0.013304442
113	0x3c523f48	0.01283247
114	0x3d3c00da	0.04589925
115	0x3ca68264	0.020325847
116	0xbb30b320	-0.0026962236
117	0x3d9293f3	0.07157125
118	0xbd743bb0	-0.059627235
119	0xbcc8b3d6	-0.024499815
120	0xbd9b2b58	-0.075766265
121	0xbd8557ba	-0.06510873
122	0x3cad60f0	0.021164387
123	0xbd926143	-0.071474575
124	0xbce10c2c	-0.027471624
125	0x3d1dac42	0.038494356
126	0xbcf5ac5c	-0.029989414
127	0x3d1ef926	0.038811825
128	0xbd11e23e	-0.035616152
129	0xbdaa1dbc	-0.08306453
130	0xbd8e848e	-0.069588766
131	0xbc59a928	-0.013284959
132	0x3d61f25a	0.055162765
133	0xbd91e138	-0.07123035
134	0x3d8fd381	0.07022763
135	0xbd72fac3	-0.059321176
136	0xbd9933c7	-0.07480579
137	0xbd52534b	-0.051348966
138	0x3d52acc2	0.051434286
139	0xbd953ee2	-0.072873846
140	0xbd3e97ab	-0.04653136
141	0x3cf466a4	0.0298341
142	0xbd588eb6	-0.052870475
143	0xbbfe3200	-0.0077574253
144	0xbda4774b	-0.08030566
145	0xbd8f187f	-0.06987094
146	0x3d3e56da	0.046469547
147	0xbd99389e	-0.07481502
148	0xbd385346	-0.04500129
149	0xbc4abe18	-0.012374423
150	0x3d3f185a	0.046654083
151	0x3c8a81ac	0.016907535
152	0x3da3fa4f	0.08006727
153	0xbcfdd3d0	-0.03098479
154	0x3d3936d2	0.045218296
155	0x3d8e909f	0.06961178
156	0xbd0ca1d8	-0.034334034
157	0xb9c76b00	-0.0003803596
158	0x3d8d9971	0.06914032
159	0xbd420d00	-0.04737568
160	0xbd043d48	-0.032285005
161	0x3d9c2c39	0.07625622
162	0x3d02840e	0.03186422
163	0xbdaa7c9b	-0.08324548
164	0x3d26e188	0.040742427
165	0x3a960b40	0.0011447445
166	0x3bb74570	0.0055929944
167	0xbc4697b8	-0.0121211335
168	0xbca9ed3c	-0.020743005
169	0x3ad96e40	0.0016588643
170	0x3d7d506a	0.061844267
171	0x3da52b4d	0.080648996
172	0x3d06284a	0.032753266
173	0x3bad5e80	0.0052908063
174	0x3ccedafc	0.025250904
175	0x3c737648	0.014859743
176	0x3c8b345c	0.01699274
177	0x3cdf2e30	0.027243704
178	0xbd9df900	-0.077135086
179	0x3cb6866c	0.022280894
180	0xbc5e9bb8	-0.013586931
181	0x3d3f4d32	0.04670448
182	0x3c7797e8	0.015111901
183	0xbbc11800	-0.0058927536
184	0x3d74f352	0.05980236
185	0x3d2865ee	0.041112833
186	0x3d8a920b	0.06766137
187	0x3d97bcbd	0.07409046
188	0x3d7f705a	0.062363006
189	0x3b8fa130	0.0043832287
190	0x3d6c1432	0.057636447
191	0x3d50a51a	0.050938703
192	0x3d850bdf	0.06496405
193	0x3cfe5ae0	0.031049192
194	0xbba88780	-0.005143106
195	0x3d1d4778	0.038398236
196	0xbd707378	-0.05870387
197	0xb9273800	-0.00015947223
198	0xbbffa7d0	-0.007801987
199	0x3da65bbb	0.08122965
200	0xbda4b8ab	-0.08043035
201	0x3d5a2262	0.053255446
202	0xbc876af4	-0.016530491
203	0xbd409c76	-0.047024213
204	0xbd3ac9d8	-0.04560265
205	0xbb843b30	-0.004035376
206	0x3b8b4cf0	0.004251115
207	0x3cb5b37c	0.022180311
208	0xbc6a3b78	-0.014296405
209	0xbc5b3a68	-0.013380624
210	0x3ce73480	0.028223276
211	0x3c8060bc	0.015671127
212	0x3cca6550	0.024706513
213	0xbd10e170	-0.035371244
214	0x3d5a15f2	0.053243585
215	0x3c522828	0.012826957
216	0x3d8fe0a9	0.070252724
217	0x3d2b0d82	0.04176093
218	0xbc22b6a8	-0.009931244
219	0xbd756cbe	-0.059918158
220	0x3d598402	0.053104408
221	0x3d87f8f3	0.0663928
222	0x3d67372a	0.056449093
223	0x3da0c35d	0.078497626
224	0xbda6db5a	-0.08147307
225	0xbb9fb110	-0.0048734024
226	0x3d95ce99	0.07314796
227	0xbd085b90	-0.033290446
228	0xbd05c9f0	-0.032663286
229	0x3d47e2ca	0.048800267
230	0xbd838a2b	-0.06422838
231	0xbcb7f1e0	-0.022454202
232	0xbd8545fa	-0.065074876
233	0xbd1821e8	-0.03714171
234	0xbd91c1ca	-0.071170405
235	0x3d732422	0.05936063
236	0xbb0b5be0	-0.0021264479
237	0x3d3b67f2	0.045753427
238	0x3d74dbc6	0.059779905
239	0xbc154c58	-0.00911244
240	0x3d892381	0.06696225
241	0xbd860acf	-0.0654503
242	0x3d3512f2	0.04420752
243	0x3ca054e0	0.019571722
244	0xbd9a56ea	-0.07536109
245	0x3d26b036	0.04069539
246	0x3bbe0290	0.0057986453
247	0x3d210ac0	0.039316893
248	0x3d7b0d8a	0.06129221
249	0xbd011d30	-0.031521976
250	0xbd9ee813	-0.077591084
251	0x3cded0bc	0.027199142
252	0xbd922efb	-0.07137867
253	0x3d26df86	0.040740512
254	0x3d9b6f0b	0.07589539
255	0xbd750aa0	-0.059824586

act_fc1.bias f4 [36]
0	0xbd327b98	-0.0435749
1	0x3d3d3622	0.046194203
2	0xbd5ed420	-0.054401517
3	0xbd941afa	-0.07231708
4	0xbcea1770	-0.028575629
5	0x3da1545b	0.07877418
6	0xbcb5768c	-0.022151254
7	0x3d9e0eb1	0.07717646
8	0xbb449f20	-0.0030002072
9	0xbd14c35b	-0.036319118
10	0xbd9a115e	-0.07522844
11	0xbd32351e	-0.043507688
12	0xbd3ccef8	-0.04609582
13	0x3cd27cf0	0.02569434
14	0x3d91bc17	0.071159534
15	0x3d6eee0a	0.05833248
16	0x3d73aad2	0.05948908
17	0x3d434676	0.04767462
18	0xbd1f47f8	-0.038886994
19	0x3d05647a	0.032566525
20	0x3d9b18f5	0.075731196
21	0x3d84e7e1	0.0648954
22	0x3d38f40a	0.04515461
23	0xbbac8670	-0.0052650496
24	0x389b1000	7.393956e-05
25	0x3bdbf8b0	0.0067129955
26	0x3c53f440	0.012936652
27	0xbd83814f	-0.06421148
28	0xbd2da173	-0.042390298
29	0xbc43e800	-0.011957169
30	0x3d2c4e3a	0.04206679
31	0xbb2323a0	-0.002489306
32	0x3d09b9da	0.033624507
33	0x3d439cca	0.047756948
34	0x3c48e9c8	0.012262769
35	0x3da436c1	0.08018256

val_conv1.weight f4 [2, 128, 1, 1]
0	0xbd91d0fc	-0.07119939
1	0xbd4d1c86	-0.05007603
2	0xbd682242	-0.056673296
3	0x3d96a951	0.07356513
4	0xbd33cb50	-0.043895066
5	0xbd4dbe6b	-0.050230425
6	0x3cc7081c	0.024295859
7	0x3dab0833	0.08351173
8	0x3b27f9a0	0.0025630966
9	0x3cc94370	0.02456829
10	0x3da06821	0.07832361
11	0x3da1f7b9	0.079085775
12	0x3d50e866	0.051002882
13	0x3c3aa100	0.011390924
14	0x3c76f288	0.015072472
15	0xbca95db4	-0.020674564
16	0x3d94420f	0.07239162
17	0x3b7c3760	0.0038485155
18	0x3d000e1a	0.03126345
19	0xbd21f1e7	-0.039537337
20	0x3d7f596e	0.062341146
21	0x3d3104ca	0.043217458
22	0x3d3cdeda	0.046110965
23	0xbda0d66c	-0.07853398
24	0x3c8e94a8	0.01740487
25	0x3d26e86a	0.04074899
26	0x3ce4e868	0.027942851
27	0x3d9f6c7b	0.07784363
28	0xbd774de3	-0.060377013
29	0x3c17f370	0.009274349
30	0xbd5e5c24	-0.05428709
31	0x3d2502ea	0.040285982
32	0x3d6fbeb2	0.05853147
33	0x3d8eab6d	0.069662906
34	0x3d5fe4e6	0.054661654
35	0xbc8f3fa0	-0.017486393
36	0x3d1aa97e	0.037759297
37	0xbc82a6b4	-0.01594863
38	0xbcc41528	-0.02393587
39	0x3da72017	0.081604175
40	0xbd6a443e	-0.057193987
41	0x3d83e511	0.06440175
42	0x3daa1b21	0.08305956
43	0x3bbd30f0	0.005773656
44	0x3c978f00	0.018500805
45	0xbbc647c0	-0.0060510337
46	0xbd5469c2	-0.05185867
47	0xbc44c9c8	-0.012010999
48	0x3cd753d0	0.026285082
49	0xbd773398	-0.060351938
50	0xb9672e00	-0.00022047013
51	0xbcbe60e0	-0.023239553
52	0xbd7559fc	-0.05990027
53	0x3db2b163	0.0872524
54	0x3d7e882a	0.062141575
55	0x3d3bf94a	0.045892037
56	0x3d8464c7	0.06464534
57	0x3baf2000	0.005344391
58	0x3d76ac4a	0.0602229
59	0x3d998321	0.07495714
60	0x3d8b285f	0.067948096
61	0x3c8ce2a0	0.017197907
62	0x3d8ac7af	0.06776368
63	0x3cf97e2c	0.030455671
64	0x3d1c15f2	0.038106866
65	0xbd9e4f8b	-0.07730015
66	0x3d10fa50	0.035394967
67	0x3d346246	0.044039033
68	0xbd05e081	-0.032684807
69	0x3c3e46b8	0.01161354
70	0x3d6b95e6	0.057516
71	0x3d6a9fa2	0.057281144
72	0xbd84ab32	-0.064779654
73	0x3db381cf	0.087649934
74	0xbc81bf84	-0.015838392
75	0x3d7f7472	0.06236691
76	0xbda9dd47	-0.082941584
77	0xbd629bb7	-0.055324282
78	0x3cd21e4c	0.025649212
79	0xbb611de0	-0.0034350082
80	0x3d8798ab	0.06620916
81	0x3d41ab22	0.047282346
82	0x3d1542f0	0.03644079
83	0x3ce7cf28	0.028297022
84	0xbc753c00	-0.014967918
85	0xbccc2228	-0.02491863
86	0x3d5713c2	0.052509077
87	0xbc9839ac	-0.018582188
88	0x3db4cb65	0.08827857
89	0x3ce0a938	0.02742444
90	0x3d4af7d6	0.04955276
91	0xbcb02b78	-0.021505103
92	0x3d080c72	0.033214994
93	0x3d78070a	0.060553588
94	0x3d9ba6b7	0.07600158
95	0x3da185cd	0.078868486
96	0xbc2b4930	-0.010454461
97	0x3cf08830	0.029361814
98	0x3b9115b0	0.004427634
99	0x3db079a1	0.08616949
100	0xbd8da256	-0.06915729
101	0x3c95c1f0	0.018280953
102	0x3da64d17	0.081201725
103	0xbda0f6ff	-0.07859611
104	0x3d9c516b	0.07632717
105	0x3cfbf27c	0.030755274
106	0x3c878be4	0.016546197
107	0x3d813fb9	0.06310982
108	0xbda480fb	-0.080324136
109	0xbd84a225	-0.06476239
110	0xbd8d11c8	-0.06888157
111	0xbda6e718	-0.081495464
112	0xbd5c6092	-0.053803034
113	0xbd62aa7f	-0.05533838
114	0x3d56e7ae	0.05246704
115	0xbd5ea17b	-0.05435322
116	0xbd872d16	-0.06600396
117	0x3d71896a	0.05896894
118	0xbc51e130	-0.012810037
119	0x3d712f4a	0.05888299
120	0x3d8be071	0.06829918
121	0xbce5e11e	-0.028061446
122	0x3c9af364	0.018914886
123	0x3d9c25ff	0.07624435
124	0xba88a2c0	-0.001042448
125	0xbc0184b8	-0.007905178
126	0x3db4e09d	0.08831904
127	0x3d3383de	0.04382693
128	0xbcbfe804	-0.023426063
129	0x3b6c2160	0.0036030635
130	0x3c09bcc0	0.008406818
131	0x3c1c86f0	0.009553656
132	0xbd25cca0	-0.04047835
133	0x3d161ffa	0.03665159
134	0x3d4f8ace	0.050669484
135	0x3a769080	0.00094056875
136	0xbb898c00	-0.0041975975
137	0x3da79ce1	0.08184219
138	0x3c9c2d2c	0.019064508
139	0x3d63c542	0.05560804
140	0xbd8c3a00	-0.06847
141	0xbd3de389	-0.046359573
142	0x3da96855	0.08271853
143	0x3bbe2520	0.0058027655
144	0x3d448cf2	0.04798598
145	0x3d1ffeae	0.03906124
146	0xbc8c2684	-0.01710821
147	0x3d90a903	0.070634864
148	0x3c7dfc48	0.015502043
149	0x3d49b6b2	0.049246497
150	0x3d4f5452	0.050617523
151	0xbda0747f	-0.0783472
152	0xbd327716	-0.0435706
153	0xbd9f30ca	-0.07772978
154	0xbc8784a0	-0.016542733
155	0xbd32a646	-0.043615602
156	0x3c1a1598	0.009404562
157	0xbc74aad8	-0.01493331
158	0xbd8397ec	-0.06425461
159	0x3d7c78ca	0.06163863
160	0xbd997305	-0.07492641
161	0xbd735358	-0.059405655
162	0x3d7a93aa	0.06117598
163	0xbd7e0cbb	-0.06202386
164	0x3d86c625	0.06580762
165	0x3d825df9	0.0636558
166	0x3d3089b2	0.043100066
167	0xbd9635d5	-0.073344864
168	0xbc0fff80	-0.008788943
169	0x3cea18a4	0.028576203
170	0x3c229528	0.009923257
171	0x3d9c5c3b	0.07634779
172	0xbd9782a5	-0.07397965
173	0x3d96ac01	0.07357026
174	0x3dadc269	0.084843464
175	0x3d2a50ba	0.041580893
176	0x3d5c2b9e	0.053752534
177	0xbda7921d	-0.08182166
178	0x3bc8a970	0.006123714
179	0xbd87c50b	-0.0662938
180	0xbbbbb310	-0.005728133
181	0x3d3322b2	0.04373426
182	0x3d416542	0.047215708
183	0xbd60a852	-0.054848023
184	0x3d3b9076	0.045792066
185	0xbd66137f	-0.056170937
186	0xbbc351c0	-0.005960673
187	0xbcb6d548	-0.022318497
188	0xbd95a906	-0.07307629
189	0xbd3c2108	-0.04592994
190	0xbd7da562	-0.0619253
191	0xbc324778	-0.010881297
192	0x3cbccb84	0.023046263
193	0xbdb3a3e6	-0.087714955
194	0x3d60718e	0.054795794
195	0x3d85a291	0.06525148
196	0x3d87c44d	0.06629238
197	0xbd02bdea	-0.031919397
198	0xbd229a31	-0.03969783
199	0x3d22649a	0.039646722
200	0xbb81e160	-0.0039636344
201	0xbd596d56	-0.053082787
202	0x3d5023e2	0.05081547
203	0xbd27fbfe	-0.041011803
204	0x3c82d778	0.015971884
205	0xbced18a2	-0.02894241
206	0x3d39a612	0.045324393
207	0xbcc8a228	-0.024491385
208	0xbbfb6c20	-0.0076728016
209	0xbd20b551	-0.039235417
210	0x3d2c326e	0.04204028
211	0x3d1fbac2	0.038996466
212	0x3db24f63	0.08706548
213	0xbdb504a8	-0.08838779
214	0x3d3c939e	0.046039216
215	0xbd9163bc	-0.07099101
216	0xbce2d840	-0.027691007
217	0x3d8bdb25	0.06828908
218	0x3c1f9080	0.009739041
219	0xbd8556a0	-0.06510663
220	0x3d377d5e	0.044797294
221	0xbd9e86ee	-0.077405795
222	0x3da1147f	0.078652374
223	0x3c477d08	0.012175806
224	0x3d18d71e	0.037314527
225	0x3d4071ba	0.046983458
226	0x3b77ef00	0.0037831664
227	0xbd563ab7	-0.05230209
228	0x3da8d239	0.08243222
229	0x3c8577cc	0.016292475
230	0x3a279000	0.0006392002
231	0xbd3a1b02	-0.045435913
232	0xbc8cd380	-0.017190695
233	0x3d56a01a	0.05239878
234	0x3d3ca6d6	0.046057545
235	0xbd288dcf	-0.041150864
236	0x3d5128ea	0.05106441
237	0xb98f9900	-0.0002738908
238	0x3d85c8d5	0.06532446
239	0x3d8a6595	0.067576565
240	0xbd9becc0	-0.07613516
241	0x3d43bf86	0.047790073
242	0x3d1b7d42	0.037961252
243	0xbd92911c	-0.07156584
244	0xbd629557	-0.055318203
245	0xbb7c9980	-0.0038543642
246	0x3d23c13a	0.039979197
247	0x3d8f9673	0.07011118
248	0xbdb1f816	-0.08689897
249	0x3ccc12f4	0.024911381
250	0x3d977ead	0.07397208
251	0xbd9c3b38	-0.076284826
252	0xbd0b0183	-0.03393699
253	0x3d0eea0c	0.034891173
254	0x3cd72218	0.026261374
255	0x3daa0151	0.08301032

val_conv1.bias f4 [2]
0	0xbc9aab8c	-0.018880628
1	0x3d022f30	0.031783283
