Connect6/BitBoard/model/6_6_4_current_policy_.model (torch, 414398 bytes, 15 tensors)

conv1.weight f4 [32, 4, 3, 3]
00000000: 40cf 12bd 70e3 6bbd e469 19be 98dd b1bc
00000010: b3be f3bd a32e 283e 5bae 20be 73c5 d4bd
00000020: 5547 253e 83d6 b4bd 2e2a ffbd 0065 08ba
00000030: d8eb 8c3d 96e2 cbbd de43 c93d 406b efbd
00000040: 542c 0dbe f884 19be d220 ee3d 28c3 a93c
00000050: 6890 92bd e5c8 273e d054 9bbd d14f 093e
00000060: 923e 8c3d 6a52 28be db6c 273e 53db d1bd
00000070: c0be 3dbd 1304 8dbd 6a2a cb3d 4c50 03be
00000080: 06e5 ef3d 1c4d 6dbd cc31 3abd e004 283d
00000090: 929c eb3d 4b6b 80bd c086 2f3b 30d2 eabd
000000a0: 9eb5 b7bd 94e8 1cbd bebc b2bd 26cd db3d
000000b0: a385 c8bd 087e f13c 23b4 00be 0084 fdba
000000c0: 64bc 183d 50e8 27bc 999c 193e d079 193d
000000d0: 3e1b 993d a5bd 193e b5e8 183e 8889 fbbc
000000e0: 6ca7 3bbd b29d cf3d 4a86 05be e029 4cbd
000000f0: 5cfe 45bd 61ad 073e 3cb7 363d f0b5 953d
00000100: 5ad5 fc3d 88ec b0bd 004c 81ba bb49 00be
00000110: fadb f13d ac87 79bd f195 1d3e 54d0 22be
00000120: 2b2c 183e 406e 69bd 7834 0dbe 2a31 cb3d
00000130: b347 26be 866a c43d ab36 c7bd 4c45 04be
00000140: d60d abbd 40f1 433c 80b6 33bc 50ab 00bd
00000150: ce50 d23d 78e8 0cbe 28d6 ce3c 9b18 87bd
00000160: e070 1cbe ffbf 1b3e 3215 fa3d 6854 803c
00000170: 5ecd 02be aa4b 893d 5087 3c3c ccc7 6fbd
00000180: 2cb2 7f3d 4a17 fa3d 328e f13d db15 b4bd
00000190: 4819 a43d 3016 8f3d a004 59bd 486c a73d
000001a0: a69b c6bd 0aba c83d fae3 d83d 506a 7c3c
000001b0: d07a 5f3d bc04 5cbd cc13 38bd 00fd 9fbb
000001c0: e4b7 24bd 4e4f 863d b0fa 2fbc c607 07be
000001d0: d30a c1bd 80d8 aabd 5a89 cb3d 408d bb3c
000001e0: 888c 89bd a039 99bc e69f e6bd 9432 6d3d
000001f0: 4a46 8c3d be84 8dbd 4067 0abb fa05 b23d
00000200: 954b 243e 9af2 c23d 0ce6 0fbe d03f 25bc
00000210: 1651 a43d 4c84 7ebd 6a1f b73d 8ea6 01be
00000220: 20c8 abbc cc27 09be 1439 03be 8301 ddbd
00000230: 2712 263e 968f b5bd 00cd 63bc 3b9f 123e
00000240: 7068 323d d6fd 6abd 4049 46bb fbf6 103e
00000250: 60d7 823b c886 a93d 80f4 e9bb 50e8 863d
00000260: 7b75 1b3e c07f 5e3c 203f 8dbb 4490 263d
00000270: 36cd c33d b82b c7bc 5474 4b3d 92f7 d93d
00000280: 60ed 2e3d 2884 a3bc f031 06bc 4838 23be
00000290: caa5 f53d 3c7d 323d d2d2 09be e8d9 ddbd
000002a0: 0d1c 273e a07b e6bc 8404 07bd f57d 063e
000002b0: 8835 d7bd f011 7c3c 03b5 253e d3ef 18be
000002c0: 02e1 e63d 3224 26be 8084 e23a 2d09 0b3e
000002d0: a333 a9bd 9c8f 17bd 7c68 423d 3872 c2bc
000002e0: 964e 72bd 5630 08be 43d6 1c3e b25a be3d
000002f0: ccdb 24bd 4105 123e c49d 06be 86ed fb3d
00000300: 7655 2fbd 7625 d23d 60aa d3bd 7c39 2fbd
00000310: 86e8 e0bd e252 db3d 00d3 75ba c8da d8bc
00000320: 7e1c 05be 8817 81bd a0fa 873d ef91 28be
00000330: 4002 353c 109e 49bd d032 10be d39a 203e
00000340: 5236 af3d b820 e43c a966 073e 06de 803d
00000350: 20f1 03be e0dd 0cbe c216 ec3d 00f8 42bc
00000360: 30cb 25bc ec35 6c3d 80ae 923b 40a4 543c
00000370: 26c2 e83d f720 11be 5212 e73d f971 1c3e
00000380: 1b18 e1bd 2829 e6bd 18da 87bd d152 143e
00000390: 1453 7f3d 3901 213e 90cf 07be 26e0 c63d
000003a0: 0034 503d 3283 cd3d 0a4c 1cbe 008d 893c
000003b0: 6ba2 ebbd c636 dbbd d0c1 15be 064b 99bd
000003c0: 84d9 653d b3db c3bd 48f4 23be 73fe 85bd
000003d0: 9ecc e3bd 2263 973d 5e77 a73d a043 403d
000003e0: 30b1 b6bd adb1 223e 90b8 083d e8aa ad3c
000003f0: 8521 073e c050 703d dc9f 613d bbc5 083e
-0.03584218 -0.05758995 -0.149818 -0.02171211 -0.11901607 0.1642404 -0.15691511 -0.10389223
0.16140492 -0.08829977 -0.12459217 -0.00052030385 0.06880921 -0.09955327 0.09827398 -0.11690378
-0.13786441 -0.1499213 0.11627354 0.02072294 -0.071564496 0.16385229 -0.07584536 0.13409354
0.06847872 -0.16437688 0.16350119 -0.10246911 -0.04632449 -0.06885543 0.09920199 -0.128236
0.11713605 -0.057934865 -0.045457646 0.041020274 0.11504473 -0.062704645 0.0026783198 -0.11465871
-0.089701876 -0.03830774 -0.08727406 0.10732488 -0.09791114 0.029479042 -0.12568717 -0.0019341707
0.03728904 -0.010248259 0.15001144 0.037469685 0.07475899 0.1501375 0.1493252 -0.030705228
-0.045813963 0.101375 -0.13039508 -0.049844623 -0.04833828 0.13249733 0.04460834 0.073100924
0.12345381 -0.08638865 -0.0009864569 -0.12528126 0.11809535 -0.060920402 0.1538923 -0.15899783
0.14860599 -0.05698991 -0.13789546 0.09921487 -0.16238289 0.0959063 -0.09727224 -0.1291706
-0.08352248 0.011959374 -0.010968804 -0.031413376 0.102693185 -0.13760555 0.025248602 -0.0659649
-0.15277433 0.1520996 0.12211074 0.015665248 -0.12773654 0.06703885 0.01150687 -0.05854015
0.062425777 0.12211473 0.117947 -0.08793231 0.080126345 0.06986654 -0.052982926 0.0817495
-0.09697656 0.09801109 0.10590358 0.015406206 0.054560483 -0.053715453 -0.044940755 -0.004882455
-0.040214434 0.06558095 -0.010740921 -0.13186559 -0.09425893 -0.08342075 0.09938307 0.022894502
-0.06716257 -0.018704236 -0.11260967 0.057909563 0.06849344 -0.06910084 -0.002111867 0.08692546
0.16044457 0.09518929 -0.140526 -0.010086015 0.080232784 -0.062137887 0.08941539 -0.12661192
-0.02096945 -0.13394088 -0.12814742 -0.10791304 0.16217862 -0.088652775 -0.013903856 0.14318554
0.04355663 -0.057370983 -0.0030256063 0.14156716 0.00399296 0.082776606 -0.0071397424 0.06587279
0.15181534 0.013580263 -0.0043105036 0.040664926 0.09560625 -0.024312839 0.049671486 0.106429234
0.042706847 -0.019960478 -0.008190617 -0.15939438 0.119945124 0.043576464 -0.13459328 -0.10832578
0.16319294 -0.02813512 -0.03296329 0.13133986 -0.10508257 0.015385136 0.16182332 -0.14935236
0.112733856 -0.16224745 0.001728192 0.13577719 -0.08261802 -0.03700219 0.047462925 -0.023736104
-0.059156977 -0.13299689 0.1531611 0.092946425 -0.040248677 0.14259817 -0.1314612 0.123011634
-0.04280611 0.10261051 -0.10335231 -0.04277943 -0.1098185 0.10709168 -0.000937745 -0.02647151
-0.1299915 -0.06303316 0.066396 -0.16461919 0.0110479 -0.049223006 -0.14081883 0.15684061
0.08555283 0.027847633 0.13222755 0.062923476 -0.1288495 -0.13756514 0.11527778 -0.011899948
-0.010119244 0.05766861 0.0044763684 0.012978613 0.11365156 -0.14172731 0.11282791 0.15277852
-0.10990926 -0.11238319 -0.06633395 0.14484717 0.06233509 0.15723123 -0.13262773 0.09710722
0.05083084 0.10034789 -0.15263382 0.016790867 -0.11505588 -0.107038066 -0.14624715 -0.07485013
0.056115642 -0.09563389 -0.16011155 -0.06542673 -0.11123012 0.07391955 0.08177064 0.046939492
-0.089205146 0.1588809 0.033379138 0.021199659 0.1319638 0.05867076 0.055084094 0.13356678

conv1.bias f4 [32]
00000000: 705f 083c 7d8a 0e3e 024b 853d 2099 96bc
00000010: 20da ec3c 5db4 023e f094 febd b244 983d
00000020: 0b7a f4bd 124c db3d a765 243e 4b73 edbd
00000030: 3fd7 093e 9855 97bc d0d8 7ebd 4135 293e
00000040: 90c0 4f3d 3e59 efbd a2cd ce3d 32d8 f63d
00000050: 40a3 d8bd c3f6 afbd 3cdc 023d ace3 0abd
00000060: 0051 12bb 86c3 edbd f9ef 213e 9eb2 ab3d
00000070: d16f 103e 1a23 c13d 989f d0bc fa16 d63d
0.008323535 0.13920017 0.06508447 -0.018383563 0.028912604 0.12764116 -0.12430751 0.074349776
-0.1193734 0.10707869 0.16054402 -0.11594256 0.13461016 -0.018473431 -0.062218487 0.16524221
0.05072075 -0.116869435 0.10097815 0.12052955 -0.105780125 -0.08591988 0.031948313 -0.03390853
-0.0022326112 -0.11609559 0.15814199 0.08383678 0.14105155 0.09430523 -0.025466725 0.10453601

conv2.weight f4 [64, 32, 3, 3]
00000000: 4a07 56bd 3ffd 2b3d 9e37 8f3c b962 663d
00000010: 524b 9e3c 5c91 14bc 3e63 cb3c 52a7 5cbd
00000020: 67bd 353d 08c7 d6bc baef 1fbd 53ef 253d
00000030: 2959 6fbd a89e c8bc 8b37 0c3d 345e 383c
00000040: 6fd7 633d 611b 6b3d a4fe 133c 667f e93c
00000050: 33eb 6bbd c508 14bd 0c15 0fbd 90de 05bd
00000060: f812 5ebc e47d 2c3c 222e 973c a046 11bb
00000070: 87b0 473d f79e 433d f0ce 053b 20d5 bebc
00000080: 4ebe 1cbd 0385 4d3d a2f9 d6bc 9a68 21bd
00000090: 80ab ecba 56df e13c c388 343d faff a0bc
000000a0: 7c35 dcbc d981 3b3d 1620 e63c c601 afbc
000000b0: 4724 6b3d f054 44bc 299e 333d a965 4dbd
000000c0: 5028 24bd db2b 703d c637 ecbc 7332 08bd
000000d0: c5ef 233d b073 7cbb 263e 98bc 700e 60bc
000000e0: bfbe 483d 86e6 f6bc 9762 363d 987c 08bd
000000f0: 12f0 fa3c d4f4 2e3c 0842 e43b 3e6f 42bd
00000100: 57f4 1bbd e818 c3bb 1ab7 cd3c 48e6 6abc
00000110: 48e4 ef3b 2f9c 663d b9f3 69bd 3cb3 56bd
00000120: aa52 1fbd 443f 13bd 8087 06ba 51c7 143d
00000130: c059 18bb 73e4 133d 12b0 fe3c e7dc 0e3d
00000140: 242d 37bd 7265 10bd 93ca 44bd 5bdf 0a3d
00000150: 547b 5a3c a793 463d 8b78 0a3d 59bf edbc
00000160: 9cff 4cbc 1f7d 013d b870 9ebb 92e3 ec3c
00000170: 3111 033d 28b1 2cbd c9a0 4dbd 5801 47bd
00000180: 4809 2abd e4b3 9dbc f6ca 9d3c a01d 2bbd
00000190: 87d7 42bd d069 ffbc 3800 a53b 3eec 893c
000001a0: 25eb fbbc ca2b da3c 9c35 783c a0db b63a
000001b0: d06a 633b fa4f 973c ad73 593d 4862 e93b
000001c0: cc32 3d3c c964 343d f01c 10bc a8a0 dcbc
000001d0: 7978 1e3d a06c aebb 90b6 56bd 220e b43c
000001e0: 7488 243c d632 943c 4843 b6bb 96cd 8fbc
000001f0: 40b9 9b3a e09c dbba cd58 6dbd 00d8 7638
00000200: f64f ed3c 00fe 9cb9 c172 583d 3d07 573d
00000210: e182 1d3d ee0e f93c 0803 30bc e810 8c3b
00000220: 9859 ed3b 4584 1bbd eebc ab3c d79c febc
00000230: 5253 813c d088 65bb 1869 f23b 65d5 4ebd
00000240: 0032 8cb9 caba b93c 1841 75bc 9504 4b3d
00000250: 2bf5 1e3d 69e4 353d 1107 4c3d 5e9f 67bd
00000260: 4f38 65bd cc38 8ebc 22d4 e5bc d8f3 ec3b
00000270: 0a12 4bbd 42d5 a03c 72d7 b53c f6f9 e5bc
00000280: 531c 463d ed67 64bd 912b 6b3d 80dd 783a
00000290: 9e05 26bd bf25 0b3d a47e 7c3c 6076 e73a
000002a0: d603 03bd 2ce2 703c 58c6 04bd 15e2 e5bc
000002b0: 22af 30bd ec1a 573c 5056 6dbd 4000 663a
000002c0: 5822 943b 4b7a 6d3d f469 48bc 3601 833c
000002d0: 0ae6 a13c 8846 bb3b f3fa 4c3d 887b 7abc
000002e0: c83f 12bd 7a90 01bd c5bd 2c3d 0679 da3c
000002f0: e205 803c 4d88 073d 9f50 0f3d 41ba 323d
00000300: 7574 6cbd 9ac1 a83c 32ae cc3c 8c41 50bd
00000310: 5a78 a5bc c131 403d 1df0 173d 23bb fdbc
00000320: 7ee3 9fbc 0b5d 223d bc6b f6bc cacc ac3c
00000330: 3065 04bc 2a24 68bd fa6b 2cbd 2d38 643d
00000340: 0073 5d39 ee26 a6bc 52e8 de3c ec60 283c
00000350: 663b d33c 29c7 4e3d 4265 f03c ff14 61bd
00000360: 0a8b 63bd 6868 e43b f49c 2abc 26a9 9d3c
00000370: 5677 9c3c e8e9 c5bb 260d 8a3c 3ab9 d73c
00000380: f5a2 083d aaee a9bc 6640 35bd ee61 e03c
00000390: 8344 1ebd 12f3 df3c 6419 583c 0ab8 53bd
000003a0: 7aaf babc 8822 fb3b 2471 533c 0eeb f73c
000003b0: 2d24 253d 288b a03b fcf2 483c c65a 38bd
000003c0: b74c 433d d573 243d a230 cc3c 3795 493d
000003d0: 00f0 8939 14a3 eebc 0a7b 9c3c 0073 df39
000003e0: 6dd8 433d ddde 063d 2dc5 403d a038 17bc
000003f0: 88f4 6ebd 4a7a 0cbd 6054 d9ba 6c55 6c3c
-0.052253045 0.04198956 0.017482575 0.056246493 0.019323025 -0.0090678595 0.024827596 -0.053870507
0.04437008 -0.026217952 -0.03904698 0.04051144 -0.05843464 -0.024489716 0.034232657 0.0112529285
0.055625375 0.057399157 0.009032879 0.028503131 -0.05759735 -0.036141176 -0.03493218 -0.032682955
-0.013554327 0.010528062 0.018454615 -0.002216734 0.048752334 0.047759023 0.0020417534 -0.023294985
-0.038267426 0.050175678 -0.026242081 -0.039406396 -0.0018056482 0.027572315 0.04407574 -0.01965331
-0.026880972 0.04577813 0.028091472 -0.02136315 0.057407644 -0.011983141 0.043852005 -0.05014578
-0.040077507 0.058635574 -0.028835189 -0.033251237 0.040023584 -0.0038521104 -0.018584322 -0.013675317
0.049010035 -0.030139219 0.044527616 -0.033321947 0.030632053 0.010678489 0.0069658794 -0.04746937
-0.038074818 -0.005953897 0.025111724 -0.01433713 0.0073209144 0.056301292 -0.057117198 -0.052417025
-0.038897194 -0.035949007 -0.00051318854 0.036322895 -0.0023246855 0.036106538 0.031089816 0.034878638
-0.044720784 -0.035252996 -0.048044752 0.033904415 0.013335068 0.048480656 0.033806365 -0.029021906
-0.012512114 0.031613465 -0.0048352145 0.028917108 0.031998817 -0.042161137 -0.050202165 -0.048585266
-0.041512758 -0.019250818 0.019261818 -0.0417763 -0.047568824 -0.031178385 0.0050354265 0.016836282
-0.030751774 0.026632208 0.0151495 0.0013950951 0.0034701116 0.018470753 0.053088833 0.0071223117
0.011547755 0.04404143 -0.008795962 -0.026932076 0.03868911 -0.0053230077 -0.0524202 0.021979395
0.010042299 0.018090647 -0.00556222 -0.017554086 0.001188077 -0.0016755126 -0.057946015 5.8852136e-05
0.028968792 -0.00029943883 0.052843813 0.052497137 0.038454894 0.030402627 -0.01074291 0.0042744763
0.0072433464 -0.03796794 0.020964112 -0.031080646 0.0157868 -0.0035024174 0.007397782 -0.050496478
-0.00026740134 0.022672076 -0.014969133 0.049564917 0.03880803 0.044407282 0.049811427 -0.05654847
-0.055961903 -0.017361067 -0.028055254 0.007231217 -0.04957775 0.01963294 0.022197459 -0.028073292
0.048366856 -0.055763174 0.057414595 0.0009493455 -0.0405327 0.033971544 0.015411053 0.001765918
-0.03198608 0.014702361 -0.032415718 -0.028061906 -0.04313577 0.013128977 -0.057943642 0.0008773841
0.0045206957 0.057977956 -0.012232292 0.015991788 0.019763011 0.005715195 0.05004401 -0.015288241
-0.035705358 -0.031631924 0.042173166 0.026669037 0.015627805 0.03308897 0.034988996 0.043634657
-0.05772825 0.020600129 0.024985407 -0.05084376 -0.02019899 0.04692245 0.037094224 -0.030973023
-0.019517656 0.039639514 -0.030080669 0.021093745 -0.008080766 -0.056675114 -0.042095162 0.055717636
0.00021119043 -0.020282235 0.027210388 0.010277014 0.02578516 0.050482903 0.029345158 -0.054951664
-0.05555252 0.006970454 -0.010413397 0.019245695 0.019099873 -0.0060398467 0.016851973 0.02633344
0.033358533 -0.020743687 -0.04425087 0.027390447 -0.038639557 0.027337585 0.013189647 -0.051689185
-0.022788752 0.0076640286 0.012905393 0.03026345 0.040317703 0.004899401 0.012264963 -0.045008443
0.047680583 0.04014953 0.024925534 0.049214568 0.0002630949 -0.029130496 0.019101638 0.00042619556
0.04781382 0.032927383 0.04706304 -0.009229809 -0.058338672 -0.03429631 -0.0016580932 0.014424663

conv2.bias f4 [64]
00000000: af98 f6bc 11f3 1c3d 1294 33bd 64d9 323c
00000010: d63e ae3c b68f dd3c 90d8 01bc d40d 4c3c
00000020: 6320 6b3d 356d 663d 9f36 6ebd 7b09 243d
00000030: f6f5 f63c 698b 133d 2503 42bd b949 3e3d
00000040: 68cc 08bd 040c 5cbd ec2c 4d3c 6538 0c3d
00000050: a6eb 5dbd c0af 333a d282 e8bc 6272 02bd
00000060: 83d0 37bd 9eb2 f53c 3282 f03c 2286 c4bc
00000070: 9bbe 433d 40b3 dd3a 8c64 75bc dc3b 143c
00000080: ec55 663c 6a6b d43c 639b 1b3d be84 b63c
00000090: b8d3 7cbc 14bf 4cbd ecd5 24bc 59b7 293d
000000a0: e325 29bd 627d d73c df41 063d 6e8b debc
000000b0: cf43 08bd 2667 0abd 00d0 3cbc 7b68 1e3d
000000c0: a2aa 66bd ee10 a83c b03a babc 1901 3a3d
000000d0: 1c9c 6abd b45b 163c 0283 fd3c aa0d d83c
000000e0: 93dd 003d 2569 23bd 8d1f 4d3d e09f c6ba
000000f0: c7d0 0c3d 1882 70bd eb30 593d c039 4fbb
-0.030102102 0.038317744 -0.043842383 0.010916088 0.021270197 0.027046066 -0.007925168 0.012454469
0.057403933 0.05625649 -0.05815756 0.040048104 0.03014658 0.036021624 -0.04736628 0.046457026
-0.033398062 -0.053722396 0.012522917 0.03423347 -0.05417981 0.0006854497 -0.028382692 -0.031847365
-0.044876587 0.029992398 0.029358957 -0.02398974 0.047789197 0.0016914383 -0.0149775855 0.009047475
0.014058571 0.025930125 0.037989985 0.022280093 -0.015431337 -0.049986914 -0.010060769 0.04143462
-0.041295897 0.026304904 0.032777663 -0.027166095 -0.033267792 -0.033789776 -0.0115242 0.03867386
-0.056315072 0.020515885 -0.022733063 0.045411203 -0.057277784 0.009177137 0.030946258 0.026373703
0.03146131 -0.039895196 0.050078917 -0.0015153848 0.034378793 -0.058717817 0.053025167 -0.0031620115

conv3.weight f4 [128, 64, 3, 3]
00000000: 966a a2bc 1ef9 9bbc 7eef 25bd d872 d5bc
00000010: 30a1 d3bc b585 1e3d e07a 1cbc d849 8c3c
00000020: 6bcc bfbc 8406 1abc d4f1 1cbd 7688 23bd
00000030: cc35 393c 9928 113d d096 dbbc 4060 443c
00000040: 1e93 b8bc 8a35 f53c 9640 df3c b65b debc
00000050: 02cb bd3c 52f1 dc3c 9093 093b 9311 05bd
00000060: f89f cabb 5c00 5ebc 1b9d 253d a180 183d
00000070: 5f23 28bd f00d 153b 28a7 853c 249d 0cbd
00000080: da10 b43c 9815 813c e2f6 c93c 20a8 54bc
00000090: 7b7f 163d b8d0 8a3c fa4b bb3c 9051 953c
000000a0: 0013 46ba 2e86 96bc 2526 0f3d b079 7a3c
000000b0: 58f2 fbbb 9812 e5bb b2d2 0ebd f42d 07bc
000000c0: 6308 cebc 02b3 21bd 94b7 0abc 22de 12bd
000000d0: 4087 8c3c 326f fa3c 7a0b e13c 303e 4dbb
000000e0: 8ca2 22bc 8c2f 1ebd 77bb 15bd afe3 1f3d
000000f0: b0fc a93c ca10 d43c 2c65 24bc c654 983c
00000100: eed4 84bc f89e e6bc 2968 1e3d b281 cb3c
00000110: 065f c93c e097 d5bb be56 ff3c dc28 093c
00000120: ea70 a03c acc9 7dbc 8045 deb9 1f70 27bd
00000130: 20be 76bc 6800 f13b e065 e33b f3cc f0bc
00000140: eb6d 03bd dc51 163c 39f4 133d 9f62 1abd
00000150: 8aa0 1abd 7197 173d 9974 063d 5bb1 103d
00000160: 7ca6 56bc 940c 1d3c 0a19 a63c 0ff9 24bd
00000170: f0ad 5a3b 03d1 003d f0d6 88bc ff48 223d
00000180: 3ee1 0cbd 1898 a6bb dadf 843c d6f8 79bc
00000190: a658 bb3c 108b 3fbc 2b8b 0b3d b4f1 01bc
000001a0: 38a8 c33b 802d 8ab9 6cc5 233c d46f 0abc
000001b0: 7ab5 ed3c 559f 203d 9bf5 09bd a1d1 0b3d
000001c0: 967f 08bd 0cd9 0abc d692 fabc d446 243c
000001d0: 1670 cf3c b679 75bc 37e1 14bd 0080 7d3c
000001e0: 8096 b23a d036 8e3c 82a8 e63c ed93 273d
000001f0: d02e 10bc f83e 29bd 2838 a93b a042 403c
00000200: 1652 13bd 0057 13bd c028 07bb 0619 edbc
00000210: 7769 26bd 3be9 03bd 3ca0 723c 3866 d23b
00000220: a610 ccbc a8d5 933b 3701 1e3d 2191 243d
00000230: fc73 543c 09da 0d3d 30c0 7d3c 71a0 283d
00000240: bea2 26bd 98fb ce3b aca8 33bc 2e84 bc3c
00000250: 889a 953b 638d 28bd 0274 b93c e82c c4bc
00000260: 6892 8b3b f64b af3c 463b 01bd c2c9 de3c
00000270: 4174 133d f89a 81bc 1886 cbbc f86b 943c
00000280: 649e 18bc 0481 053c 80ce 32bb 8cc5 233c
00000290: 101c 5a3c 77fe 1a3d f2b6 ac3c b04b 71bb
000002a0: 6c6b 57bc 905b 873c d665 e4bc 808c 8c39
000002b0: 0077 653a 8b4c f9bc a046 9dba 5485 28bc
000002c0: 1347 8abc d7fa 14bd 39de 093d 78a7 e5bb
000002d0: 60f3 643c dac8 f03c 2d5e 143d 0aff 843c
000002e0: 103c 7fbc f838 e8bc 60f7 23bd 4138 0b3d
000002f0: f3b3 283d 36c7 54bc 77bd 063d d66f 0dbd
00000300: bb41 16bd e37f a7bc 8884 8f3b 5bb8 f4bc
00000310: 407b 28bb a32b 153d 7b5a 243d 8b0e d7bc
00000320: 399c 053d f85c 17bd 6020 bcbc 1ea4 14bd
00000330: c6a7 a2bc 42d3 eb3c 3246 d53c 808c fdba
00000340: 278f 0fbd 2656 0dbd 66af 9f3c 34ca 373c
00000350: 5b4a 8dbc b088 37bc 11ac 0c3d 8176 0e3d
00000360: 0058 90ba 107f 37bb ca1d cc3c 309a 12bc
00000370: 88a7 94bb 4338 073d 2192 063d 168c d93c
00000380: 7669 01bd b65c e73c 30f5 633b 401d 063b
00000390: f819 b63b eaaa 8a3c 0690 e53c 32e1 fb3c
000003a0: 0673 d73c c253 e73c 0cef 263c 22d4 c03c
000003b0: ccb3 1bbc cd78 223d 40e1 e3bc c283 e23c
000003c0: 5642 f2bc 95a7 073d 4685 a1bc e884 e3bc
000003d0: 5e27 dabc 1cd0 47bc 7a4c eb3c 24a9 27bd
000003e0: e6f0 8ebc 68f2 ee3b 93d8 ddbc dbce a9bc
000003f0: 34cc 493c 125c ec3c 3412 163c a272 1bbd
-0.019826215 -0.019039687 -0.0405116 -0.026055738 -0.025833696 0.03870173 -0.00955078 0.017125055
-0.023412904 -0.0094009675 -0.038316563 -0.03992506 0.01130433 0.035439108 -0.026805311 0.011985838
-0.022531088 0.029932756 0.027252477 -0.02714334 0.02316809 0.02697054 0.0020992495 -0.032487463
-0.0061836205 -0.01354989 0.04043303 0.037232045 -0.041049358 0.0022743903 0.016315058 -0.03432955
0.021980692 0.015757367 0.024653856 -0.012979537 0.03674267 0.016945228 0.022863377 0.018227369
-0.0007555932 -0.018374529 0.034948487 0.015287802 -0.0076888017 -0.006990742 -0.034868903 -0.008250702
-0.025150483 -0.039477356 -0.00846662 -0.035856374 0.017154336 0.0305706 0.027471293 -0.0031317584
-0.0099264495 -0.038619563 -0.036555734 0.039035495 0.020750374 0.025886912 -0.010033887 0.01859511
-0.016214814 -0.028151974 0.038673554 0.024842117 0.024581444 -0.006518349 0.031169292 0.008371558
0.019585092 -0.015489977 -0.0004239492 -0.04087841 -0.015059978 0.0073547848 0.0069396347 -0.029394602
-0.032087248 0.00917479 0.03612158 -0.03769171 -0.03775076 0.03700966 0.03282604 0.03532539
-0.013101216 0.009585518 0.020275611 -0.040276583 0.0033367835 0.03144933 -0.016704053 0.039620396
-0.034394495 -0.005084049 0.016220022 -0.015257081 0.02286942 -0.01169087 0.034068268 -0.007931162
0.005970981 -0.0002635531 0.0099957995 -0.008449513 0.029017199 0.03921445 -0.033681493 0.034135465
-0.0333248 -0.0084746 -0.030587595 0.010026652 0.025322001 -0.014982631 -0.036347594 0.015472412
0.0013625175 0.017360121 0.028156523 0.040912557 -0.0088002235 -0.041319817 0.005164165 0.011734635
-0.035966955 -0.03597164 -0.0020623654 -0.028942596 -0.040627923 -0.032204848 0.014808711 0.006420877
-0.024910282 0.004511554 0.038575377 0.04017747 0.012967106 0.034631763 0.015487716 0.041168634
-0.040682547 0.0063166134 -0.0109655075 0.023012247 0.0045655407 -0.041150462 0.022638325 -0.023947194
0.0042593963 0.021398526 -0.03155067 0.027195815 0.03599954 -0.015820965 -0.024844214 0.01811789
-0.009315107 0.0081484355 -0.0027283728 0.009995829 0.013312355 0.037840333 0.021083329 -0.0036818795
-0.01314817 0.016523153 -0.02788059 0.00026807562 0.0008753389 -0.030432006 -0.0011999197 -0.010285694
-0.016879594 -0.036372032 0.033659194 -0.007008489 0.013974041 0.029392648 0.036222626 0.016234893
-0.015578285 -0.028347477 -0.040030837 0.033989195 0.041187238 -0.012986949 0.03289553 -0.034530483
-0.03668378 -0.020446723 0.0043798126 -0.029873064 -0.0025708228 0.03641857 0.04012535 -0.026252052
0.03261969 -0.036953896 -0.022964656 -0.036289327 -0.019855391 0.028787259 0.026034448 -0.001934424
-0.03504863 -0.034505986 0.019492816 0.011217643 -0.01724737 -0.011202022 0.034343783 0.034780983
-0.0011012554 -0.002799932 0.024916548 -0.008947894 -0.004536573 0.03301264 0.032854203 0.026556056
-0.031594716 0.02824245 0.0034783594 0.0020464212 0.005557295 0.016927201 0.028022777 0.03074703
0.026299965 0.028238181 0.010188829 0.023538653 -0.009503316 0.039665986 -0.027817369 0.027650718
-0.029572647 0.033118803 -0.01971687 -0.027773336 -0.0266301 -0.012195613 0.02872299 -0.04093279
-0.017448854 0.0072920807 -0.02708081 -0.02072852 0.012316752 0.028852496 0.009159613 -0.03795112

conv3.bias f4 [128]
00000000: b6ed 913c 1053 63bb 2422 303c dce2 05bc
00000010: 58b2 cfbb 086a 983b e741 203d 0abe 953c
00000020: 8207 fc3c a888 e13b ba07 8e3c 10ff 4dbc
00000030: b4fb 783c 1324 dabc 1648 6abc 6013 803b
00000040: ce5a f53c a8cf d3bb 0041 0b3c 4862 923b
00000050: 4385 0d3d 366c 65bc d620 debc bc85 58bc
00000060: c051 94bb 8896 cabc a41a 713c 900f 9f3c
00000070: 1125 093d c7a7 03bd 661a f03c 84fb 593c
00000080: a4ae 21bc 0064 5c39 7852 27bd 4d0d 063d
00000090: ac24 7bbc 9a54 df3c 9340 ebbc 892e 133d
000000a0: ce70 db3c d8c3 dcbb e020 efba f09f 38bb
000000b0: f4c6 0abd 934e c9bc db24 133d a138 0b3d
000000c0: 30bd 43bc e544 0d3d dea1 f33c 776a 203d
000000d0: f6ad 41bc 7aa5 b23c 6dc3 073d 6350 a0bc
000000e0: 962a f43c 8691 dc3c 4dda 013d 40f1 a8bb
000000f0: 6ed6 9fbc 93ca 94bc 087f c73b dacf 24bd
00000100: 027a 0dbd 77c4 08bd 0279 e23c 8ada cb3c
00000110: 2a15 af3c 952b 193d b372 e1bc 20ff a5bc
00000120: 002c 13b9 7e6a a53c 101e 4d3c 3c28 11bc
00000130: adec 1b3d 76e8 d53c 4081 8b3b f289 b73c
00000140: 4444 693c 5e5a 9bbc 8c5d 3dbc 464d 21bd
00000150: 2b9e 013d 6258 da3c f3cc 06bd 9bf5 243d
00000160: c115 0d3d fc5c 19bd 4011 78ba 3c0b 733c
00000170: 6acd ad3c ea49 be3c d847 9fbb 0191 153d
00000180: a8bf 9cbb 4320 25bd 808b 3ebb 4e8a afbc
00000190: 3822 d0bc 709b 553c 9a23 cd3c 08f6 ae3b
000001a0: 1b77 ecbc d4f0 1fbc a4cd 05bd 5ed8 b03c
000001b0: cc7f 1dbd 8d31 093d 3eb3 a3bc 62de de3c
000001c0: 6090 3b3c 9059 11bb 2afb 18bd 9e6f b8bc
000001d0: 0727 07bd 1a06 d63c 8e1e 9ebc e4d8 783c
000001e0: d123 143d 60b8 89ba 48f8 a3bc 2697 fdbc
000001f0: 8052 f7bc e05e 65bc f096 f8bc 5670 51bc
0.017813545 -0.003468696 0.010750327 -0.008171763 -0.006338399 0.004651312 0.03912535 0.018279094
0.030765299 0.006882746 0.017337669 -0.012573019 0.015196729 -0.02662853 -0.014299413 0.0039085597
0.029950526 -0.0064639635 0.008499384 0.0044672824 0.034550916 -0.01400285 -0.027115267 -0.0132154785
-0.004526347 -0.024729982 0.014715824 0.0194166 0.033482615 -0.032142427 0.029309463 0.013304595
-0.009868298 0.00021018088 -0.040850133 0.03272753 -0.0153285675 0.02726202 -0.028717315 0.03593305
0.026787188 -0.0067372136 -0.001824405 -0.0028171502 -0.033881143 -0.0245736 0.03592382 0.033989552
-0.011946961 0.03448953 0.02974027 0.039164033 -0.011821261 0.021807421 0.033145357 -0.019569581
0.029805463 0.02692486 0.03170233 -0.0051557124 -0.019511428 -0.018163001 0.0060881414 -0.040237285
-0.034540184 -0.03339049 0.027645592 0.024884481 0.021372396 0.03739508 -0.027520513 -0.020263255
-0.00014035404 0.020192381 0.0125193745 -0.00885969 0.03806751 0.026111823 0.004257351 0.022404645
0.014237467 -0.018963989 -0.011557948 -0.039380334 0.03164498 0.026653472 -0.0329103 0.04027329
0.034444574 -0.037442192 -0.00094630197 0.014834221 0.021216113 0.023228604 -0.0048608594 0.03651524
-0.0047835894 -0.04031397 -0.0029074848 -0.021428254 -0.025406942 0.0130375475 0.02504139 0.005339388
-0.028865388 -0.009762008 -0.032666817 0.021587547 -0.038451955 0.03349452 -0.01998293 0.02720565
0.011447996 -0.0022178628 -0.037348904 -0.02251416 -0.032996204 0.026125956 -0.019301679 0.0151884295
0.03616697 -0.0010507219 -0.02001585 -0.030955862 -0.030190706 -0.013999671 -0.03034541 -0.012783131

act_conv1.weight f4 [4, 128, 1, 1]
00000000: 2ed3 95bd de76 373d b095 573c c024 d8ba
00000010: f8da b73c 8088 5b3b 0b73 b2bd 207b 95bd
00000020: 9e38 593d b50f 8a3d 5067 a83b 8077 033c
00000030: f401 01bd 02b0 683d 12f2 8abd 8ce0 9c3c
00000040: 399c 933d 111b 853d fdb6 8f3d 0d04 a23d
00000050: 9058 0a3c 7043 d73c 009d e23b 40b9 cf3c
00000060: 6cfa 25bd c98a afbd 03d2 ad3d 0ab1 453d
00000070: 6000 ee3b bebd a4bd 0820 ccbc 90a9 9d3c
00000080: d396 9d3d d9e6 20bd 4a20 f7bc 0496 b83c
00000090: d3fd a23d ae89 263d b463 63bd 7c01 c23c
000000a0: 569f 763d ad3f a9bd f0a0 9e3c 50bb 8abd
000000b0: 6074 3e3b 882b c13c c1a5 9b3d f774 4bbd
000000c0: 71ac aa3d c496 a43c 2ab6 2e3d 80b5 143d
000000d0: fd08 8c3d 1ef5 10bd f98b 903d 30d8 b53b
000000e0: 9e65 573d 0e19 433d e45d 923c 00bc 6f3c
000000f0: 9186 823d 10d7 7c3c fae3 f4bc 5bd1 b13d
00000100: e4ac c63c d0a6 2ebc 0e99 133d fc14 003d
00000110: eb6e a93d eff7 823d 0087 e83a e04a 523c
00000120: a716 28bd 8017 5dba b880 1d3c 98e5 8ebd
00000130: 7e3b 3abd 3867 a43c ef2f 9f3d f069 673c
00000140: 0ea1 353d f072 bf3c 09f9 aa3d 36c8 4b3d
00000150: e099 dcbc a804 adbc 427c 653d ddf4 9f3d
00000160: d8a7 9a3c e878 6bbd 80d1 16ba b196 b13d
00000170: 6aef 13bd c82c f13c 3ee2 213d ca18 363d
00000180: 4588 68bd 4879 313c 2e8a 733d de25 56bd
00000190: 2048 1dbc 60f8 803b c094 95bd ec74 bdbc
000001a0: d8e2 713c 574b 00bd 6031 853b 3043 403c
000001b0: fd64 823d 8ca5 083d 8abd 3f3d 7097 68bc
000001c0: 5193 a03d a2fb 273d 47b1 acbd 4fd3 88bd
000001d0: a677 063d e9b0 803d b87f 84bd 580c 9ebd
000001e0: a836 c33c 0af5 5c3d 3bad 39bd 7222 e4bc
000001f0: de00 60bd 7a42 fbbc 8298 373d 50ad ff3b
00000200: 6810 c13c 2e39 9bbd 176d 943d 80d8 a63c
00000210: c087 6f3b 76e4 7e3d 1951 9a3d e0e9 2fbc
00000220: acf2 3bbd 400f a0bc 8c41 0d3d 3237 793d
00000230: 5a36 b3bd 3604 463d 8071 20bb 4aec 73bd
00000240: 4e98 84bd 9897 7abc d8eb a9bc a1a0 873d
00000250: c9ee 9f3d cc15 ab3c dee9 563d 631c 41bd
00000260: 3350 1ebd a0e9 b0bd eefb 1d3d d855 a23c
00000270: 3e48 27bd 700f 35bc 28c7 243c 5c91 a73c
00000280: ec18 f13c 6cdd 68bd 9045 2fbc 1683 483d
00000290: 2190 9b3d 7298 e3bc e058 e1bb e034 9b3b
000002a0: bd9e b0bd b831 bc3c 90cf 873b c054 44bd
000002b0: 3e87 89bd f37b 8c3d 3149 8fbd 60f3 933b
000002c0: d619 1a3d 60fd 31bd 8377 2fbd f48a acbc
000002d0: 38bb 063c dfee 9a3d 2010 4fbd cc62 cd3c
000002e0: ed44 993d ced3 4a3d 5738 943d 5aa3 693d
000002f0: 30c1 ca3c 429a 1a3d 2047 23bd 19b7 41bd
00000300: e380 823d def1 243d 8239 313d 0dd7 7cbd
00000310: 432f 2fbd c89d bb3c 0095 e7bc 4a87 153d
00000320: ed74 853d 4bcf 65bd 78c2 febc 8609 7b3d
00000330: a03c b63b a371 a83d 78fd 02bd 4020 76bd
00000340: e241 7fbd 0a0d 423d 8855 b4bd e3b8 33bd
00000350: 6ae6 403d 882d 8a3c 761f 53bd e7cd 8f3d
00000360: 0edc b3bd 10ef 14bc d089 e53b 2096 093c
00000370: b0a7 ee3c 9093 38bc 426b 8ebd 4b52 9c3d
00000380: d035 82bb bcff ef3c 1553 40bd fe7c a4bd
00000390: 2843 73bd 1d14 a73d cec6 6ebd 25b2 943d
000003a0: 956f a13d 61e4 b13d b867 ecbc dd7a 843d
000003b0: 4233 683d f4cb 8bbc fc3e f73c 4cb6 f03c
000003c0: eecb 6e3d 4cb8 10bd ff0d adbd f8a7 c93c
000003d0: 60a3 b2bd 5ee2 91bd b022 123d 3c11 a1bd
000003e0: d063 ee3b f115 9bbd 6825 bbbc 1082 6ebd
000003f0: 4d42 99bd 80f1 07bb 02ec ffbc 9acc 1dbd
-0.0731567 0.044791095 0.013158247 -0.0016490445 0.02244328 0.0033498108 -0.08713349 -0.07298875
0.05303251 0.06741277 0.005139269 0.0080240965 -0.031496003 0.05680848 -0.067844525 0.019150041
0.072075315 0.06499303 0.07017324 0.07910929 0.0084439665 0.026277274 0.0069156885 0.025356889
-0.040522024 -0.08571393 0.08487322 0.04826454 0.0072632283 -0.08044003 -0.024917617 0.019245893
0.07694783 -0.039282653 -0.030166764 0.02253247 0.079585694 0.040658645 -0.055515006 0.023682348
0.06021055 -0.08264098 0.01936385 -0.06774008 0.0029061064 0.023580328 0.075999744 -0.049672093
0.08333672 0.020091422 0.042654194 0.036305904 0.06837652 -0.035390012 0.07057948 0.005549453
0.052587144 0.047631316 0.017867036 0.014632225 0.06373323 0.015432134 -0.029893864 0.086825095
0.024252363 -0.010659888 0.036034636 0.031270012 0.08273109 0.06394946 0.0017740428 0.012835234
-0.041037228 -0.0008433983 0.0096132085 -0.06977385 -0.045466892 0.02006875 0.077728145 0.014124379
0.044343047 0.023370236 0.08348281 0.049751483 -0.026928842 -0.021120384 0.056026705 0.07810376
0.018878862 -0.057488352 -0.0005753264 0.0867132 -0.036116995 0.029440299 0.039522402 0.044457234
-0.05677058 0.010832138 0.05945795 -0.052282207 -0.0095997155 0.0039358586 -0.073037624 -0.023127042
0.014763556 -0.03132185 0.004064724 0.011734769 0.06366918 0.033361003 0.046811618 -0.014196262
0.078405984 0.04101146 -0.084322505 -0.06680929 0.03282895 0.06283743 -0.06469673 -0.07717198
0.023829773 0.053944625 -0.04533122 -0.027848456 -0.054688327 -0.030671347 0.044823177 0.007802643
0.023567393 -0.075792655 0.0724737 0.020366907 0.003654942 0.062229596 0.075349994 -0.0107369125
-0.045885727 -0.019538522 0.03448634 0.060843654 -0.08750601 0.04834386 -0.0024481714 -0.059551515
-0.06474362 -0.015294932 -0.020742342 0.066224344 0.078092165 0.020884417 0.052469127 -0.047146212
-0.038650703 -0.086383104 0.038570337 0.019816324 -0.04084038 -0.011051044 0.010057248 0.020455055
0.029430829 -0.05685179 -0.010697737 0.04895314 0.0759585 -0.027782653 -0.00687705 0.004736528
-0.08624027 0.022972926 0.0041446164 -0.047932386 -0.067152485 0.06859579 -0.06996382 0.0045150965
0.037622295 -0.043454528 -0.042838585 -0.021062352 0.008223347 0.07565092 -0.050552487 0.025071524
0.0748385 0.0495184 0.072373085 0.05704055 0.024750322 0.037744768 -0.039862752 -0.047293756
0.063722394 0.040269725 0.043267734 -0.061728526 -0.04276968 0.022902384 -0.02826929 0.036505975
0.065164424 -0.056105893 -0.03109859 0.06128838 0.0055614263 0.082247995 -0.031980008 -0.06008935
-0.06231869 0.047375716 -0.08805376 -0.043877494 0.04709474 0.016867414 -0.051543675 0.07021695
-0.087822065 -0.0090902 0.007004954 0.008397609 0.029132694 -0.01126565 -0.069540516 0.07632884
-0.0039737 0.029296748 -0.046954233 -0.08031653 -0.059390217 0.08158133 -0.058295064 0.07260541
0.07882611 0.08686138 -0.02885805 0.06468747 0.05668951 -0.017065026 0.0301814 0.0293838
0.05829995 -0.03533201 -0.08449935 0.024616227 -0.087225676 -0.07123254 0.03567761 -0.07864615
0.007275082 -0.07572544 -0.022844985 -0.058229506 -0.07483349 -0.002074331 -0.031240467 -0.0385252

act_conv1.bias f4 [4]
00000000: f0a3 823b 0705 48bd 92e1 b3bd a9da 5dbd
0.003986828 -0.04883292 -0.087832585 -0.05416361

act_fc1.weight f4 [36, 144]
00000000: 983d a1bd 0d75 8c3d 0a1b 98bd 54e8 9bbd
00000010: e204 303d 6009 503c 248d 8b3c c741 8c3d
00000020: 00cb 7bbd 06cd c9bc c801 0fbc 77b4 a0bd
00000030: 700e 81bb 000f 30bc 9720 9a3d 60c1 43bc
00000040: 6bb1 65bd 0247 84bd cfff 8b3d 8b5b 823d
00000050: 144a 86bc 0419 8ebd e056 303c 4aa4 6a3d
00000060: 95d7 893d 7bbf 51bd 2c32 93bd 35cf a33d
00000070: a09b 39bc 8011 55bb 4847 13bc b0fa 88bb
00000080: 70db a13c 1052 063d a5b9 843d 9cf0 bd3c
00000090: 3083 a5bd 181c 32bd c0f2 40bd fe91 0dbd
000000a0: 80a4 893c 7b93 6abd 2c9c a5bc 060e 393d
000000b0: 000f cfba b6fb f8bc addc a43d 0b6d 40bd
000000c0: de88 453d 30ad fd3c 2080 67bd dd13 8e3d
000000d0: e66e 6d3d 5bca 27bd 5024 f7bb 60cb 993c
000000e0: 2b55 63bd d80e 75bc 3842 57bc 8838 1a3c
000000f0: 5782 a63d d08b db3b d124 863d 34cf 98bc
00000100: daf8 143d 6b5f 44bd 0024 8fbd aad1 383d
00000110: 9cc3 a13c 999f a23d 9074 e23c e98f 8d3d
00000120: 58a1 53bc c877 6c3c 506f d5bc 006c 583c
00000130: 005e cbbc 4c76 a7bc f4c4 9bbc 99e0 a03d
00000140: 8cf8 92bc 8068 debb 4a6a 3c3d b670 70bd
00000150: f022 82bc 0025 01bd 50da 72bd 30b1 e23c
00000160: eead 433d 638f 78bd fc6d 84bc 8023 2e3b
00000170: f6a1 bfbc 4055 f03b a010 2bbd 0041 ce39
00000180: ce75 37bd 9cb4 a63c cb1e 4abd 6061 1e3c
00000190: 1048 cabc 8b62 84bd 70ef d7bc 7826 72bc
000001a0: 6a6c 453d 3fb2 a33d 9334 2abd ec30 963c
000001b0: 0f5e 81bd eb14 6bbd c3ed a7bd 68bb 81bd
000001c0: 8c76 c93c 13de 8e3d e085 ce3c 4603 743d
000001d0: d01a ccbb 8a6c 89bd 323c 1c3d 5259 663d
000001e0: f32f 913d 68ca 78bd b0b7 943c 10a1 14bd
000001f0: b306 803d 203e 5c3b 34df 96bc d822 003c
00000200: 1c2d b73c 70de 57bd 2b4e 32bd 700b 8dbd
00000210: 20f2 733c 23b0 69bd fdc9 9b3d be2c 03bd
00000220: ec5c 89bc ba55 323d a664 edbc 70b6 e3bc
00000230: 8643 cebc ccca acbc 00c9 273c 6669 eabc
00000240: b8f1 30bd 7a5f 163d eb6c 1fbd a0a9 3dbb
00000250: 30a2 853b 7b2a 31bd d8d0 55bd b262 153d
00000260: fd99 8c3d c84f 24bd 98c3 3bbd 2434 a0bd
00000270: f63b c9bc 1c07 dbbc 342b 923c 52f7 723d
00000280: 6002 9a3c 3616 1abd 72bf 3b3d ce6e 453d
00000290: 08ec 4cbc 4055 fbbb a6f8 53bd f2a4 713d
000002a0: bb09 00bd 2af3 2e3d e0fe 57bc 641d 98bd
000002b0: 985b 6d3c 717a a43d e84a 7abd 5849 46bd
000002c0: c38f a8bd 7047 263d bc10 933c 00d5 f3ba
000002d0: 73ae a1bd a289 453d 00ed a33c 26f2 d8bc
000002e0: 8cd1 af3c 43ef 3abd e0c5 573b 6e2a 183d
000002f0: 126a 533d 4eec 7c3d d586 8d3d 22b9 713d
00000300: 7276 2d3d f043 cc3b f469 8fbd 7139 9b3d
00000310: b0ca b03b 6092 0dbc caa6 3d3d 06fd 80bd
00000320: 1b97 853d 583c 08bd 9012 293d 885f 40bd
00000330: 2bab 59bd ac04 88bd 2852 96bd 6a51 443d
00000340: c646 6d3d f41f ca3c db14 9bbd a029 3c3b
00000350: 8146 9f3d 40cc a3bd fa3e 7b3d d045 9abc
00000360: a4ec ea3c e825 2b3c 4a0c 263d 20cc 3f3b
00000370: 4d87 aa3d 596c a63d d803 24bc 4050 88bd
00000380: e9db 893d 1ab9 743d fbde 29bd b09b 95bd
00000390: 1016 b03b 3018 913c 10a9 f4bb c6b5 8abd
000003a0: 8093 993b e087 2bbc 79b6 813d 830d 2abd
000003b0: 0f68 82bd 0b99 963d a097 05bc 6ce7 953c
000003c0: 53bb 48bd d0ce ba3b 8602 693d 0ce6 8ebc
000003d0: 3efd 9bbd 50e3 27bd f079 b3bc a60c 6abd
000003e0: 4e0f 183d 5648 683d cbfb 92bd b297 363d
000003f0: c448 c33c 5151 9d3d 1832 3dbc 402f 823c
-0.07873076 0.06858263 -0.07427032 -0.076126724 0.042973407 0.012697548 0.017035075 0.068484835
-0.061472893 -0.024633896 -0.008728452 -0.07846921 -0.0039384887 -0.010745764 0.07525747 -0.01194796
-0.056077402 -0.06458856 0.06835901 0.06365117 -0.016392745 -0.06938365 0.0107629 0.057285585
0.06730572 -0.051208 -0.07187304 0.07998506 -0.011328608 -0.0032511652 -0.008989163 -0.004180275
0.019757956 0.032793105 0.064807214 0.02318602 -0.08081663 -0.043483824 -0.047106504 -0.034563057
0.016802073 -0.057269555 -0.02021607 0.04517939 -0.0015797317 -0.030393463 0.08049903 -0.04697899
0.04822623 0.030966371 -0.056518674 0.06937382 0.05796709 -0.040964466 -0.0075421706 0.018773735
-0.055501144 -0.014957152 -0.013138346 0.009412892 0.08130329 0.0067000166 0.06549991 -0.01865349
0.036370136 -0.04794256 -0.06989288 0.045121826 0.019746594 0.07940597 0.027643472 0.06912214
-0.012916885 0.014432855 -0.026054054 0.013209343 -0.024825096 -0.02044215 -0.019014813 0.078553386
-0.017940782 -0.0067873597 0.045999803 -0.05870124 -0.0158858 -0.031529427 -0.05929023 0.02767238
0.047773294 -0.06068362 -0.016165726 0.0026571453 -0.023392659 0.0073343813 -0.0417639 0.0003933981
-0.04479008 0.020349793 -0.049345773 0.009666771 -0.024692565 -0.06464108 -0.02635929 -0.0147796795
0.048199095 0.07992982 -0.041554045 0.018333875 -0.063167684 -0.057392996 -0.08199646 -0.06334573
0.02459266 0.06975951 0.025210321 0.059573434 -0.0062287822 -0.06710155 0.038143344 0.056237526
0.07089224 -0.060739905 0.018153995 -0.036286414 0.06251278 0.0033606365 -0.018416978 0.007820807
0.022360377 -0.052702367 -0.043531578 -0.06886947 0.01488927 -0.057052743 0.076068856 -0.03202509
-0.016767941 0.043538786 -0.028978657 -0.027796954 -0.025178682 -0.021092795 0.010240793 -0.028614711
-0.04319927 0.036712147 -0.03892223 -0.0028940216 0.004078172 -0.043253403 -0.052201122 0.036471076
0.068653084 -0.040115148 -0.04584083 -0.07822445 -0.024564724 -0.026736788 0.017842866 0.059317894
0.01879996 -0.03761884 0.045836873 0.048201375 -0.012507446 -0.0076700747 -0.0517508 0.058995195
-0.03125928 0.042712368 -0.0131833255 -0.07427481 0.01448717 0.08031166 -0.061106592 -0.04840979
-0.08230545 0.04059547 0.017952316 -0.0018602908 -0.07894602 0.04822696 0.020010471 -0.026482653
0.021462224 -0.045638334 0.003292434 0.03714984 0.05161483 0.061748795 0.06910483 0.059014447
0.042349286 0.0062336847 -0.07002631 0.075793155 0.005395256 -0.008640856 0.04630164 -0.062982604
0.06522962 -0.033260673 0.04127747 -0.046966106 -0.053141754 -0.06641516 -0.07339889 0.047929205
0.057928823 0.02467344 -0.07572337 0.0028711334 0.077771194 -0.07997942 0.061339356 -0.018832117
0.028677292 0.010446049 0.040539064 0.0029265955 0.08326588 0.081261344 -0.010010682 -0.066559315
0.06731398 0.05974684 -0.041472416 -0.07305086 0.005373724 0.017711729 -0.007466443 -0.06772952
0.004686773 -0.010469407 0.06333632 -0.041516792 -0.06367504 0.073534094 -0.008153826 0.018298827
-0.04900677 0.0057009235 0.056887172 -0.01744368 -0.076166615 -0.040988266 -0.02190873 -0.05714097
0.03712397 0.05670961 -0.07176932 0.04457826 0.023838408 0.076815255 -0.011547588 0.015891671

act_fc1.bias f4 [36]
00000000: 3a1f 7b3d 60f0 c3bc 187f 0abd fe0f 0abd
00000010: 74de b43c 9f2c 9f3d f089 ad3b ee1c 42bd
00000020: c4e3 d63c c0d4 03bd 6bc2 813d d1ba 823d
00000030: 46c9 d3bc c411 d33c dc9c f63c e303 a93d
00000040: f0c0 973c b648 c6bc a65b 153d 5b71 7ebd
00000050: b2e6 87bd 345c 8fbc efcd 86bd d311 34bd
00000060: 4843 41bd 00f8 263c fd16 863d 2095 5f3b
00000070: e0fd 5dbb a6c4 4cbd 13d3 3bbd 4d15 8a3d
00000080: 06ee 123d dca9 ae3c 9875 2abd 4ba4 91bd
0.061309077 -0.02391833 -0.033812612 -0.033706658 0.02207873 0.07772183 0.0052959844 -0.04739087
0.026231654 -0.032185316 0.063359104 0.06383289 -0.02585281 0.025765307 0.030104093 0.082526945
0.018524617 -0.024204593 0.036464356 -0.062119823 -0.066357985 -0.01750002 -0.065822475 -0.04396231
-0.047183305 0.010190964 0.065473534 0.0034115985 -0.0033873245 -0.049992226 -0.045855593 0.06742344
0.035871528 0.02132123 -0.041616052 -0.071114145

val_conv1.weight f4 [2, 128, 1, 1]
00000000: b09c b0bc bb50 9dbd 2198 9d3d 3830 e7bc
00000010: cc05 ea3c e94e a33d e6e7 623d d482 95bd
00000020: 6c3d 953c d131 ad3d a0ae 0abc 89b8 b33d
00000030: 2ce6 2fbd b6fa 2b3d c6c8 31bd 46db 77bd
00000040: b8b3 063d cbef 3abd 0e28 0e3d b423 063d
00000050: 00e6 d8bc bbb9 a53d f67e 2f3d 05e0 8abd
00000060: 40c7 083b 94bd 9bbd 909c 783c 1e3d 55bd
00000070: d692 383d 1a63 a9bd d39d 913d 36a8 18bd
00000080: 98c3 5bbc 0c03 da3c c09f 373b fc75 b03c
00000090: 5b8c 3cbd 9008 eabc 1799 4ebd ea53 9dbd
000000a0: 62d0 7c3d 77d2 92bd d110 20bd c0c9 f7bb
000000b0: 3897 41bc d181 51bd d26f 763d f21d 243d
000000c0: 652b 29bd c60b 5ebd eaa8 9dbd dbca a83d
000000d0: 0239 1a3d 614b 8fbd a074 e43c 8472 82bd
000000e0: ba74 2a3d ecdc 893c 819f 97bd dc4e 84bd
000000f0: 98cc 073c 2dd4 a43d 82d2 82bd b2b8 1abd
00000100: 0a3f 463d 0ef3 523d a816 de3c ec28 94bd
00000110: 908d b23b 7612 1e3d 98c1 48bc 8617 7cbd
00000120: f018 f3bb 5792 a33d 8a66 113d 00fe d63b
00000130: c89a ee3c 8038 073c 4c0e a4bd e002 a6bb
00000140: 4bed 06bd 0487 96bc 1a6f 6f3d 1f4e 9c3d
00000150: 5ee1 7fbd a0db ec3c e6d0 023d 502b a9bb
00000160: 00ae 71bd b074 20bc 799d 16bd ac7b 4bbd
00000170: 4639 6f3d 0cc8 37bd f7e8 8a3d cc00 96bc
00000180: d897 52bc 8458 3cbd 3067 033c 7b4c 903d
00000190: 2499 afbc 2827 71bc 9849 88bc fbb1 913d
000001a0: cdbf aabd 2a69 2e3d 78c9 acbc 38a5 eb3c
000001b0: 765d 383d 98e3 393c bf72 62bd a485 b6bc
000001c0: 68f1 01bc 0888 42bc 98cc 56bc 2536 843d
000001d0: 7734 b3bd 1e96 023d 5de0 8fbd a82e 0dbc
000001e0: 8091 663a 93e6 943d b0c2 afbb da8a 6e3d
000001f0: 7213 713d f84a a4bc 8f6a 94bd 9ace 43bd
00000200: 76a5 203d 2e2e 523d 539c 803d 6228 5d3d
00000210: f6f3 373d 5012 79bd fd5b 8b3d 2c3b f43c
00000220: 6caf c23c 0e20 5c3d c30d 893d ff87 9e3d
00000230: e8f8 923c 057b 9c3d 421f 293d 8a00 013d
00000240: 3808 823c 1fba ab3d 6c94 8f3c 609e 69bc
00000250: 0c26 e0bc 0924 853d 402c 623b fa6e 6bbd
00000260: 1419 97bc dcfe 9dbc 0c2a e03c 4489 85bd
00000270: b024 f93b d045 d6bb 40c3 0d3b ef81 a23d
00000280: 6da5 3abd 89b8 5abd 6f09 a33d 9df0 99bd
00000290: 39ee a4bd 0cc3 bd3c f70b a83d 4341 a43d
000002a0: a7a5 69bd 109b d5bc 20ea 723b 1b17 abbd
000002b0: a2b3 633d c3a4 903d 570c b3bd 00b7 c73a
000002c0: 7020 a1bd e0bf d43c 9f48 a73d c60d 6abd
000002d0: eaa1 203d 3f64 52bd 1656 68bd 2847 823c
000002e0: bc6f ed3c b4d4 aabc 425a 96bd e044 383b
000002f0: 95d1 9cbd b0ef 58bc e0b3 8fbc 8ec3 f1bc
00000300: 0084 84bb cafd 593d d83a 34bc 8083 47ba
00000310: f221 063d 0d15 9dbd 0e18 303d a6e1 1c3d
00000320: 355d 84bd 31bd 803d 20ce a9bc a714 a43d
00000330: 9ebb 6e3d 37ac 13bd caf2 303d 6b5b ac3d
00000340: 2b08 19bd 5d0e 37bd bd84 61bd 507b 58bc
00000350: b0e1 29bc c088 a73c 40ed ea3a fa54 343d
00000360: e049 6ebc f062 d0bb a0a9 9abb 641c bf3c
00000370: b018 54bc 4844 5d3c 4019 bcba 14d3 16bd
00000380: 60b0 823c c096 e33c 4ed3 353d de2c e9bc
00000390: 8015 f9bc cc52 cebc 9904 63bd c36c a73d
000003a0: 203a f43b 1b15 b3bd 2093 86bd a536 42bd
000003b0: 3621 493d 6e3c 25bd 0266 acbd 7867 1cbc
000003c0: 26a8 83bd f43e adbd 6531 16bd 90ae 593c
000003d0: e238 89bd 2e74 103d edb6 b33d 4551 4fbd
000003e0: ee3d 443d 300c 023c 1f88 9b3d fe92 71bd
000003f0: 79b4 95bd c17f a2bd 7e62 1c3d 21ee 70bd
-0.02155909 -0.07681414 0.07695032 -0.028221235 0.028567217 0.07974035 0.055396937 -0.07300344
0.018217765 0.08456767 -0.008464485 0.08775432 -0.04294412 0.041987143 -0.043404363 -0.06051185
0.032886237 -0.04563884 0.034706168 0.032748893 -0.02647686 0.08092066 0.04284569 -0.067810096
0.0020870715 -0.076045185 0.015174046 -0.05206024 0.04506191 -0.08270855 0.07110181 -0.037269793
-0.013413332 0.026612781 0.0028018802 0.021540634 -0.04603229 -0.028568536 -0.050438967 -0.07682021
0.061722167 -0.07169049 -0.039078537 -0.0075618923 -0.0118158385 -0.051149193 0.060165234 0.04006762
-0.04130115 -0.054210447 -0.076982334 0.082418166 0.037652023 -0.06996799 0.027887642 -0.06369498
0.041615225 0.016828977 -0.0740347 -0.06460354 0.008288525 0.08048282 -0.063878074 -0.037773795
0.048399962 0.051501326 0.027110413 -0.07234368 0.0054490045 0.038591824 -0.012253188 -0.06154587
-0.0074187443 0.079868965 0.03549818 0.006561041 0.02912654 0.008253217 -0.080105394 -0.0050662607
-0.032941144 -0.018374927 0.058455564 0.07632088 -0.062470786 0.02891332 0.031937502 -0.005162634
-0.05900383 -0.0097934455 -0.03677127 -0.04967849 0.05840423 -0.044868514 0.06782716 -0.018310927
-0.012853585 -0.045982853 0.008020207 0.070458375 -0.021435328 -0.014718808 -0.016636655 0.07114025
-0.08337364 0.04258076 -0.021092162 0.028765306 0.045011006 0.0113457665 -0.05528521 -0.022280522
-0.007931091 -0.011873253 -0.013110302 0.0645564 -0.08750241 0.031881444 -0.07025216 -0.008617081
0.0008795485 0.07270541 -0.0053637847 0.058237888 0.058856435 -0.02005528 -0.07246887 -0.047804452
0.039220296 0.05131357 0.062798165 0.05399359 0.044910394 -0.06080848 0.06804655 0.029813372
0.023765288 0.053741507 0.06692078 0.07740783 0.017940953 0.076406516 0.041289575 0.031494655
0.01587306 0.08385109 0.017526828 -0.014258951 -0.027361892 0.06501014 0.0034511238 -0.057478882
-0.018444575 -0.019286565 0.0273638 -0.06520322 0.0076032504 -0.006539084 0.002163127 0.07934939
-0.04556792 -0.053398643 0.07960784 -0.075165965 -0.0805325 0.023164295 0.08205407 0.0802026
-0.057042744 -0.026074916 0.003706582 -0.083540164 0.055591233 0.07062676 -0.08742588 0.0015237033
-0.07867515 0.0259704 0.08168148 -0.05714204 0.039216913 -0.051365133 -0.056722723 0.01590307
0.028983943 -0.020853378 -0.07341434 0.0028117225 -0.07657162 -0.01324074 -0.017541826 -0.029512193
-0.004044056 0.053220548 -0.011000358 -0.00076108426 0.032747217 -0.07670031 0.04299169 0.038301133
-0.0646309 0.062860854 -0.02072817 0.080117516 0.058284394 -0.03605291 0.04320029 0.08415874
-0.037361305 -0.044691432 -0.05505823 -0.013212994 -0.0103687495 0.02045095 0.0017923489 0.044026352
-0.01454398 -0.0063594505 -0.004719928 0.023328967 -0.012945339 0.013505049 -0.0014350787 -0.036822394
0.015953243 0.027781844 0.04439097 -0.028463777 -0.03040576 -0.025185965 -0.055424307 0.081750415
0.007453218 -0.0874426 -0.065710306 -0.047415394 0.049103938 -0.040340833 -0.08417894 -0.009546153
-0.06428556 -0.08459273 -0.0366682 0.013286248 -0.06700303 0.035267048 0.08775125 -0.050614614
0.047910623 0.007937476 0.075943224 -0.058978073 -0.07309813 -0.079345234 0.038179867 -0.058820847

val_conv1.bias f4 [2]
00000000: 79e7 b3bd 2f72 a9bd
-0.08784384 -0.08273732
