Connect6/BitBoard/model/6_6_4_best_policy_test_small.model (torch, 414602 bytes, 15 tensors)

conv1.weight f4 [32, 4, 3, 3]
000000 24 b3 89 bb 8c f6 57 bb 59 09 43 bd 9b ca 8f bc
       -0.0042022634 -0.003295335 -0.047616336 -0.017552665
000010 a0 67 a1 bc 11 ac 8a bd ed 57 07 3d f0 ab 03 3e
       -0.019702733 -0.067711 0.033042837 0.12858558
000020 b6 b2 ce bd 8e 25 c7 3d 62 dd 26 be 28 b9 1e 3c
       -0.1009268 0.0972396 -0.16295388 0.009687699
000030 25 9c 97 3d b7 41 ee bd 34 d3 69 bd 3e 1e db bd
       0.07402829 -0.11633628 -0.057086185 -0.106991276
000040 00 53 30 3e 2e b8 74 bd 32 bc 24 bc ec 59 12 be
       0.17219162 -0.05974596 -0.010054635 -0.14292115
000050 a4 ab d1 3c 4f 9e d1 bc e3 98 05 be e0 76 1e be
       0.02559454 -0.025588183 -0.13046603 -0.15475035
000060 91 de 48 3c 28 56 13 3e d8 c6 85 bd 31 0e 1b 3e
       0.012260095 0.14388335 -0.06532067 0.15142132
000070 b1 e3 f7 bc 9a 2d 09 3e dd 60 f2 bd 96 43 8e 3b
       -0.030259939 0.13396302 -0.118348815 0.004341553
000080 99 79 e3 bd a1 05 a7 bc 95 73 da 3d 7b 46 9a 3c
       -0.11107177 -0.020388426 0.10666577 0.018832436
000090 93 94 09 be 69 3a e3 3d 6c d4 08 be 5e 3e 22 be
       -0.13435583 0.11095125 -0.13362283 -0.15844104
0000a0 dd e7 a2 bc 3d f0 ea 3d 43 ac 78 3d cb d9 29 bd
       -0.019885952 0.11471603 0.060711157 -0.04146747
0000b0 24 53 f5 bd 16 fd da bc 6d a9 2a bd b1 90 21 be
       -0.119787484 -0.026732009 -0.041665483 -0.15777852
0000c0 c3 44 f4 3c 76 a7 a2 3d c8 6a f7 bc 5e 04 94 3c
       0.029817944 0.07942097 -0.030202284 0.018068489
0000d0 6b 65 17 3e 9e e6 79 3d 9c 08 c1 3d 04 ee 89 bb
       0.14784782 0.06101095 0.0942547 -0.004209282
0000e0 db ab 26 3e ed 54 cf bd 2c b9 2a 3e 47 89 c3 3d
       0.16276495 -0.1012362 0.166722 0.09547668
0000f0 7c 46 0a be 8f c8 2f 3e 80 1a d2 bd 3f 6e a3 bd
       -0.1350345 0.17166351 -0.10258961 -0.07980012
000100 4d 51 e5 bd 1d e1 25 3e 1b 25 da bd 79 91 92 bc
       -0.111971475 0.16199155 -0.106516086 -0.017891632
000110 22 c4 71 bd 7a 4f 00 bc 52 d0 14 3d 79 d4 30 be
       -0.059024937 -0.007831449 0.036331482 -0.17268552
000120 32 09 df 3d bf b7 ae bd 46 6f b0 3d d1 90 9b 3d
       0.10890426 -0.085311405 0.08614974 0.07595981
000130 b7 ef bf 3c 3c 64 24 be 2a 73 d3 bb de 0c 2c 3e
       0.023429735 -0.16053861 -0.0064529376 0.16801783
000140 c9 fa 9c bd a7 b1 b2 3d 67 07 9c bd 38 bf 60 bd
       -0.07665021 0.08725291 -0.076185994 -0.05486986
000150 08 ee 5a 3d df 10 3d 3d e2 53 90 3c d3 9e ce bd
       0.05344966 0.046158668 0.017618123 -0.10088887
000160 02 27 7a 3d 3c 1d 22 bd a8 0f 2d 3e 2e 0e ee 3b
       0.061072357 -0.03957866 0.16900504 0.007264874
000170 78 32 6f 3c e0 d6 e8 bc fe 71 27 bd c4 46 d2 3d
       0.014599435 -0.028422773 -0.040880196 0.10267404
000180 03 7f 70 3d 8e b3 be bd 18 24 f3 3d 5e 37 a9 3d
       0.058714878 -0.09311591 0.11872119 0.082625136
000190 2d f0 cd 3c 96 87 be 3d 9a 1d 1a 3e 5c ff 06 be
       0.025138939 0.09303205 0.15050355 -0.1318335
0001a0 80 f1 b6 3d d7 9f 2b bd db 10 15 3d 07 4b d6 bd
       0.08932781 -0.041900482 0.036393028 -0.10463529
0001b0 23 b0 c9 bd 78 d8 4a 3c 38 0e 64 bd 56 d1 be 3d
       -0.098480485 0.012380712 -0.055677623 0.093172714
0001c0 dc 55 16 3d 7a 17 a8 3c 40 be 12 3e e3 31 4a 3c
       0.036702976 0.020519007 0.14330387 0.0123409955
0001d0 d7 49 47 bd 1c 80 53 bd 68 92 44 3d 2b 73 3d 3e
       -0.048654404 -0.051635846 0.047991186 0.18500964
0001e0 31 4c e5 bd d7 c0 01 3d c8 19 53 bd 72 42 d4 bd
       -0.11196173 0.031678047 -0.05153826 -0.10364236
0001f0 d8 b5 82 bc b9 86 97 bc f1 f5 34 3e 5a 14 49 bd
       -0.01595585 -0.018496858 0.17671944 -0.049091674
000200 ab 92 e5 bd 30 6f ee 3d b2 dd 00 be 7e d5 b0 3d
       -0.11209615 0.11642301 -0.1258457 0.086344704
000210 52 8f a1 3c 32 e2 0c bd 86 cf a0 3d 45 30 a4 ba
       0.01972166 -0.034395404 0.07852082 -0.0012526592
000220 c6 f3 f0 3d 6a e3 ef bc 57 e8 2b 3e 42 50 99 3d
       0.11765246 -0.029283244 0.1678785 0.07486011
000230 83 ae c9 3d b7 6a b1 bd 10 bf e8 3c e0 05 22 3e
       0.098477386 -0.08662932 0.028411418 0.15822554
000240 32 6a ae 3d d8 19 ad 3d 7e 73 22 3e d4 e7 7c bc
       0.08516349 0.08452195 0.1586437 -0.0154361315
000250 a6 83 16 3e 12 a5 78 3d 1c e2 3d bd fa 6d f9 3d
       0.14698657 0.0607043 -0.046358213 0.121791795
000260 fc 54 8a 3c f6 b8 33 be 89 65 bf 3d 54 5a ad 3d
       0.016886227 -0.17551026 0.09345538 0.08464494
000270 43 e5 f6 3d 4b 69 e1 bd 48 98 aa 3d 33 3f 6d bb
       0.12055447 -0.11006411 0.083298266 -0.0036201
000280 59 f6 09 be 82 cd cd 3d 3d 77 03 3e 15 e0 10 ba
       -0.1347288 0.10048963 0.12838455 -0.0005526555
000290 d9 67 2c 3e e9 b5 8e 3d 7c 6c 2b 3e 88 c1 77 3d
       0.1683649 0.0696829 0.16740602 0.0604873
0002a0 88 7e 43 bc 75 0f 6e 3d 3c 0d b5 bd 2a 31 8a 3d
       -0.011932023 0.05812021 -0.08840415 0.067476586
0002b0 1a 41 64 bd 49 ef 19 3c a4 5e b6 3c 4f fe e3 bd
       -0.05572615 0.009395429 0.022261925 -0.1113249
0002c0 96 f8 38 be 5d 04 2b 3e fe 47 b3 bd 7f 35 8b bd
       -0.18063578 0.16700883 -0.08753966 -0.06797313
0002d0 7a 59 39 3d 17 9d 7b 3d c1 f5 d6 bd b4 f8 92 bd
       0.045251347 0.06142911 -0.104960926 -0.071763426
0002e0 b7 1d 47 3d 43 b6 c5 3d 2e 0e 08 be 54 65 2a 3c
       0.048612323 0.09653904 -0.13286659 0.010400135
0002f0 7e 6b b6 3d 34 30 38 3e a1 0a 10 be 68 70 8d 3c
       0.08907221 0.17987138 -0.14066555 0.017265514
000300 ca ba ab 3d d8 e4 54 3d 87 85 db bd f3 09 89 3d
       0.083852366 0.051976055 -0.10718828 0.06691351
000310 8d 3d 32 3d 5d 58 ad bd 2a f8 d6 bb 56 0c 13 3e
       0.04351573 -0.084641196 -0.006560345 0.14360175
000320 fb 5c 94 3d 13 71 f4 3d 81 e8 96 bc e4 26 1a 3e
       0.07244297 0.1193563 -0.018421413 0.15053898
000330 3d aa ed 3d 1b 72 cc 3c a7 3b 93 bd 49 46 5f bd
       0.11604736 0.024956753 -0.07189112 -0.05451039
000340 ac 29 03 3e f7 75 56 3d 44 93 c4 bc 05 be 54 bd
       0.12808865 0.052358594 -0.023996003 -0.05193903
000350 d8 47 3b 3d 48 70 dd 3d 34 d7 83 3d 01 b2 41 3e
       0.045722812 0.108124316 0.06437531 0.1891556
000360 0d c9 1b be a6 3c 4d 3d e9 14 25 be 2d 16 a9 3c
       -0.15213414 0.050106667 -0.16121258 0.020640457
000370 7d a9 b2 3d 50 db af bd ee a2 9b bc 57 84 df 3d
       0.087237336 -0.085867524 -0.01899859 0.10913914
000380 65 68 9c 3d ca 51 a8 bb 56 7a c9 3d bf 3b 69 bd
       0.07637099 -0.005136703 0.09837787 -0.056941744
000390 99 3c ff 3d 2d bf 27 be 5b 3d 06 3e c6 c3 e4 3d
       0.1246273 -0.16381522 0.13109343 0.11170153
0003a0 b3 86 0d be 31 ff c4 3c d7 49 b7 bc 09 bb c2 bd
       -0.13820915 0.024047466 -0.022374077 -0.095083304
0003b0 c3 c3 0f 3e e1 2f ab 3c 52 64 1f 3e 92 35 18 3e
       0.14039521 0.020896854 0.15565613 0.14864185
0003c0 89 07 a1 bd 37 6a 05 3d 96 3d 98 bb cc 53 c1 bc
       -0.07862765 0.032571997 -0.0046460135 -0.023599528
0003d0 c3 e2 27 bc b4 c3 72 3c d7 28 3e be 9b 15 84 bd
       -0.010246935 0.014817167 -0.18570267 -0.064494334
0003e0 b7 5d 1a 3e ed 2d 0a 3e 93 90 dd bd ee 47 29 3e
       0.15074812 0.13494082 -0.10818591 0.16531345
0003f0 51 d2 09 be 61 dd 05 3e 07 a1 f2 bd 64 d2 3d bd
       -0.13459136 0.1307273 -0.1184712 -0.046343222

conv1.bias f4 [32]
000000 f8 97 2a bd db 93 6a bc 87 38 4a bd 31 99 c7 3d
       -0.041648835 -0.014317478 -0.049370315 0.09746016
000010 c5 77 d5 3d 22 1a b6 3d 45 c4 25 3e dc ab ce 3d
       0.10423235 0.08891703 0.16188152 0.10091373
000020 08 ae 83 39 dd 14 bc 3d f6 0d 12 be dc 90 38 3d
       0.0002511593 0.09183667 -0.14263138 0.045060024
000030 fa e7 a9 3d 00 94 43 bd bc da b4 3c 29 cd a1 bd
       0.08296199 -0.047748566 0.022076957 -0.07900459
000040 da 35 2c 3e 47 c4 f3 bd a7 89 18 be 27 18 aa 3d
       0.16817418 -0.11902671 -0.1489626 0.08305388
000050 86 b9 1c 3d 74 63 4a bc 82 39 a4 3d 50 62 09 3d
       0.038262866 -0.012352813 0.08018781 0.033541024
000060 55 2a 24 3e 13 66 18 be e2 11 09 be 32 2c 98 bd
       0.16031773 -0.14882688 -0.13385728 -0.074303046
000070 ee 9d 1a be 00 13 62 b7 a1 24 88 bd 4e f6 f8 3d
       -0.15099308 -1.34750735e-05 -0.066476114 0.12156354

conv2.weight f4 [64, 32, 3, 3]
000000 1a c1 0a bd 5e 15 26 3a 1f 6d 0e bc ef 3b 39 bc
       -0.033875562 0.00063355814 -0.008693009 -0.011305793
000010 bf a0 59 bc 66 0d c7 3b a0 15 6e 3c 26 15 d9 bc
       -0.013282954 0.0060745953 0.014531523 -0.026499342
000020 3f 20 7e bc 46 f8 e5 3c 7e e3 07 3c d8 a5 a3 bc
       -0.015510618 0.028072488 0.008293984 -0.019976541
000030 1b cf b1 bc 64 9a 26 3d f7 e5 cc bb fa a1 32 3d
       -0.0217052 0.040674582 -0.006253 0.043611504
000040 b6 59 8d 3d a9 78 6f bd 9b 2c 12 bd 0c 47 51 bc
       0.06901877 -0.05846468 -0.03568707 -0.012773287
000050 70 9d e3 3b ab e7 62 3c 08 2c 00 bd c9 6c b6 bc
       0.0069462582 0.013849179 -0.03129199 -0.02226867
000060 10 09 9c 3d 94 71 ad 3b b1 b2 85 3d 2d 35 f6 3c
       0.07618916 0.0052930806 0.06528223 0.030054653
000070 9c bb 48 bc f4 0f 50 3d 0c d5 1b bd 40 10 e8 bc
       -0.012251761 0.050796464 -0.038044974 -0.028328061
000080 0f 88 5b bc 80 5f ac bc df 8d 01 3d d0 85 39 bd
       -0.013399138 -0.021041632 0.03162944 -0.04529363
000090 fb b2 c9 bc 46 a0 8d 3d 97 53 02 3d 1d b8 46 bd
       -0.024621477 0.06915335 0.031818 -0.048515428
0000a0 0f 2d 70 3d 36 3d 24 3d 31 7f c9 bc 48 84 5e 3d
       0.05863672 0.040097438 -0.024596782 0.054325372
0000b0 b4 9a 57 3d b1 de 36 bd 30 c2 93 3c 44 2e 24 bd
       0.05263777 -0.04464597 0.018036932 -0.040083185
0000c0 fa b4 95 3b 3c 30 d4 bc fb 45 85 3d 7a 6e 23 bd
       0.004568693 -0.025901906 0.06507488 -0.03990028
0000d0 1e 5b 2f 3d 97 a9 91 3c 65 4a 01 3c d4 ba 9d bb
       0.042811505 0.017781062 0.007891272 -0.0048135314
0000e0 98 da 7d 3d f5 72 92 bc c5 4b de 3b c8 f3 94 ba
       0.061976045 -0.017877081 0.006783935 -0.0011364156
0000f0 77 ad 09 bc 05 f1 08 3d 32 40 c9 3b 97 fc 54 bd
       -0.008403174 0.03343298 0.006141686 -0.0519987
000100 81 4e 49 bb d4 b3 e8 39 dd 02 e9 3c f5 8e 9a 3d
       -0.0030716958 0.0004438447 0.028443748 0.07546798
000110 c9 0d 6b 3d dc e7 10 bd 28 30 07 bb 96 af 0e bd
       0.057386193 -0.03537737 -0.0020628069 -0.03483542
000120 5d 4c 11 bd 13 21 8a 3c ca 83 55 3c 76 20 d0 3b
       -0.035473216 0.016861474 0.013031909 0.006351526
000130 18 f9 38 3c 21 45 aa 3c d2 13 ee 3b 4d 39 9b 3b
       0.011289857 0.020784916 0.0072655464 0.0047370554
000140 5f 98 88 3c 8d 02 44 3d 7e d0 5c 3d b3 c6 68 3c
       0.016674219 0.047853995 0.05390977 0.01420753
000150 21 67 2c bd e0 e3 08 3a b7 a8 63 3d 32 14 a7 bc
       -0.04209054 0.00052219443 0.05558082 -0.020395372
000160 9e 2a 8f 3c c8 24 0c 3d ef 94 f1 3c 95 e0 57 3d
       0.017476376 0.034214765 0.029489962 0.052704412
000170 15 3f 00 3d 5c 1b 20 bd c8 6b b3 3c b1 2e cf 3c
       0.03131016 -0.039088592 0.02190198 0.025290819
000180 34 3d e3 3c 7e 44 50 bc 44 30 ef 3c 44 dd 9b bb
       0.027739145 -0.012711642 0.02919782 -0.0047566015
000190 10 87 ec ba 89 74 d1 3c 1d 2b 28 bc 18 cc 01 3d
       -0.0018045623 0.025568264 -0.010264185 0.03168878
0001a0 59 bd 59 3d 33 93 36 bd 91 69 1a bd 48 98 0f 3d
       0.05315909 -0.044573974 -0.037698332 0.035057336
0001b0 33 e0 d9 3c 22 8e d0 bc 1a 97 1a 3c 34 60 6c 3d
       0.026596164 -0.0254584 0.0094354395 0.057708934
0001c0 80 9f 6d bc 39 71 03 3d 06 6e b3 bc 47 92 25 bd
       -0.01450336 0.0320904 -0.02190305 -0.040422704
0001d0 47 f5 1d bd a6 46 d1 3c 27 1a e4 3c ef 31 f1 bb
       -0.038563993 0.025546383 0.027844502 -0.007360689
0001e0 ea e7 8a bc 40 20 cb bc cf 2b 43 3d 61 5f 52 3d
       -0.016956288 -0.024795651 0.0476492 0.05136049
0001f0 5d 48 86 bc bb 55 57 3d 8a e3 8d 3d 9c 86 0b 3d
       -0.016391927 0.052571993 0.06928165 0.03406392
000200 8e c0 59 bd 4a a0 5f bb 7e ed d8 3c db a4 5e 3b
       -0.05316215 -0.003412264 0.026480433 0.0033972773
000210 ce b2 e1 bc fb 72 be bc 65 2e 19 bd 0d e3 b7 3c
       -0.027551081 -0.023248186 -0.03739776 0.022447133
000220 88 80 d0 bc ce f4 1e 3d a4 91 86 3b 5b 4b 6d 3d
       -0.025451913 0.038807683 0.004106717 0.057933193
000230 74 91 41 3c 0c e3 26 bd cf e9 bd bc d6 20 71 3c
       0.011814464 -0.040743873 -0.023182778 0.014717301
000240 a8 2b 8b 3b da d5 a1 3c a0 a3 33 bd 2e 65 ee bc
       0.0042471476 0.019755293 -0.043857217 -0.02910098
000250 0c 66 5f 3d 40 74 2e 3c 25 26 66 3d f2 ae a5 3c
       0.05454068 0.010647833 0.05618872 0.020225022
000260 0d 71 dd 3c 3d e6 16 bd aa 02 5e bc 18 d3 86 3c
       0.027031446 -0.036840666 -0.01355044 0.01645808
000270 83 83 dd 3c ef a6 d3 bc f9 c8 84 bb 71 a2 95 3d
       0.027040249 -0.025836436 -0.004052278 0.07306374
000280 e4 77 62 bc a3 c1 35 3c da 0a 8e bc 14 76 80 bd
       -0.013822529 0.01109353 -0.017339159 -0.062725216
000290 d7 48 e5 bc dc c4 1f bc 14 16 58 bd 82 6b 2c 3d
       -0.027988834 -0.009751525 -0.05275543 0.042094715
0002a0 b3 34 56 bc d8 92 ed bc 54 94 2a 3a a6 a3 3f 3d
       -0.013074088 -0.029000685 0.0006507088 0.046786927
0002b0 31 a5 49 3b 61 d4 75 3d 2d e2 36 3d 75 6a 91 3d
       0.0030768628 0.060016993 0.04464929 0.07100383
0002c0 8c 82 25 bd b5 c8 65 3d 59 59 08 3c 11 fd 51 bd
       -0.040407702 0.056099612 0.008322083 -0.051266734
0002d0 74 e2 1b bd a6 b3 8d bc 3f 45 ff bc ed 9c 1c bb
       -0.03805776 -0.017297577 -0.031160949 -0.0023897246
0002e0 83 e5 13 bd e3 07 06 bd 6f 0d 8b 3c 88 f1 f7 3b
       -0.03610755 -0.032722365 0.01697418 0.0075666346
0002f0 5b 35 96 bb 61 f4 7f 3d 71 fc 68 bd 8f 9d df 3c
       -0.004583997 0.062488917 -0.056881372 0.02729681
000300 ca 29 32 bd 49 84 55 3d b8 41 c8 3c 65 48 03 3d
       -0.043496884 0.05212811 0.0244454 0.032051463
000310 0f 22 2f 3d 1e 98 01 3c 1c 14 18 bb 4e 2b 3d bd
       0.04275709 0.007909803 -0.0023205345 -0.046183877
000320 cf cf 22 3b 44 f4 f1 3c 69 a5 69 3d de b9 04 bd
       0.0024843102 0.02953542 0.057042513 -0.03240382
000330 f2 1a c6 bc 65 f8 1c 3d e8 b6 13 bd 21 89 28 3d
       -0.02418277 0.038322825 -0.036063105 0.0411464
000340 6b 79 f8 bb 12 38 5e 3d 0b 11 02 3c 0f 76 38 3d
       -0.0075828335 0.05425269 0.007938634 0.045034464
000350 76 01 d1 3b 60 8e 73 bc fd 55 af bc 65 55 c4 bc
       0.006378348 -0.014865488 -0.021403307 -0.0239665
000360 45 98 75 3c c9 da 12 3d fc 74 9d 3b cc ef 55 3d
       0.014989917 0.03585318 0.0048052054 0.05223064
000370 a4 60 03 bc bb 38 a1 3a 36 da 81 3d 54 be 5a 3d
       -0.008018646 0.0012300232 0.063404486 0.053404167
000380 a7 d5 74 bc c4 8f a1 3c c0 ce e8 3b b5 52 91 3c
       -0.014943517 0.019721873 0.0071047246 0.017739633
000390 12 d9 d2 bb 17 f9 8c bc e7 70 c5 3b e3 4b 2f 3d
       -0.006434568 -0.017208619 0.006025422 0.04279698
0003a0 4f 2f ae 3c 90 e3 62 b9 e0 24 b5 3c ee 76 d5 ba
       0.021262793 -0.00021637813 0.02211231 -0.0016286054
0003b0 01 58 6b 3d da a8 4d bd 64 71 8a 3d 15 fc bf bc
       0.057456974 -0.050209858 0.06759909 -0.023435632
0003c0 c2 0e 28 3c ac 16 04 ba f0 1e 1e 3d e3 a8 e5 bc
       0.010257425 -0.0005038779 0.038603723 -0.028034633
0003d0 e4 23 3b bd db fe ef 3b 7a af 7c 3c 48 0d 86 3d
       -0.045688525 0.0073240823 0.015422696 0.06545502
0003e0 2c 69 b3 bb 4e 91 96 bb 18 fb dd 3c 80 90 de bb
       -0.005475184 -0.0045949584 0.02709727 -0.006792128
0003f0 8e 02 c5 bc 54 01 32 bd 47 8b df bc 68 48 2d 3d
       -0.02404907 -0.043458298 -0.027288092 0.04230538

conv2.bias f4 [64]
000000 97 aa ce bc f6 c5 da ba aa d8 8f 3c 47 72 2b 3b
       -0.025227828 -0.0016691077 0.017559368 0.0026160644
000010 1e 07 16 bd 14 61 2b bd 66 61 3e 3d 2a e7 33 bc
       -0.03662788 -0.041840628 0.046479605 -0.010980407
000020 82 c5 ab bb 31 16 d8 bc 3f 63 d2 bc a7 fb 1e 3d
       -0.0052420506 -0.02637777 -0.02568209 0.038814213
000030 00 92 81 3d 28 88 1d bb d0 b4 0c 3d e8 85 8c 3c
       0.063266754 -0.0024037454 0.034352124 0.017153695
000040 f0 37 fb 3c fb d5 ab 3c 1e 2d ba 3c 14 3e f0 bc
       0.030666322 0.020976057 0.022726592 -0.029326476
000050 1f 85 08 bd 13 fb aa bc 8d ca 08 bc 9e d4 f4 bc
       -0.03333008 -0.020871675 -0.008349073 -0.02988654
000060 8a 85 41 bd 6c 67 e0 3c 1e e7 d0 3c 76 4b c4 bc
       -0.047246493 0.027393065 0.02550083 -0.023961764
000070 a7 8c a3 3c fc 55 78 3d 7e 7a 0d 3d 67 ad 94 bc
       0.01996453 0.060628876 0.034540646 -0.01814909
000080 f4 56 0b bd 74 d4 aa 39 7f 52 03 bd d6 62 04 bd
       -0.03401847 0.00032583217 -0.032061096 -0.03232082
000090 20 2a 02 b9 f2 e3 40 3d 54 7a ba bc de d4 1f 3d
       -0.00012413459 0.047092386 -0.022763409 0.039021365
0000a0 7f 6a 7d bc e8 5c f9 bc 3f f1 6e 3d 53 00 38 bd
       -0.015467285 -0.030439809 0.05833554 -0.044922184
0000b0 6f de 17 3d 9e 1d b6 3c 4f a5 ef bc 8f 10 07 3c
       0.037077364 0.02223092 -0.02925363 0.008243694
0000c0 ea fc 0f 3d b2 a2 b5 bc 74 38 c2 bc 5b 80 17 3d
       0.035153307 -0.022172306 -0.02370856 0.036987644
0000d0 f8 09 16 3d cb 86 23 3c 67 d5 3d 3b 98 45 31 bd
       0.0366306 0.009980868 0.002896631 -0.04327926
0000e0 06 c8 9f ba 5e 5e 43 bc 0c aa 24 bd b7 99 98 bb
       -0.0012190349 -0.011924354 -0.04020123 -0.004656996
0000f0 56 dd 6c 3b 7a 61 45 3d 24 dd 66 bc af f9 0e bd
       0.0036142669 0.048188664 -0.01409081 -0.034906086

conv3.weight f4 [128, 64, 3, 3]
000000 1d b1 ce 3c 68 24 d3 bc a2 f3 25 3d 41 f9 24 3d
       0.025230939 -0.025774196 0.04051555 0.04027677
000010 c4 1d 16 bd 22 18 b0 3c fa ea e6 ba 37 56 48 bd
       -0.03664948 0.021495882 -0.0017617636 -0.048910346
000020 08 00 34 3c fc ee 0d ba 76 aa bb bb ac 42 be 3b
       0.010986336 -0.00054143346 -0.0057271076 0.0058062878
000030 e7 89 14 3d be 39 77 3c 40 4e c9 3c 81 c3 89 3c
       0.036264326 0.01508945 0.024573445 0.016816856
000040 b2 b5 0a 3c f1 3c 1c bd 2f c8 cd bb 60 e2 0a 3d
       0.008466171 -0.038144056 -0.0062799673 0.033907294
000050 85 aa ba 3c 6a 33 8c 3c d6 72 1a 3d 85 f7 2d 3d
       0.022786388 0.01711436 0.037707172 0.04247238
000060 1a 09 48 bc ad d5 d0 bb 50 8a 91 bc f6 3f 5e ba
       -0.012209201 -0.0063731284 -0.017766148 -0.0008478159
000070 9c 10 3c 3b cc 02 c3 3c 2a e1 a9 bb 12 28 b4 3c
       0.0028696423 0.023805045 -0.0051843124 0.021991763
000080 ed fb 99 3c b6 f5 b4 3c 07 45 02 bd 02 7e 8b bc
       0.018796885 0.02208982 -0.03180411 -0.017027859
000090 80 0e 20 b8 e0 69 7e ba b5 5f 44 3c 11 a6 3e 3d
       -3.8160477e-05 -0.00097051077 0.011985709 0.046545092
0000a0 74 bc 20 3d 4a bf 54 bc 65 d3 68 3d a7 bd d6 3c
       0.039242223 -0.01298506 0.056842227 0.02621348
0000b0 b6 8e 65 bc d9 89 20 3d fc de 58 3b 10 b5 fc ba
       -0.014011076 0.03919396 0.0033091893 -0.0019280035
0000c0 0d 4a 08 3d 0e 64 0b 3d b4 43 a9 3c bc 8b 22 3d
       0.033273745 0.034030966 0.020662166 0.039684042
0000d0 18 00 ff bc 5d 20 b5 3c a3 17 06 3d 57 f2 24 3b
       -0.031127974 0.022110159 0.032737385 0.002516886
0000e0 e4 0d 5c 3d 59 a9 21 3d 46 3c 20 3c 5c 70 ad bc
       0.053724185 0.039468143 0.009779995 -0.021171741
0000f0 dc cf 5a 3d 8a 4e c0 bc 0c 97 8f 3c 8b d5 b5 3c
       0.053420886 -0.02347495 0.01752808 0.022196552
000100 8b ec 99 3c 7a 1e 02 bd 60 c0 89 bc 84 bc a8 3c
       0.01878955 -0.031767346 -0.016815364 0.020597704
000110 c5 91 25 3c 83 d8 15 3c ef c8 89 3b ba 60 c7 3c
       0.010105555 0.009145859 0.0042048614 0.024338115
000120 cd d7 5a 3b 7c 90 bb bb 11 31 2a bb 7a ad 0d bd
       0.0033392787 -0.005724011 -0.0025969187 -0.03458927
000130 cc 23 d4 bb 25 4d 28 3d 47 9e 93 3c 15 94 e8 bb
       -0.006473994 0.041089196 0.018019808 -0.007097731
000140 49 99 88 3c 1e 34 da ba 28 9d 92 3c 94 06 10 3c
       0.016674655 -0.0016647612 0.017897204 0.008790631
000150 e2 40 40 3d 4b c0 2a bc f5 24 12 bd 51 24 22 bc
       0.046936877 -0.010421823 -0.035679776 -0.009896354
000160 67 a0 bf bc bd 67 93 bb 84 84 c5 bc d8 2a 8f bc
       -0.023391915 -0.0044984506 -0.02411104 -0.017476484
000170 f6 2a d0 bc 62 ca 76 3b 47 8f fe 3c ff c4 01 bd
       -0.02541111 0.003765725 0.03107418 -0.03168201
000180 0d c9 d2 ba e2 72 4a bd 1a f5 94 bc b0 0d e5 3b
       -0.0016081646 -0.049425967 -0.01818328 0.006990157
000190 58 26 19 3d 66 e3 fa 3c b7 cf df 3c a3 da b7 bc
       0.037390083 0.03062601 0.027320726 -0.022443121
0001a0 69 1f 72 3d c7 b1 b5 bc fb e6 75 3c eb 85 35 3d
       0.059111986 -0.022179497 0.015008683 0.044317167
0001b0 cb 4f 31 3d fd 7e b5 3c 4e 94 3c 3b 9f 8a 17 3d
       0.043288987 0.02215528 0.002877492 0.036997434
0001c0 c2 71 82 bc f0 4d 8b 3c a2 20 55 bd 4b 50 39 bd
       -0.015923385 0.017004937 -0.052033074 -0.04524259
0001d0 21 cd c8 3c b9 f9 bf 3c c1 85 90 bc b0 05 36 bc
       0.024511876 0.023434507 -0.017641904 -0.011109754
0001e0 7a ff 09 bd fc 17 fd 3c 29 b2 0f bc 50 02 34 3c
       -0.033690907 0.030895226 -0.008770504 0.0109868795
0001f0 67 30 eb 3c f4 ed 04 bd 52 ce 40 3d 6a 82 9c 3c
       0.028709603 -0.032453492 0.047071762 0.019105155
000200 fe b3 59 3c 89 f2 32 bc 68 e8 bd bc 2c 75 3a 3d
       0.013287542 -0.010922083 -0.023182109 0.0455219
000210 59 c1 80 3d 8d 9e c6 3c 51 d6 b5 3b 33 1e 4f 3d
       0.06286878 0.024245525 0.00554923 0.05056591
000220 81 12 9c bc af 88 a2 bc 69 51 0b 3d 06 32 bf bc
       -0.019051792 -0.019840566 0.034013186 -0.023339283
000230 7c 7f 31 3c 50 6b dc 3c d3 69 02 3d 56 21 c8 ba
       0.010833617 0.02690664 0.031839203 -0.0015268724
000240 db 03 07 3d 3a 04 43 3d e3 63 22 bc ba 9e 89 bc
       0.03296266 0.047611453 -0.00991151 -0.01679932
000250 de 88 2f 3d 6c 71 a6 ba 17 60 a3 3c b4 b7 c6 3c
       0.042855136 -0.0012698597 0.01994328 0.024257518
000260 9e a7 1a 3c fc 3c 91 3c 07 d7 a3 3c a0 e8 51 3d
       0.009439377 0.017729275 0.019999994 0.05124724
000270 7a e3 0a bd 3e 7e 1d bc e8 b7 2f 3b fe 4c 94 3c
       -0.033908345 -0.009612618 0.0026812498 0.018103119
000280 11 7f 35 bd 21 7f 21 bc 59 b5 d5 bc 53 1a a7 bc
       -0.044310633 -0.00985697 -0.02608745 -0.020398295
000290 9d a7 0d 3d ca f7 4d 3d 4e ff 0b 3c 9e d7 7c 3c
       0.034583677 0.05028514 0.008544756 0.0154322665
0002a0 6e 9e d6 3c 93 19 04 3c 7e 52 23 ba 01 cf d1 bc
       0.026198592 0.008062738 -0.0006230249 -0.025611402
0002b0 50 49 24 3d 4c 7b 23 3d ae 9c b9 bc 36 38 98 3b
       0.04010898 0.039912507 -0.022657719 0.0046453727
0002c0 36 32 19 3c 93 66 29 bd 3e 55 0c 3b 22 e1 3d 3c
       0.00935035 -0.041357588 0.0021413113 0.01158932
0002d0 ef 85 e5 3c 44 0b 21 bd de 3d 09 3d 36 47 f1 3c
       0.028017966 -0.039317384 0.033506267 0.029452901
0002e0 52 d9 fb 3a 16 47 8a bc 49 d5 05 3b ae 7d 8f 3b
       0.0019214547 -0.0168796 0.0020421317 0.004378996
0002f0 42 2e 82 bc e5 3b 3f 3b 69 83 b9 3c 09 cc 32 bd
       -0.015891198 0.0029179987 0.022645669 -0.043651614
000300 59 da 11 3b 9e 6f eb 3c 1d 48 63 bc 47 fd 92 bc
       0.002225539 0.028739747 -0.013872174 -0.017943038
000310 8a 4d a4 3b d9 40 11 3d 48 aa 3d 3c 92 a0 84 3b
       0.005014126 0.035462234 0.011576243 0.004047462
000320 46 88 7d bb c0 7c f3 3c c0 4e 03 38 a6 f0 31 3c
       -0.0038685962 0.029722571 3.1306176e-05 0.010860598
000330 1b f2 6c 3b 54 ef 0e bd 9e 12 16 bc ce 3b bb bb
       0.0036155048 -0.03489621 -0.009159712 -0.0057139164
000340 83 31 1c bd 24 f8 8e ba c6 8c d3 bb fd 39 95 bc
       -0.038133156 -0.0010907692 -0.0064559905 -0.018216128
000350 e5 56 3e 3c 90 d0 3d 3c 74 99 b9 bc 4c db ef bc
       0.011617397 0.01158537 -0.02265618 -0.029279374
000360 40 59 fb bc 21 5b 90 3b 07 46 96 3c 78 e9 80 3c
       -0.030682206 0.0044053947 0.018343939 0.015736327
000370 e0 aa 92 bc 4e 2e b0 bc 6a 59 c2 3b d9 52 28 bb
       -0.017903745 -0.021506455 0.005931069 -0.0025684147
000380 66 ca e0 ba 18 c2 fe 3c ab 14 e8 3c 34 63 6a bc
       -0.0017150163 0.03109841 0.028330168 -0.014305878
000390 2e 54 0d bd c1 2f c3 bc 31 5b 00 3d 87 81 1e 3d
       -0.034504108 -0.023826482 0.031336967 0.038697746
0003a0 d4 cb 94 3c 96 52 90 3c 40 de 9a 3c e6 02 86 bc
       0.0181636 0.017617505 0.018904805 -0.016358804
0003b0 c4 4c ca bc b2 85 f0 3c d8 de c9 bc 12 68 4e 3d
       -0.024694808 0.029360626 -0.024642393 0.050392218
0003c0 1f 24 fc 3c 53 7d 4f 3d 76 fe 14 3d 06 e3 d3 bc
       0.030778943 0.050656628 0.036375485 -0.02586509
0003d0 b3 19 26 3b a8 fc 3b 3c f8 eb e4 bc 00 6b ab bc
       0.0025344908 0.011473812 -0.02794455 -0.020925045
0003e0 36 41 1b bd 6d 2c ca 3c 9c 8b 94 bc 62 d8 8b 3c
       -0.037903987 0.024679387 -0.018132977 0.017070953
0003f0 e3 0e 0e bb e8 38 49 3d 7c c3 a1 bc 16 ed dd bc
       -0.0021676354 0.049126536 -0.019746535 -0.02709059

conv3.bias f4 [128]
000000 1c 36 55 3d ad ec e8 bc 60 f9 0e 3b eb 33 d2 3c
       0.052053556 -0.028433168 0.002181612 0.025659522
000010 3d f4 5c bc 30 4f 9a bc 0c c7 05 bd 04 46 0b 3c
       -0.013485965 -0.018836588 -0.03266053 0.00850058
000020 3a 58 70 bc b6 b7 02 3d 70 d1 95 3c 07 84 1a 3d
       -0.014669472 0.03191348 0.018288344 0.037723567
000030 4b 27 b2 3c c6 ec 26 3c ad 0b 00 bc 71 07 59 3d
       0.021747252 0.010188287 -0.007815284 0.052985612
000040 d9 9e 94 3c 1b 8e 56 3c 06 54 fc 3b ef 4f 53 3c
       0.01814215 0.013095404 0.007700446 0.012897476
000050 fd 8a cd 3c 2b ce f3 bb 06 18 ed bc 66 55 a9 bc
       0.025090689 -0.0074403486 -0.02894212 -0.020670604
000060 43 ab 10 3d 48 bc 11 3c 54 1b 2e 3d 6a 61 e1 3c
       0.035319578 0.008894987 0.04250653 0.027512271
000070 ae 5e e7 bb 72 ee 56 3d 69 c1 97 3c f2 08 07 bd
       -0.0070608472 0.052473493 0.018524842 -0.032967515
000080 81 30 f0 3c 29 89 ac bc a6 7d dd 3c e8 d3 32 3c
       0.029320003 -0.021061497 0.027037453 0.01091478
000090 ec 46 04 3d a8 41 e4 3c 83 12 9a bc 45 7f 03 3d
       0.0322942 0.027863339 -0.018807655 0.032103796
0000a0 05 22 ed bc 00 dc a4 3c 9d 67 ab ba 91 d9 94 3c
       -0.028946886 0.020124435 -0.0013077144 0.01817015
0000b0 74 80 42 3d 55 a0 d4 3c c4 31 62 bc 02 a4 c1 3a
       0.047485784 0.025955359 -0.01380581 0.001477361
0000c0 96 2d 39 bc 7f b8 d7 ba cb d5 08 bc dc 6d be bc
       -0.011302372 -0.0016458182 -0.0083517535 -0.023245744
0000d0 77 ae e2 3c 96 2d fe 3c 6e 74 2c 3d 09 5f 45 3d
       0.027671082 0.031027596 0.042103224 0.048186336
0000e0 a9 25 99 bc af 0f 91 3c 66 45 c8 bc e2 65 93 3c
       -0.018694716 0.017707674 -0.024447154 0.017992917
0000f0 b2 4d 8e bc 05 d0 ed ba 0a 24 34 3a 3b 06 05 3d
       -0.017371032 -0.001814366 0.00068718253 0.032476645
000100 67 e1 13 3b f4 1c f4 3c f1 08 29 bd 94 49 36 ba
       0.002256477 0.029798962 -0.041268293 -0.0006953713
000110 55 dd 1c 3d 4f 72 32 3d b9 4b 03 3d 3e a2 f1 3b
       0.038297016 0.043566044 0.032054637 0.007374077
000120 50 1e 7c 3c 9e c0 92 3c f8 2f 49 3c e6 13 37 3c
       0.015388086 0.017914113 0.012279503 0.011174178
000130 10 fc 3c bc de 0a a0 bc 08 76 4c bc 0f af 39 3c
       -0.011534706 -0.019536432 -0.012479313 0.011333241
000140 ba fa 12 3d d6 50 76 3d f8 36 76 3c 11 47 26 3d
       0.035883643 0.060135685 0.015027754 0.040595118
000150 aa d9 89 bc 54 42 f8 bc 15 ff aa bc 13 ce 29 3d
       -0.016827423 -0.030305065 -0.020873586 0.041456293
000160 9f 9c 52 3c 50 85 e1 bc df 10 61 3c 6d 50 0e bd
       0.012854724 -0.027529389 0.013736933 -0.03474467
000170 6e 5b 14 bc 81 7f 7a bc c3 49 27 3d 2a c5 0d bd
       -0.009055002 -0.015289188 0.04084183 -0.03461186
000180 d0 e2 c7 38 e8 69 c7 3c 3d 25 09 bd 61 27 3f 3d
       9.5313066e-05 0.024342492 -0.03348278 0.046668414
000190 1e 5d 02 bc 05 b6 0c 3d 2d d4 03 3d 45 ba ab bc
       -0.007956771 0.034353275 0.03218477 -0.020962844
0001a0 03 ef 56 3c a9 0f 58 3c 3c 14 7e bc 04 d3 2a 3d
       0.013118508 0.013187327 -0.015507754 0.041705146
0001b0 b6 c0 0e 3d ab 51 b3 bc bf 71 54 3d e1 9b c8 3c
       0.034851752 -0.021889528 0.05186629 0.024488391
0001c0 90 2c 9b bc 52 e7 7c 3c 40 f9 9c 3c e2 29 4c 3c
       -0.018942147 0.01543601 0.01916182 0.0124611575
0001d0 11 9e 77 3b b9 ee 8a bc bf 64 07 3c ca ff b6 bc
       0.0037783424 -0.016959535 0.008263766 -0.022338767
0001e0 6a 94 6e 3c bc 32 99 3b b5 ff 1b bd a2 3b 19 3c
       0.014561752 0.0046752375 -0.038085658 0.0093525965
0001f0 c7 ac 2c 3d 0b d5 fb 3c 22 be a7 bc 7a bd a2 bc
       0.04215696 0.030741235 -0.020476405 -0.01986574

act_conv1.weight f4 [4, 128, 1, 1]
000000 ea 29 28 bc 05 74 ad bc ac 2b 5c 3d 6a e8 70 3c
       -0.010263899 -0.021173486 0.053752586 0.014703849
000010 88 7b a1 3a ff 84 64 bd 3c 6e 8e 3b d8 58 eb bc
       0.001232014 -0.055790897 0.004346637 -0.028728887
000020 26 3d 8c bc 86 bd 9c 3d 98 ac d5 3c df b8 35 bd
       -0.017119002 0.07653336 0.026083276 -0.04436576
000030 63 0c 19 bc d0 07 4d 3c fa 3f 5b 3d 13 98 10 3c
       -0.009341332 0.01251407 0.05352781 0.00882532
000040 25 12 6d 3d 0c 5a 8c 3d d6 7e 48 bd cc 15 06 bc
       0.057878632 0.068531126 -0.048949085 -0.008183908
000050 7b 95 97 3d 28 75 53 3d 16 17 0e 3d 7c d0 6f bc
       0.07401558 0.0516254 0.034689985 -0.014637109
000060 b4 83 8d 3c e1 d0 7a bd 82 ec a4 3c 92 af a1 bd
       0.017274715 -0.06123436 0.020132307 -0.078948155
000070 97 e2 86 3c e7 96 9f 3c 3d 7e a5 3d 40 36 e3 bc
       0.016465468 0.019481136 0.08080719 -0.02773583
000080 d8 ae b1 3d 64 c8 8b 3a b0 b5 2d 3d 90 43 31 bd
       0.08675927 0.001066458 0.0424096 -0.043277323
000090 5a 2c 8f bd ab a2 91 3d 2e 57 2f 3d 27 77 69 bd
       -0.06990881 0.071111046 0.04280775 -0.0569984
0000a0 ef 83 7e bb 09 8a 4a 3d 3f 40 06 bc 27 0f 86 bd
       -0.0038835963 0.049448047 -0.008194028 -0.06545859
0000b0 36 82 98 3d 77 c3 1a bd 86 b7 d3 bb 8f 69 9e bc
       0.07446711 -0.037784066 -0.0064610867 -0.019337444
0000c0 28 58 76 3d 6d 97 b3 3a 0e 1e 07 bd 66 b5 26 bd
       0.060142666 0.0013701745 -0.032987647 -0.04070034
0000d0 e5 e5 4b bc f9 d4 19 3c 37 84 ad 3d 18 13 44 3d
       -0.012444948 0.009389156 0.084724836 0.04786977
0000e0 82 5f 7c bc 1a ca 8c 3d db e4 70 bd e0 c8 0b bb
       -0.01540363 0.06874485 -0.058812004 -0.0021329448
0000f0 0b e4 17 3d 77 3c 9a 3b 4e 0a cc bc 1f ed b8 3c
       0.037082713 0.004706915 -0.024907257 0.022574006
000100 9d 80 3d bd 90 81 f4 3b 53 e7 a0 bb 3f d5 44 3d
       -0.046265233 0.007461734 -0.0049103885 0.04805493
000110 f0 6d a5 3c 50 32 3c bd 3e 5e 49 3d 3f 69 ea bc
       0.020194024 -0.04594642 0.049162142 -0.028614638
000120 fd ed c5 3c d3 e7 70 bd 77 ba 14 3c c7 6d 88 bd
       0.024161333 -0.058814835 0.00907766 -0.06661563
000130 72 6a ad bb de ac 89 3c ce c4 a3 bd f9 a9 4a 3d
       -0.0052922303 0.016806062 -0.07996522 0.049478505
000140 e8 84 71 bd 4c 5a bf 3c 1f 54 59 bc 46 81 09 3d
       -0.05896464 0.023358487 -0.013264685 0.03357055
000150 7a 1f 70 3d 8f 82 77 ba 61 aa 55 bc 5f 72 9f 3d
       0.05862377 -0.0009441757 -0.01304111 0.077854864
000160 2d f1 59 bd df 6b 33 3d 7c 36 62 bc 57 cd 51 3d
       -0.05320852 0.043804046 -0.013806935 0.051221218
000170 96 e4 5e bd cd e0 6d bd 28 8b dd bb 4a 29 a4 3d
       -0.054417215 -0.058075715 -0.0067609735 0.08015688
000180 0f 4b dd bc 28 11 64 3d 91 89 7f 3c f5 1f f1 ba
       -0.02701333 0.055680424 0.015596763 -0.0018396365
000190 d5 03 6a bd e2 1b 09 3c b3 37 35 bd 6e d6 10 bd
       -0.05713256 0.008368464 -0.044242572 -0.035360746
0001a0 92 cf 44 bd 2a 94 20 3d 38 f1 b4 3d b9 7d 7b bd
       -0.048049517 0.0392038 0.08835071 -0.061399195
0001b0 67 c9 df 3b 55 2a 86 3c a7 63 22 3d 66 2f 0b 3d
       0.006829429 0.016377607 0.039645817 0.03398075
0001c0 16 55 29 bd 0c 35 3e 3d 0b f1 9a 3c c6 d7 8b 3c
       -0.04134091 0.04643731 0.018913766 0.017070662
0001d0 97 5c 69 3d f4 d2 91 3d 8d cd c6 ba 67 2c 73 3c
       0.056973066 0.07120314 -0.001516746 0.014842129
0001e0 b4 cd 9c 3d 00 b8 26 3d 3e f8 35 bd 60 c6 ec 3c
       0.07656422 0.04070282 -0.044426195 0.028903186
0001f0 ca 80 1f bc 2b 59 81 3c 12 a4 02 3d a0 84 81 ba
       -0.009735296 0.015789589 0.03189475 -0.0009881444
000200 ee 5c 67 3c 68 b5 a7 3d 21 43 98 bd 99 1a 7b 3c
       0.014121277 0.08188897 -0.07434679 0.015326166
000210 fc 28 bc 3d f2 d7 90 3d f7 cc 9c 3c 57 9c b4 3c
       0.09187505 0.07072438 0.019140704 0.022047205
000220 d6 a2 c3 3b 1a 74 3b 3d 65 54 9f 3d 65 d8 f3 3c
       0.0059703393 0.04576502 0.07779769 0.02976627
000230 48 ae ac 3d 43 e9 80 bd 27 db 56 3d 9d 34 8a bd
       0.08431679 -0.06294491 0.052455094 -0.067483164
000240 e5 07 c5 3c d0 0d 5d 3d 59 5d 44 3c 42 83 2c bd
       0.024051616 0.05396825 0.011985146 -0.042117365
000250 84 04 c0 bd db 86 81 3d 66 5e 63 bd 47 fa a9 3c
       -0.09375861 0.0632455 -0.055509947 0.020749224
000260 b3 6c 05 3c 12 0f 99 bd 54 78 4b b9 fa 69 84 bd
       0.008143592 -0.074735776 -0.00019404414 -0.06465526
000270 7e 6a a6 3c 5a ec 46 bc 01 c6 37 3a 98 0e 81 bd
       0.020314451 -0.012141312 0.0007010401 -0.06301612
000280 c9 85 be bc 5e ae aa 3d 0c 1e 41 3d de f8 89 3d
       -0.023257153 0.08334039 0.047147796 0.06736921
000290 14 e3 61 bc 55 66 aa 3c 22 02 29 3d 8a 83 73 bd
       -0.01378705 0.020800749 0.0412618 -0.059451617
0002a0 d6 6e 5e bd cd fa 8f bd 67 37 4a bd 22 59 7a bc
       -0.05430492 -0.07030258 -0.049369242 -0.01528004
0002b0 73 0d 38 3d 92 f9 20 3d 41 46 2c 3d ee 2f 70 3d
       0.0449347 0.03930051 0.042059187 0.05863946
0002c0 e5 9d ff 3c 37 ef 1d bd 19 d2 bc bc 4d a1 9f 3a
       0.03120322 -0.03855821 -0.023049401 0.0012178809
0002d0 7c e6 0b 3d d4 21 c1 3d 67 d9 20 3d 8a ae 95 bc
       0.034155354 0.0943028 0.03926983 -0.018271703
0002e0 9b 5b 7b 3d 87 7c 96 bd 39 93 c4 3b 8f 3b d5 3b
       0.06136666 -0.073479705 0.0059989956 0.006507344
0002f0 ac 22 6a bd 8c fd 96 3d 87 90 83 bd 17 21 2c 3d
       -0.057161972 0.07372579 -0.06424051 0.042023744
000300 2e 32 f4 bc 67 32 b9 bd de 47 38 3d 48 09 ac 3d
       -0.029809084 -0.090428166 0.044990413 0.08400208
000310 fd d8 44 bd 76 2d 8b bc 12 4d 39 3d f6 5c 2e 3b
       -0.0480585 -0.01698945 0.045239516 0.0026605702
000320 e2 d9 78 3d d4 c0 92 bd 73 20 a4 bd 40 e4 40 bd
       0.060754664 -0.07165685 -0.08014002 -0.047092676
000330 f5 c1 bd bc 7b db 54 3d 9c 12 9e 3c 0e 25 29 ba
       -0.023163775 0.051967125 0.019295983 -0.000645236
000340 67 62 55 3c 43 fa cf 3c c7 d9 8e bd 9b 1f a1 3c
       0.013023949 0.025387889 -0.069751315 0.019668391
000350 6f 27 ba 3d 1a c6 c6 3d 9a 29 35 3d 40 36 30 3d
       0.090895526 0.097057536 0.044229127 0.043020487
000360 58 96 6a bd 20 7c 43 3d 55 64 33 3d b4 3a 74 3d
       -0.057272285 0.047725797 0.043796856 0.059626296
000370 78 8b e7 bc fb 1b b3 3c b3 56 3e bd 18 74 1b bd
       -0.028264746 0.021863928 -0.0464694 -0.037952513
000380 c2 87 94 bd 27 0d 1e 3d ef ee 18 3d 14 9b 11 3d
       -0.07252456 0.03858676 0.03733724 0.035548285
000390 57 c0 a8 3d 6c 21 76 3b 59 79 36 bd 78 75 65 bd
       0.08239811 0.0037556542 -0.04454932 -0.05602023
0003a0 a5 56 38 bd 9b 47 83 3d df 4e 8e 3d bf 02 8e bb
       -0.045004506 0.06410142 0.06948637 -0.0043338235
0003b0 51 a0 4c 3d a9 22 37 bd 4c a2 3c bd 02 3b f2 3c
       0.049957577 -0.04471079 -0.046053216 0.029569153
0003c0 eb f2 14 ba 00 f5 61 3d 7e 4b 96 3d 2f 4d b2 bd
       -0.00056819496 0.05516529 0.07338618 -0.08706128
0003d0 7d 59 76 3d f5 ea 74 bd f2 78 70 bd c4 ef 86 bc
       0.060143936 -0.059794385 -0.058709092 -0.016471751
0003e0 68 48 8a bd e9 90 22 bd fe 80 9f bd 50 07 8e bd
       -0.06752092 -0.03968898 -0.07788275 -0.069349885
0003f0 d4 12 3c 3d 57 ab ab 3d 1d bc 30 bd a4 5f 1a ba
       0.045916393 0.0838229 -0.04314815 -0.00058888854

act_conv1.bias f4 [4]
000000 e9 c6 4f bd 5e 09 c1 3c 5c d2 b3 bc a9 32 77 3d
       -0.050726805 0.023564037 -0.021950893 0.060351048

act_fc1.weight f4 [36, 144]
000000 4b 62 7d bc c8 35 f6 bc ae e5 e2 bb 06 e6 bb bc
       -0.015465329 -0.030054942 -0.0069243526 -0.022936832
000010 ac b6 ef bc a0 08 3a 3a 05 c1 bd bc 32 3c 84 bd
       -0.02926191 0.0007096622 -0.023163328 -0.06456794
000020 d0 7f 65 bd 32 1e 65 3d 18 c8 34 bc c1 90 ee bc
       -0.056030095 0.055937 -0.011034034 -0.029121758
000030 94 0a d2 3b b3 eb 9a 3c f4 32 38 bd b6 6e b6 bc
       0.0064099524 0.018911218 -0.044970468 -0.022269588
000040 88 3c 87 3c 9b a4 1d 3d fb 5d 19 3d 0e 56 7e 3d
       0.016508356 0.038487058 0.037443142 0.062093787
000050 63 f1 98 3b db 23 fa bc 53 e7 aa 3c b9 80 81 bd
       0.0046674474 -0.030534675 0.020862257 -0.0632338
000060 0b fc 3d bd 90 81 3c 3b 19 84 69 bc 16 fc c6 3b
       -0.046382945 0.0028763749 -0.014252686 0.0060725315
000070 9c 80 ce 3b 06 b7 4f 3d 5e d2 41 bc 86 87 9c bb
       0.0063019525 0.050711654 -0.011829941 -0.004776898
000080 45 52 73 3b 60 d1 62 bd 1e db 4d 3d 04 94 17 bb
       0.0037127894 -0.055375457 0.050257795 -0.0023128996
000090 46 a5 d8 bc ec 9c a7 3c 06 38 5f bd cd 78 a8 3c
       -0.026445996 0.020460568 -0.054496787 0.020565415
0000a0 fc 47 7f 3d e9 f8 c7 3c b4 0d 84 bd 29 ec 04 bd
       0.06232451 0.024410682 -0.06447926 -0.032451782
0000b0 42 76 67 bd 46 dd 6b bd 4a 9f e9 bc fe fb 35 bd
       -0.056509264 -0.05758407 -0.028518338 -0.04442977
0000c0 94 30 80 bd 86 4b bb bc 7b 5b f7 3b 40 d7 92 3d
       -0.062592655 -0.02286316 0.007548747 0.07169962
0000d0 7c 40 39 bd b6 8f 6c bd ec 36 0c 3d 4b 63 97 3d
       -0.045227513 -0.05775424 0.034232065 0.073919855
0000e0 20 38 5b 3c 68 52 85 3d fa d9 b4 bb bb b6 19 3d
       0.01338008 0.06509858 -0.005519149 0.03752778
0000f0 d2 75 80 3d 60 06 71 3d 8f 0c a9 3d 83 81 d4 bc
       0.062724724 0.05884397 0.082543485 -0.025940662
000100 65 86 33 bc a9 9f 01 bd ff ef 64 3d d4 d3 20 bd
       -0.010957335 -0.031646404 0.05589294 -0.039264515
000110 25 51 19 3d 5c 41 a8 3d 61 8d 76 bd 61 cf 4b 3d
       0.0374309 0.08215591 -0.060193423 0.04975832
000120 5f b3 26 3d 18 f2 0a b9 fe 2b 18 3c c0 e3 c9 37
       0.040698405 -0.00013250893 0.009287832 2.4067122e-05
000130 34 c2 53 bb 4f 9f 64 bd 7d 13 52 3d bc 16 29 bd
       -0.00323118 -0.05581599 0.051288117 -0.041281447
000140 bb 25 31 bd e0 3f ef b9 c8 d8 be 3c 3d fb 25 bd
       -0.043248873 -0.00045633223 0.023296729 -0.040522803
000150 2f bb ca 3b 5d 6b 9a 3c cb e5 6c 3d 3c 73 69 3a
       0.006186865 0.018850023 0.057836335 0.0008905416
000160 a0 bb 85 3b de 3b 93 3b 69 87 87 3c a1 e3 c2 3c
       0.0040812045 0.0044932207 0.01654406 0.023790183
000170 6e a8 5c ba 20 6d 6b bd 54 f4 dd 3c 61 9d 38 ba
       -0.0008417432 -0.057477117 0.027094044 -0.0007042494
000180 b5 d2 02 bc dc b8 42 3d 5e 66 4f bb 48 20 35 bd
       -0.007984807 0.047539577 -0.003164671 -0.04422024
000190 bc f1 f8 3b 9f 26 27 3d 7c 3c dd 3c 43 96 4f bd
       0.0075971764 0.040808316 0.02700638 -0.05068041
0001a0 d7 9b 21 bd 18 a6 37 bd 58 08 b4 bb ac 94 98 bb
       -0.03945526 -0.044836134 -0.0054941587 -0.004656395
0001b0 60 06 91 3d 90 53 95 bc 2e 17 ad 3d 0f b8 5f 3c
       0.07081294 -0.018228322 0.08451687 0.013654723
0001c0 6e 0a d1 3d 56 75 9c 3d 74 70 80 bd 49 57 72 3d
       0.102070674 0.076395676 -0.06271449 0.059165273
0001d0 3d 12 a1 3d 14 eb f9 bc db 54 a5 3d 82 be 1d bd
       0.07864807 -0.030507602 0.080728255 -0.03851176
0001e0 6d 80 dd 3c 15 12 7a bd 6e c5 44 3c 75 e3 b4 3d
       0.027038777 -0.0610524 0.0120099615 0.088324465
0001f0 a5 6e 5d bd ad 80 91 3c 6f e1 7e bd ad 73 f1 3c
       -0.054060597 0.017761553 -0.06222671 0.029474104
000200 5e 92 50 3c 64 77 b7 bc e9 64 13 bd 9f 54 3b 3d
       0.012730209 -0.022395797 -0.035984907 0.045734998
000210 20 39 c1 bc e6 d6 47 bd 3a dc 37 3d bc d3 82 bd
       -0.02358681 -0.048788927 0.04488776 -0.063880414
000220 01 a4 93 3d e6 6a 6e bc eb e9 15 bd 4b 6d 25 3d
       0.07209016 -0.014551854 -0.036600035 0.040387433
000230 1e f2 42 3d 85 83 35 bc cc 06 38 bb 41 0c 67 3d
       0.047594182 -0.01107872 -0.0028080223 0.05640817
000240 c0 9f 10 39 22 0c bd bc ef 64 d8 3c cd e7 1f 3d
       0.00013792422 -0.023077074 0.026415316 0.03903942
000250 1f 66 52 bd 5f fc 1f 3d e5 34 e6 bc 5f 25 6e bb
       -0.05136692 0.03905904 -0.028101394 -0.0036338193
000260 eb ef e6 bc 21 f3 45 3d 80 92 2b 3d fc 44 18 bd
       -0.028190574 0.04832757 0.04188776 -0.037175164
000270 d4 00 9e bc 58 a7 0f bd 27 d8 e8 bc d2 3a 67 bb
       -0.019287504 -0.0350717 -0.028423382 -0.0035282862
000280 14 0f 80 bd be d1 31 bd 80 d9 2e 3c 73 a7 23 3d
       -0.06252876 -0.043412916 0.010671973 0.039954614
000290 8a f4 94 bc 9d b3 2f 3d 3d 5f 3f bc 10 9a 72 bd
       -0.018183012 0.042895902 -0.011680421 -0.059228957
0002a0 65 56 3b bc d1 c8 8f bc fe a4 24 bd d3 62 b8 bc
       -0.011434172 -0.017551811 -0.04019641 -0.02250806
0002b0 89 03 b7 bc f4 36 29 bd fa e4 13 bc ce ef 61 bc
       -0.022340553 -0.041312173 -0.00902676 -0.013790084
0002c0 10 93 92 3c f4 63 a0 bc 80 6c 6f bc 8d c4 98 bb
       0.01789239 -0.019578911 -0.014613271 -0.0046621026
0002d0 06 50 2a 3d fc b5 8c bd 98 8e b8 3c bf 9d c9 bc
       0.041580223 -0.06870648 0.022528931 -0.024611352
0002e0 d7 fb 32 bd 7e 6e b9 3c 3b 51 a4 bd 25 d5 03 bd
       -0.043697204 0.022635695 -0.08023306 -0.032185692
0002f0 30 10 41 bd 5b d7 73 bd dd ba 0e 3d 1b 29 46 3d
       -0.04713458 -0.05953155 0.034846175 0.048379045
000300 ae 60 c0 bd a0 4b ae 3c 4f 6c 40 3d 04 53 c5 bb
       -0.0939344 0.021276295 0.04697829 -0.006021859
000310 d7 c2 61 3d 8e 66 52 bc 80 bf 6f 3d 2e 28 66 3d
       0.055117454 -0.012841834 0.058532238 0.056190662
000320 1d 4a 78 bd 21 93 c9 3c b0 f8 28 3d 18 fa 95 bc
       -0.060617555 0.02460629 0.041252792 -0.01830773
000330 20 16 66 bd fe 19 7a 3c 00 8e ee 3c c4 20 05 bb
       -0.056173444 0.015264986 0.029120445 -0.002031372
000340 49 30 9d bd 2b 21 ba bd 51 94 de bc 96 96 70 3c
       -0.07675225 -0.090883575 -0.027170332 0.01468434
000350 6c 60 60 3c 6f b1 62 bd 50 bd 79 bd 4c c0 19 bd
       0.013694864 -0.055344995 -0.060971558 -0.037536904
000360 a5 d3 b1 3c ad 9b 5a bd 74 90 51 bb b8 4c 18 3d
       0.021707365 -0.05337112 -0.003197697 0.03718254
000370 fd 97 d0 3c f9 28 14 bd eb 1c b0 3c 6a e8 80 3b
       0.025463099 -0.036171887 0.021498164 0.003933956
000380 02 be 06 bd ba 10 6d bd 33 aa 2b 3c a8 81 59 3d
       -0.03289605 -0.05787728 0.01047759 0.053102165
000390 5e b1 40 3d 90 e1 10 bd 26 99 a2 3b 3a 0c 1a 3a
       0.04704415 -0.035371363 0.0049621044 0.00058764557
0003a0 81 f1 5b bc 92 eb 93 bc 2c d5 5d 3d 48 d7 c6 bb
       -0.013424278 -0.018056665 0.054158375 -0.006068144
0003b0 15 9e 0d 3b 22 a6 88 3b e6 9c 60 bd c0 9d 8f 3c
       0.0021609117 0.004170195 -0.05483713 0.017531276
0003c0 bc 56 bd bc e6 5c e7 bc d8 07 6e 39 fd 71 48 bd
       -0.023112647 -0.02824254 0.00022700371 -0.048936833
0003d0 31 81 84 bc 77 61 d6 3c ae 68 5d 3d 8c d2 49 3d
       -0.016174885 0.026169522 0.05405491 0.04927306
0003e0 0a 7b 17 3d e1 ac 31 bd af 3f 83 ba a9 23 d9 3c
       0.036982574 -0.04337776 -0.0010013486 0.026506262
0003f0 11 72 1c 3d 23 f9 c9 3c fe 72 b8 3c 24 4d cb bc
       0.03819472 0.02465493 0.02251577 -0.024817057

act_fc1.bias f4 [36]
000000 d2 eb 08 3d e4 f1 76 bd 1f bf 2e 3d c0 14 f8 3b
       0.03342802 -0.06028928 0.042662736 0.007570833
000010 7e 14 c9 bc e3 53 53 3d 5d f2 c1 bd e1 72 3b 3d
       -0.024545904 0.051593672 -0.09470055 0.045763854
000020 9f 55 80 3d 82 ad 08 bd 59 fb 9e bd a6 9a 00 bd
       0.06266331 -0.033368595 -0.077627845 -0.031397484
000030 71 5c 46 3d ad 64 3d 3d 40 f7 6b 3d 14 d3 4d 3d
       0.048428003 0.04623859 0.057608843 0.050250128
000040 b9 43 8a 3d e2 ba 57 bd 12 34 78 bd c8 b9 22 bd
       0.06751198 -0.05266846 -0.060596533 -0.039727956
000050 79 09 b6 3d ef c9 43 3d 72 99 69 3d ab ff 68 3d
       0.088885255 0.0478 0.057031102 0.05688445
000060 61 8f 38 bd e1 42 c8 3c e3 b2 54 bd 09 e3 14 3d
       -0.04505861 0.024445953 -0.051928412 0.03634933
000070 0c cb 7c bd 79 f2 87 bd b3 ad 39 bd a9 72 a3 bb
       -0.061717078 -0.06638045 -0.045331668 -0.004988034
000080 cd 16 5a 3d cf 6d 5c 3d 58 3c 48 bd ee ec 5e bd
       0.0532444 0.05381566 -0.048885673 -0.054425173

val_conv1.weight f4 [2, 128, 1, 1]
000000 70 1f 8c 3d 86 b9 37 bd c6 98 de bb 94 f4 42 b9
       0.06841934 -0.044854663 -0.0067931144 -0.00018592394
000010 30 bc 2f 3d 77 67 a3 3d a5 66 25 3c 36 9a 86 3d
       0.04290408 0.07978719 0.010095273 0.06572382
000020 b8 9e bd 3d 17 52 8a 3d 7e 63 92 bd a6 f6 96 3d
       0.09258789 0.06753939 -0.07147883 0.07371263
000030 25 72 91 bd 06 d2 5e 3d 6c f6 93 bd 5f 09 3b 3d
       -0.071018495 0.054399513 -0.072247356 0.045663234
000040 ec 37 8d bd 5f e9 04 3d a1 33 99 bc d2 d7 dc 3d
       -0.06895432 0.032449123 -0.018701376 0.10783352
000050 1c a3 ac 3d 4f 49 57 bd 15 39 d3 bc 82 0e 4c 3d
       0.08429548 -0.052560147 -0.025784055 0.049818523
000060 4b 86 65 bd 0e 7a 42 3d 83 81 2a 3d 67 ef 61 3d
       -0.056036275 0.04747968 0.04162742 0.055159952
000070 91 b5 c4 3d 1d c1 08 3d d1 24 44 bd de 5b b1 bd
       0.096049435 0.033387292 -0.047886673 -0.086601004
000080 4b c9 ae 3d 71 44 1e bd 24 be 7b 3d fd fc 4d 3d
       0.08534487 -0.03863949 0.06146063 0.050290097
000090 fd dc 9c bd 92 13 d4 3c 15 17 c5 bd 08 aa b5 bd
       -0.07659338 0.025888238 -0.09623543 -0.088703215
0000a0 0d ae 48 bd ec ae 28 bd 40 0e b6 3d 97 d3 ae 3d
       -0.048994113 -0.041182443 0.08889437 0.08536451
0000b0 68 98 4a 3d 63 f6 1f bd ea 03 c9 bd 3a b3 b1 bd
       0.049461752 -0.039053332 -0.098152 -0.08676763
0000c0 26 73 69 bd ab 25 b9 bd 4c c2 05 3b c3 2f c9 bb
       -0.05699458 -0.09040388 0.002041 -0.006139727
0000d0 3a c5 36 bb 87 c8 65 bd 7c b3 19 3c 49 93 fd 3c
       -0.0027888552 -0.05609944 0.009381171 0.03095402
0000e0 cc 6b cc b9 1a 24 90 bc fd d5 82 bd 57 ee 08 bd
       -0.00038990227 -0.01759534 -0.06388471 -0.033430424
0000f0 9d ac 8d bd 34 0c b6 bd 8f ae bb 3d 16 d7 92 bc
       -0.06917689 -0.08889046 0.09164154 -0.017924827
000100 f1 17 ac bd d8 ad b8 bd 3e c9 cf bc f0 58 2b 3d
       -0.08403004 -0.09017533 -0.025364514 0.041832864
000110 90 27 50 3d a2 68 b6 bd 68 07 97 bd d4 16 41 3d
       0.05081898 -0.08906676 -0.073744595 0.04714091
000120 5d 7c 89 bd 90 f3 5d bd 0f 1c a0 3d 84 40 a7 3d
       -0.067131735 -0.054187357 0.07817852 0.08166602
000130 40 16 b5 bd ad 63 aa bd 80 2e 3e 3c ed 3d f0 bc
       -0.088421345 -0.08319793 0.011607766 -0.029326404
000140 1b 83 9e bd 6d 78 c1 3d 9f 54 81 3c 11 31 83 3d
       -0.0773985 0.094467975 0.01578742 0.06405843
000150 3c b3 87 bd e2 3c 17 bd b5 b4 a3 bc 98 f7 0b 3d
       -0.06625983 -0.036923297 -0.019983629 0.03417167
000160 02 d0 65 bd 1c eb a4 bd 30 63 b3 3d 80 03 7a bd
       -0.056106575 -0.08052656 0.08759153 -0.061038494
000170 d1 da 98 bd b1 c6 b7 3d 91 4e 9c 3d 5e fb a3 bd
       -0.07463611 0.08973444 0.07632173 -0.08006929
000180 94 bb 2e bd fc 1f 42 3d 8b fd 20 3d 72 88 be 3d
       -0.042659357 0.047393784 0.039304297 0.09303369
000190 5a 13 a8 3d c7 79 30 3d ab 41 d0 bd 03 07 4d bd
       0.08206816 0.043084886 -0.10168775 -0.050055515
0001a0 8d b8 51 bd ae b3 82 3d ab 68 d9 3d fd 28 0b 3d
       -0.051201392 0.063819274 0.10615667 0.033974636
0001b0 8b 12 54 bd ae e4 4e 3d f6 e7 c3 3d 41 61 de bc
       -0.051775496 0.050511055 0.095657274 -0.027145984
0001c0 54 18 16 bd 88 3e ef bc 29 15 a1 b9 40 1c 9a bd
       -0.036644295 -0.029204622 -0.00030724079 -0.075249195
0001d0 57 88 a0 bd d5 c5 3b 3d 47 3f 3e bd 93 e5 de bc
       -0.07838505 0.045842964 -0.046447065 -0.027209079
0001e0 5d 66 cc bd 3d a6 35 bd 55 3b 24 bd 67 bb ad bc
       -0.09980462 -0.04434799 -0.040095646 -0.021207524
0001f0 21 9b 8d 3c e5 f7 a4 bc 30 11 f0 bc 3c b4 f6 bc
       0.017285885 -0.020137737 -0.02930507 -0.03011524
000200 0a ca 61 3c f4 47 33 bc 7a 3d b0 bc a1 8f 9f bd
       0.01378108 -0.010942448 -0.02151369 -0.07791067
000210 c7 6d 9a bc c9 95 3d bd 89 9f 7b bd d2 2d eb 3c
       -0.018851174 -0.046285424 -0.06143144 0.028708372
000220 0a 7d 80 3c ca 1b fa bc fd bc 80 3d 6d 32 ab bd
       0.015684623 -0.030530829 0.06286047 -0.08359227
000230 30 1a e2 bc 79 34 0e bd fd 1a 55 3c d9 af cc 3c
       -0.027600378 -0.03471801 0.013006923 0.024986194
000240 2f 48 f0 3b cd e8 cd 3c af 6d 4c 3d a8 2f 4f bd
       0.0073328237 0.025135422 0.04990929 -0.050582558
000250 0f a0 64 bd b9 86 db bc 40 74 3a bd 0b 9d 98 3c
       -0.055816706 -0.02679764 -0.04552102 0.018629571
000260 67 50 a1 bd f9 b3 b0 3b 48 40 c3 3b 54 c8 02 bd
       -0.07876664 0.005392548 0.0059585907 -0.03192933
000270 7e c2 8c 3b 5d 99 39 3d 44 ee 77 bd aa e4 f7 3b
       0.004295646 0.045312274 -0.060529962 0.0075651007
000280 59 00 8e 3d 1a 8f 86 bc 50 c8 7f 3d 34 fb 13 3d
       0.0693366 -0.016425658 0.062446892 0.036128238
000290 8c 34 bd 3c 21 b8 1d 3c 81 14 bf 3c 86 89 df bc
       0.023096345 0.009626419 0.023325207 -0.027287256
0002a0 c8 b2 75 bb 57 d3 f5 3c d2 f7 40 bc ac 86 28 bd
       -0.0037490595 0.030008001 -0.011777835 -0.041144058
0002b0 20 1a 51 3d 64 e1 ad bc 90 eb 6b ba 21 e1 cb 3b
       0.051050305 -0.021225639 -0.000899964 0.006221906
0002c0 d6 1b 87 3d c1 ae 02 bc 7c e2 43 bb b9 cd 6d 3d
       0.06597106 -0.007976235 -0.0029889634 0.05805752
0002d0 e2 92 67 3d f4 f5 73 3d d1 49 af ba 59 87 47 3d
       0.056536563 0.05956073 -0.001337344 0.048713062
0002e0 32 96 a4 3b ef 10 87 bd 68 2b 83 3d a4 20 66 3d
       0.0050227875 -0.06595027 0.064047635 0.056183472
0002f0 9c 08 48 3c 29 44 a8 bd 0b a9 22 3d 93 a6 3a bc
       0.012209084 -0.082161255 0.039711993 -0.011392253
000300 9c f0 00 bd b8 c2 46 3d f0 28 8f 3c f9 85 43 bd
       -0.031479463 0.048525542 0.017475575 -0.04773519
000310 07 a2 4b 3d 31 c9 1e bd 0e d4 df 3c 1d da 9d bd
       0.04971507 -0.03876609 0.027322795 -0.077076174
000320 6a ba 91 bd 03 da 89 3b 72 11 3a 3d 77 d5 35 bd
       -0.07115634 0.004206897 0.045426793 -0.04439303
000330 83 44 0f bc c6 5e 73 bd 9f 18 29 bc ec fb 7c bd
       -0.008744362 -0.059416555 -0.0103208115 -0.06176369
000340 bc e9 34 bc b5 f8 2d bd bc ac 79 3d ec 04 84 3d
       -0.011042055 -0.042473514 0.060955748 0.06446251
000350 59 ec 8d 3c 5a d8 5e 3d be e6 74 bd c2 ed 32 bd
       0.017324613 0.054405548 -0.059790365 -0.043683775
000360 da 8f fd bb 3a 63 44 bc e3 b7 3b bc 45 f8 e1 bb
       -0.0077380957 -0.011986548 -0.011457416 -0.006896051
000370 e2 42 7b bd b6 22 04 bd bf 34 64 3c 1a bb 18 bc
       -0.06134308 -0.032259665 0.013928591 -0.009321952
000380 0c 5a 7c bd a7 72 64 bd 0c 52 dd ba 29 b7 ab bd
       -0.061609313 -0.055773403 -0.0016885414 -0.083845444
000390 11 b7 9c 3c 98 64 00 3c 42 e0 54 3d 25 30 da bc
       0.019130262 0.007836483 0.05197168 -0.026634285
0003a0 30 80 8a bb 74 9a 42 bd c9 39 b4 bc 80 64 f1 bb
       -0.004226707 -0.04751058 -0.02200021 -0.007366717
0003b0 0e aa 75 bd f4 9e 0f 3d 8e d1 e1 bc 77 21 8b 3d
       -0.05997663 0.0350637 -0.027565744 0.06793492
0003c0 02 43 70 3d 55 8d e6 bc a6 d9 16 bd 81 2e b8 bc
       0.058657654 -0.028143564 -0.03682866 -0.022483112
0003d0 8c d7 c1 bc d8 b6 df bc b1 84 c0 bb 48 4b 8d bc
       -0.023662351 -0.027308866 -0.005875193 -0.017247811
0003e0 e3 b9 16 3c 87 60 96 bd 69 43 56 3d d1 fd 81 3d
       0.009199592 -0.0734263 0.05231038 0.0634724
0003f0 58 08 20 bc 60 92 56 bd 09 d2 84 bd 49 4d 8a bc
       -0.009767614 -0.052385688 -0.064853735 -0.016882556

val_conv1.bias f4 [2]
000000 e0 58 71 3d 48 22 89 bd
       0.05892265 -0.06695992
