Connect6/BitBoard/model/6_6_4_current_policy_test_2_games.model (torch, 414702 bytes, 15 tensors)

conv1.weight f4 [32, 4, 3, 3]
0	0xbd1edf40	-0.038787127
1	0x3dea8a32	0.1145214
2	0x3df3c4ae	0.11902748
3	0xbddd27f6	-0.107986376
4	0xbe00a3f7	-0.12562548
5	0x3c339b30	0.010962293
6	0x3dd3374a	0.1031328
7	0xbdcb2456	-0.0991904
8	0x3ca5cd40	0.020239472
9	0x3da0f5de	0.078593954
10	0xbce73a88	-0.028226152
11	0xbd90e69e	-0.07075237
12	0xbd74f150	-0.059800446
13	0xbd8859eb	-0.066577755
14	0x3d8bbf12	0.06823553
15	0x3dcc20fe	0.0996723
16	0xbdd0627b	-0.10175034
17	0xbdf8e303	-0.12152674
18	0xbe0c851a	-0.13722649
19	0xbc0fc450	-0.008774832
20	0xbcf49158	-0.029854462
21	0xb9e79600	-0.00044171512
22	0xbe046c44	-0.12931925
23	0xbd9d732e	-0.076879844
24	0x3dc067d6	0.09394805
25	0xbe079aaf	-0.13242601
26	0x3c297790	0.010343447
27	0x3e144a21	0.14481403
28	0x3da65f9a	0.08123703
29	0x3d3e4b44	0.046458498
30	0xbd978a43	-0.07399418
31	0xbd177624	-0.036977902
32	0xbe277aec	-0.16355485
33	0x3e1fac41	0.15593053
34	0xbdc669d6	-0.09688155
35	0xbe1c55a2	-0.15267041
36	0xbe1ef432	-0.1552284
37	0xbdafa0b8	-0.085755765
38	0x3de1dcca	0.1102844
39	0x3da0a4a6	0.07843904
40	0x3e10efd7	0.14153992
41	0xbdb4d953	-0.08830514
42	0x3e00be2d	0.12572546
43	0x3e087f05	0.13329704
44	0xbe1e60c7	-0.15466605
45	0x3dd8122e	0.105503425
46	0x3dbe8e4e	0.09304486
47	0x3de0c1c2	0.10974456
48	0x3bc2dd80	0.005946815
49	0x3d258c80	0.040417194
50	0x3df7d84e	0.12101804
51	0x3c3b4110	0.011429086
52	0x3e1ae79d	0.15127416
53	0x3d9266f8	0.07148546
54	0x3d901772	0.07035722
55	0x3dc836fa	0.09776111
56	0xbe03a1e6	-0.12854728
57	0x3c8e2ac0	0.01735437
58	0x3e15620d	0.14588185
59	0x3df1275e	0.11775087
60	0x3ce2bf88	0.02767922
61	0x3d1a48ec	0.0376672
62	0x3d581e14	0.05276306
63	0x3cf320a8	0.029678658
64	0xbdb5732b	-0.08859857
65	0x3c3bae30	0.011455104
66	0xbdc13200	-0.09433365
67	0xbdd4a180	-0.10382366
68	0xbd3a5cac	-0.045498535
69	0x3c037fc0	0.008026063
70	0xbe1e736c	-0.15473717
71	0xbcdb3628	-0.026759222
72	0xbce6e108	-0.028183475
73	0x3cb4bcc8	0.022062674
74	0x3c9f7760	0.019466102
75	0xbca5faa0	-0.020261109
76	0x3d9a7af8	0.07542986
77	0xbd9cbae0	-0.07652831
78	0x3ca3c9b8	0.019993648
79	0xbdecd006	-0.11563115
80	0x3e225825	0.15853937
81	0x3cb29048	0.021797314
82	0x3dfe7376	0.12424366
83	0x3e1423a5	0.14466722
84	0x3e1f0b51	0.1553166
85	0xbdc2b898	-0.09507865
86	0xbe0cb458	-0.1374067
87	0x3d99da72	0.07512368
88	0x3db5c71a	0.08875866
89	0x3b083100	0.002078116
90	0x3df7ae52	0.12093796
91	0xbd3f28d0	-0.04666978
92	0xbe215cde	-0.15758082
93	0x3d51adb0	0.051191032
94	0x3e26e24f	0.16297267
95	0x3d1f88cc	0.03894882
96	0xbdfe9380	-0.12430477
97	0xbdce0530	-0.10059583
98	0xbddbecd3	-0.1073853
99	0x3d53787c	0.051628575
100	0x3e27f775	0.16402991
101	0xbe173170	-0.14764953
102	0x3d169a10	0.03676802
103	0xbdd5a61e	-0.10432075
104	0xbde8d556	-0.113688156
105	0xbe1ddaa0	-0.1541543
106	0xbe18c03a	-0.14917079
107	0xbd869953	-0.06572213
108	0x3d3d8d8c	0.046277568
109	0xbcf554e0	-0.029947698
110	0xbce58480	-0.028017282
111	0xbdd98116	-0.10620324
112	0x3e096f91	0.13421465
113	0x3dcd78ea	0.10032828
114	0xbd946bb3	-0.072471045
115	0xbdcc7126	-0.09982519
116	0x3db7b9ee	0.0897101
117	0x3e1cc5bd	0.15309806
118	0x3e06e691	0.13173892
119	0x3d513830	0.051078975
120	0x3d18920c	0.037248656
121	0x3dd5aeea	0.10433753
122	0xbd26c3f4	-0.04071422
123	0xbdc52b9b	-0.09627458
124	0xbdeea64e	-0.11652814
125	0xbe0fca87	-0.14042102
126	0xbdc42856	-0.09578006
127	0xbd03d71c	-0.032187566
128	0x3d8ee08a	0.06976421
129	0xbddfde76	-0.10931103
130	0x3ce224e0	0.027605474
131	0x3db2c8b6	0.08729689
132	0x3d933a48	0.07188851
133	0x3e1fb425	0.15596063
134	0xbe04a293	-0.12952642
135	0x3e1e4169	0.1545464
136	0xbe100920	-0.14065981
137	0x3d7a4d1c	0.061108693
138	0xbca24d58	-0.019812271
139	0x3b01f8c0	0.0019832104
140	0x3e293dbf	0.1652746
141	0xbd7f7780	-0.062369823
142	0xbdcf7630	-0.10129964
143	0x3ce6bce8	0.02816625
144	0xbd83a3d3	-0.06427731
145	0xbc2c1b50	-0.010504559
146	0xbd7e3b0c	-0.06206803
147	0x3e174cf1	0.14775445
148	0xbe275e7c	-0.16344637
149	0xbd5dc0ec	-0.054139063
150	0x3d4742c4	0.048647657
151	0x3deb6f2a	0.11495812
152	0x3daf2eca	0.08553846
153	0x3ccfec88	0.025381342
154	0xbd647eec	-0.055785105
155	0x3d514b20	0.051097035
156	0x3d3029e0	0.043008685
157	0xbe026ad4	-0.12736064
158	0x3e10400f	0.14086936
159	0x3ce5bea0	0.028044999
160	0xbd1a4f14	-0.03767307
161	0xbcebfa68	-0.028805926
162	0x3dba55fa	0.0909843
163	0xbd5538e6	-0.052056216
164	0x3e03efa5	0.12884386
165	0x3a810480	0.000984326
166	0x3c86aaf8	0.016438946
167	0xbdfe2408	-0.12409216
168	0xbd87fd10	-0.06640065
169	0xbda8fa8b	-0.08250912
170	0x3cb40b18	0.021977946
171	0x3e163843	0.146699
172	0x3dcf54ba	0.10123582
173	0x3c481700	0.012212515
174	0xbc5a4330	-0.013321683
175	0xbd627dec	-0.05529587
176	0x3d9562a0	0.07294202
177	0xbe0caeb7	-0.13738523
178	0xbb06d100	-0.002057135
179	0xbbd5b380	-0.006521642
180	0xbe212383	-0.15736203
181	0x3d8072c2	0.06271888
182	0x3c788130	0.015167519
183	0xbce30d38	-0.027716264
184	0xbe1a506f	-0.15069745
185	0xbdc37d50	-0.09545386
186	0xbe27b094	-0.16375953
187	0xbe029f8e	-0.12756178
188	0xbd18b504	-0.037282005
189	0x3ca958a0	0.020672143
190	0x3c10ad90	0.008830443
191	0xbe0ac5a0	-0.1355195
192	0xbc1e2ef0	-0.009654745
193	0x3a367b00	0.00069610775
194	0xbdc75b66	-0.0973423
195	0xbde8fe46	-0.11376624
196	0xbcba96a8	-0.022776917
197	0x3d40db94	0.047084406
198	0x3cb67240	0.022271276
199	0x3e0d8db5	0.13823588
200	0xbc311100	-0.010807276
201	0xbe184d97	-0.14873348
202	0xbd8a0578	-0.06739324
203	0x3d9b2668	0.07575685
204	0xbd03e67c	-0.03220223
205	0xbd7aaa3c	-0.061197504
206	0xbe1dfe50	-0.15429044
207	0x3e16eb57	0.14738213
208	0xbe27d024	-0.16387993
209	0x3d13a1a0	0.03604281
210	0xbdc90e33	-0.098171614
211	0x3c48a1d0	0.01224561
212	0xbd507bc0	-0.050899267
213	0x3d2fbcd4	0.04290469
214	0x3d425e34	0.04745312
215	0x3defbf42	0.117064014
216	0x3d434084	0.04766895
217	0xbe11c374	-0.14234716
218	0xbc225980	-0.009909034
219	0x3d8d2bfa	0.068931535
220	0x3db6cfca	0.08926351
221	0xbdce4ae0	-0.10072875
222	0xbd14eab0	-0.036356628
223	0xbe1bfbc4	-0.1523276
224	0x3c031400	0.008000374
225	0xbdd602a8	-0.104497254
226	0xbb0cba40	-0.0021473318
227	0x3da0d878	0.07853788
228	0x3cbc2ca8	0.022970513
229	0xbdd0ff78	-0.10204977
230	0xbdf056b0	-0.11735284
231	0xbe29f87e	-0.16598698
232	0x3c13e250	0.009026125
233	0xbdf56018	-0.11981219
234	0x3d2a1f50	0.04153377
235	0x3dc748aa	0.097306564
236	0x3cdb19a8	0.026745632
237	0x3c5996d0	0.013280585
238	0x3d28a174	0.0411696
239	0x3d0211ec	0.031755373
240	0xbd86ecc3	-0.065881275
241	0xbd6f07c0	-0.058357
242	0xbdcda7e6	-0.1004179
243	0xbddce2e3	-0.10785463
244	0xbd7536ac	-0.059866592
245	0x3e0f142d	0.1397254
246	0x3cb40628	0.021975592
247	0xbe1a9eea	-0.15099683
248	0x3e2a94e1	0.16658355
249	0xbda0dcb0	-0.07854593
250	0xbc8024a0	-0.015642464
251	0x3df52982	0.119708076
252	0xbe077954	-0.13229877
253	0x3dcf99d2	0.10136761
254	0x3e06e18d	0.13171978
255	0x3bc50100	0.006012082

conv1.bias f4 [32]
0	0xbd5a6e06	-0.053327583
1	0x3d7b9e14	0.061430052
2	0xbd5e4280	-0.054262638
3	0x3e183f1d	0.14867826
4	0x3d753290	0.059862673
5	0xbddaebae	-0.106894836
6	0x3d62049c	0.055180177
7	0x3d5e55b4	0.05428095
8	0xbdf8c040	-0.12146044
9	0x3cd83588	0.026392713
10	0x3d0f1490	0.03493172
11	0xbcd579b8	-0.026059017
12	0xbdf2e786	-0.11860566
13	0xbe08ea4f	-0.13370632
14	0xbd6b61b0	-0.05746621
15	0xbd905930	-0.07048261
16	0xbdbe6b88	-0.09297854
17	0xbdf85928	-0.1212638
18	0xbcd17fb8	-0.025573596
19	0x3e012dd9	0.12615146
20	0x3ce2a528	0.027666643
21	0xbb009b40	-0.0019623786
22	0x3d9bf0f0	0.076143146
23	0xbdb4e7b0	-0.088332534
24	0xbcd30200	-0.02575779
25	0x3ddebc7a	0.10875793
26	0xbb7e4640	-0.0038799196
27	0x3d649e54	0.055815056
28	0xbda579e6	-0.08079891
29	0x3d2bc3dc	0.041934833
30	0xbd3f1f0c	-0.046660468
31	0xbd593480	-0.053028584

conv2.weight f4 [64, 32, 3, 3]
0	0xbd2899a4	-0.041162148
1	0x3cad0d12	0.021124396
2	0x3c9c21aa	0.019059021
3	0xbd2ed539	-0.042683814
4	0xbd6e1183	-0.05812217
5	0xbd15e628	-0.036596447
6	0xbd1c7dea	-0.03820602
7	0x3cb851ba	0.022499908
8	0xbd4543a7	-0.04816022
9	0xbd64b595	-0.055837233
10	0xbb996a40	-0.0046818554
11	0xbc00c1f0	-0.007858738
12	0x3cc974f2	0.024591897
13	0x3c1f6dac	0.009730738
14	0xbcf5b1c4	-0.029991992
15	0xbd4acad6	-0.049509846
16	0xbd5861d7	-0.052827682
17	0x3b4801d0	0.0030518658
18	0xbd0c1cf7	-0.03420731
19	0xbd628d73	-0.055310678
20	0xbd713b90	-0.058894694
21	0xbd06f95e	-0.03295266
22	0x3cf70c5e	0.030157264
23	0xbca2dbdc	-0.019880228
24	0xbc9d6a7c	-0.019215815
25	0xbc4598cc	-0.012060355
26	0xbd585937	-0.052819457
27	0xbd1e1656	-0.03859552
28	0xbcc20e68	-0.02368851
29	0x3d17c08f	0.037048873
30	0x3d3b9339	0.0457947
31	0x3b8ff1c8	0.0043928362
32	0xbcac5268	-0.021035388
33	0xbd172621	-0.036901597
34	0x3d2b50ad	0.041824985
35	0xbcbb34a6	-0.022852253
36	0x3d664ce7	0.056225684
37	0xbcf3d7ae	-0.02976593
38	0xbd1a1fe0	-0.037628055
39	0x3ce53daa	0.027983505
40	0xbb881e38	-0.004153993
41	0x3d569b79	0.052394364
42	0x3d42af85	0.04753067
43	0x3c64b79c	0.0139597915
44	0xba9d0700	-0.0011980236
45	0xbd5b6ebc	-0.0535724
46	0x3d0792a9	0.03309885
47	0xbcd1be2c	-0.025603376
48	0xbd6434b5	-0.055714328
49	0x3c1f64e4	0.009728644
50	0x3cbe660a	0.023242015
51	0xbc09c968	-0.008409835
52	0xbcffb3a5	-0.03121359
53	0xbc93993a	-0.0180174
54	0xbccada38	-0.024762258
55	0xbc2292c0	-0.009922683
56	0xbd6cfa5c	-0.05785595
57	0x3d47e153	0.04879887
58	0xbd0d9de7	-0.034574416
59	0x3d2d6763	0.042334925
60	0x3ceea792	0.029132638
61	0xbc0fc17c	-0.008774158
62	0xbd075637	-0.033041205
63	0xbd1df604	-0.038564697
64	0x3cc86422	0.02446181
65	0xbcb019ae	-0.02149662
66	0xbd165ad8	-0.03670773
67	0x3d05cb3d	0.032664526
68	0x3cf1542a	0.029459078
69	0xbc93a8e6	-0.018024873
70	0xbc3332f0	-0.010937437
71	0xbc93a21e	-0.01802164
72	0x3d4b9c3b	0.04970954
73	0x3d2835ed	0.041067053
74	0x3d45a78d	0.048255492
75	0xbd2b6db8	-0.041852683
76	0xbcb624ba	-0.02223431
77	0xbd172683	-0.036901962
78	0xbd4714bc	-0.04860376
79	0xbcb4ef96	-0.0220869
80	0x3d5d984d	0.054100323
81	0x3d465ba7	0.04842725
82	0x3d4c3589	0.049855743
83	0x3cbb460a	0.022860546
84	0x3d235f37	0.039885726
85	0xbccb26f0	-0.02479884
86	0xbc754cb0	-0.014971897
87	0x3d04296b	0.03226606
88	0xbc5dec60	-0.013545126
89	0xbd7152ad	-0.058916736
90	0xbd3f8468	-0.04675713
91	0x3ca572c6	0.02019633
92	0x3b273fb0	0.0025520138
93	0xbc919e9c	-0.017775826
94	0xbbe33ae8	-0.0069345124
95	0xbc958d1a	-0.018255759
96	0x3ca2b496	0.0198615
97	0x3cde6826	0.027149271
98	0x3cb1c896	0.021702092
99	0xbd367c67	-0.044552233
100	0x3c923d62	0.017851535
101	0xbd412776	-0.047156774
102	0xbb4ada10	-0.003095273
103	0xbc837dca	-0.016051192
104	0x3c0228d4	0.0079443045
105	0xbcf6f36a	-0.030145366
106	0xbd4d9ed9	-0.050200317
107	0x3c9a468a	0.018832464
108	0x3d0e0e61	0.03468168
109	0xbcb752c4	-0.022378333
110	0x3d5513b1	0.052020732
111	0xbcefb753	-0.02926222
112	0xbc169f10	-0.009193197
113	0xbd0eb4c8	-0.034840375
114	0x3ca9ec62	0.020742599
115	0x3c9bae06	0.01900388
116	0xbcca974a	-0.024730343
117	0x3d0483ed	0.032352377
118	0xb92ba500	-0.00016369298
119	0x3ce3b652	0.027796898
120	0xbcce1bce	-0.025159743
121	0xbd4d9619	-0.050191972
122	0x3d3f8c9f	0.046764966
123	0x3cbd6192	0.023117814
124	0x3d493291	0.04912049
125	0xbd0db9c6	-0.034600995
126	0xbc1d6c2c	-0.00960831
127	0x3cf6f5ba	0.030146468
128	0x3d54c933	0.05194969
129	0x3d3a7c9b	0.04552899
130	0x3d335681	0.04378367
131	0xbd6fe8c9	-0.05857161
132	0xbd2b1236	-0.041765414
133	0xbcf76244	-0.030198224
134	0xbd17b1f7	-0.037034955
135	0xbcaf2ca0	-0.021383584
136	0x3d282823	0.041053902
137	0x3ceb3a6a	0.028714377
138	0x3d2781bf	0.04089522
139	0x3d056c0d	0.03257375
140	0x3d64ab07	0.055827167
141	0xbd0c5eea	-0.034270205
142	0xbd15d5d2	-0.036580868
143	0xbd2490dd	-0.040177215
144	0x3cd8c9fa	0.026463497
145	0x3cac39d2	0.021023665
146	0x3d4ad713	0.049521517
147	0x3bb22868	0.0054369457
148	0x3c4b6484	0.0124141015
149	0x3c3922cc	0.0112998
150	0x3aaffec0	0.0013427362
151	0xbd679e23	-0.056547295
152	0x3d61a2eb	0.05508701
153	0xbc921b22	-0.017835204
154	0x3d3b6963	0.0457548
155	0x3d66ff2d	0.0563957
156	0xbcebca06	-0.028782856
157	0xbbedd198	-0.0072576515
158	0x3d7153c1	0.058917765
159	0x3d45b79f	0.048270818
160	0x3d1417f5	0.03615566
161	0x3ccbd33a	0.024880994
162	0xbd419dd0	-0.047269642
163	0x3c7c7cec	0.015410643
164	0xbcc65290	-0.02420929
165	0x3cada566	0.021197032
166	0x3d4b95d5	0.049703438
167	0xbd17e72d	-0.0370857
168	0x3cf5e55e	0.030016597
169	0x3cbdbc3e	0.02316105
170	0xbcc39bcc	-0.023878
171	0xbce8cb89	-0.028417366
172	0x3d57e711	0.052710596
173	0xbcaaa316	-0.020829719
174	0x3cb2a54a	0.021807332
175	0xbca7e00c	-0.020492576
176	0x3d4b6c65	0.04966392
177	0x3b0c1c40	0.0021379143
178	0xbc9defce	-0.019279387
179	0xbc4ea010	-0.012611404
180	0x3cd49d36	0.02595387
181	0x3c726b3c	0.0147960745
182	0xbd6144b4	-0.05499716
183	0xbd2d2e5c	-0.04228054
184	0xbc484884	-0.01222432
185	0xbd326066	-0.043548964
186	0xbce63760	-0.028102577
187	0xbbc29c48	-0.0059390403
188	0xbd3d7e2f	-0.046262916
189	0x3ceeb57e	0.029139277
190	0xbc8395a8	-0.016062573
191	0xbd15f85f	-0.03661382
192	0x3d0c93ef	0.034320768
193	0x3b76b5d0	0.003764499
194	0x3c1863c4	0.00930113
195	0x3ba7a9d8	0.0051166825
196	0x3c17b26c	0.009258848
197	0xbc8ee6e8	-0.017444089
198	0x3cad15fa	0.021128643
199	0x3d538131	0.05163688
200	0xbcf26ecb	-0.029593846
201	0x3d2084a7	0.039189007
202	0x3b2e5050	0.0026598163
203	0x3cf868e2	0.03032345
204	0xbc22882c	-0.009920161
205	0xbd223222	-0.03959859
206	0xbc2590c0	-0.010105312
207	0xbb2dce00	-0.002652049
208	0x3cd61f06	0.02613784
209	0x3d69539b	0.056964498
210	0xbcaac9ee	-0.02084824
211	0x3d584f39	0.052809928
212	0xb9030200	-0.00012493879
213	0x3ce2cfae	0.02768692
214	0x3896de00	7.193908e-05
215	0x38e74400	0.00011027604
216	0xba841560	-0.0010077171
217	0xbc28575c	-0.010274734
218	0xbc2cc0c0	-0.010544002
219	0xbd3f0ee8	-0.046645075
220	0x3cf22da6	0.029562782
221	0x3d1fa0d7	0.03897175
222	0xbcaf23ea	-0.02137943
223	0xbd65f859	-0.056145046
224	0x3ccb783e	0.02483761
225	0x3b443c10	0.0029943027
226	0xbcd1f780	-0.025630713
227	0x3d5b5ae7	0.053553488
228	0x3c830986	0.015995752
229	0xbd32c315	-0.043643076
230	0x3c286f9c	0.010280516
231	0xbba975a8	-0.0051714964
232	0x3d3fd9e7	0.046838667
233	0x3cd1c982	0.025608782
234	0xbd237289	-0.03990415
235	0xbb954368	-0.0045551546
236	0x3b892088	0.004184786
237	0x3d59353d	0.053029288
238	0x3bd41a08	0.0064728297
239	0xbd0b6d27	-0.034039643
240	0x3d0e6115	0.034760553
241	0x3c561b54	0.013068039
242	0x3cea6f06	0.028617393
243	0x3d389f8b	0.045074027
244	0x3d5cdddb	0.053922515
245	0x3c10e7f4	0.008844364
246	0x3d255007	0.040359523
247	0xbc6bb1a0	-0.014385611
248	0xbcea780a	-0.028621692
249	0xbd2e6df6	-0.042585336
250	0x3ca70206	0.020386707
251	0x3cffa85a	0.031208206
252	0xbccfbc8e	-0.025358465
253	0xbca1fede	-0.01977485
254	0x3d174f35	0.036940772
255	0xbc50c314	-0.012741823

conv2.bias f4 [64]
0	0xbba40468	-0.005005408
1	0xbd2bec00	-0.041973114
2	0x3cd56aee	0.026051965
3	0x3cba5982	0.022747759
4	0xbca5bdf2	-0.020232175
5	0xbcaac11e	-0.020844039
6	0xbcdc7486	-0.026911031
7	0x3d0781cd	0.033082772
8	0x3c29cf2c	0.010364335
9	0x3d4c39fb	0.049859982
10	0x3bc89b08	0.006121997
11	0xbcf5ca13	-0.030003583
12	0xbd0f07a6	-0.034919403
13	0xbc7547e0	-0.01497075
14	0x3d5b3405	0.053516407
15	0xbd601203	-0.054704677
16	0xbd313625	-0.043264527
17	0xbd4ab62a	-0.04949013
18	0xbc89da0c	-0.016827606
19	0xbd3ce85e	-0.04612004
20	0x3b7448f0	0.003727492
21	0x3d642a4f	0.05570441
22	0x3d0a1b85	0.03371765
23	0x3c485344	0.012226883
24	0xb9b4ee80	-0.00034509972
25	0x3d033e4d	0.032041837
26	0xbd09763b	-0.03356002
27	0xbc9a11d0	-0.018807322
28	0xbb295880	-0.0025840104
29	0x3cdfede6	0.027335119
30	0x3d0b03cb	0.033939164
31	0x3cb46bce	0.022024062
32	0xbd01f9fc	-0.031732544
33	0x3cd5cc4e	0.026098397
34	0xbc7d6810	-0.015466705
35	0xbd17fdae	-0.037107162
36	0x3b3ad380	0.0028507411
37	0x3c6541b4	0.013992716
38	0xbc5a4cd4	-0.013323981
39	0x3d3de84d	0.046364117
40	0xbb1d7db0	-0.0024031214
41	0xbd28748b	-0.04112677
42	0x3bc5e728	0.006039519
43	0xbd6a509d	-0.057205785
44	0x3d240e25	0.04005255
45	0x3cfae47a	0.030626524
46	0xbd111ce6	-0.03542795
47	0x3c5253dc	0.012837376
48	0xbc638954	-0.013887722
49	0x3d09e391	0.03366429
50	0x3cb5bc22	0.022184435
51	0x3d36d0b5	0.044632632
52	0xbbdb03b0	-0.006683789
53	0xbbbc8df0	-0.005754225
54	0x3d071f85	0.032989044
55	0x3d411fa1	0.047149304
56	0x3d15089d	0.036385167
57	0xbd1d8932	-0.038460918
58	0x3d325481	0.04353762
59	0x3cf8f9aa	0.030392487
60	0x3d185059	0.037186
61	0x3c8b98f6	0.01704071
62	0x3c8f0746	0.017459523
63	0xbd5f25ab	-0.054479282

conv3.weight f4 [128, 64, 3, 3]
0	0x3c982db6	0.018576484
1	0xbbcade68	-0.0061910637
2	0x3d27411f	0.04083359
3	0xbc33e5cc	-0.010980081
4	0x3cce8e62	0.025214378
5	0xbcd160d3	-0.025558865
6	0x3d26d595	0.04073103
7	0x3ce68592	0.028139863
8	0x3cc641e2	0.024201337
9	0xbd0e6a14	-0.034769133
10	0x3ced8882	0.028995756
11	0xbd1cd744	-0.03829123
12	0xbc328f9c	-0.010898497
13	0xbbc2e2f8	-0.005947467
14	0x3cad27da	0.021137167
15	0xbca588b6	-0.02020679
16	0xbc8a3090	-0.01686886
17	0xbd021ed7	-0.031767692
18	0xbc800253	-0.015626108
19	0xbcf6dd0e	-0.030134704
20	0xbcba55e8	-0.022746041
21	0x3d127b4d	0.03576212
22	0xbae91d00	-0.0017785132
23	0xbd22f4ae	-0.039784126
24	0x3c62bad4	0.013838489
25	0x3c9431e6	0.0180902
26	0xbb71f580	-0.003692001
27	0xbce210db	-0.027595928
28	0x3c9b764e	0.01897731
29	0xbcb83058	-0.02248399
30	0x3c0a1cdc	0.008429732
31	0x3d168469	0.03674737
32	0x3cb7552e	0.022379484
33	0xbc6ccee6	-0.014453625
34	0x3c9ceca8	0.019155815
35	0x3c2d6e1c	0.010585334
36	0x39851280	0.0002538152
37	0x3c61d18c	0.01378287
38	0x3d0345c1	0.032048944
39	0x3ab5c6e0	0.0013868473
40	0xbc987b98	-0.018613622
41	0xbd1c2e76	-0.038130246
42	0xbcf8f70e	-0.030391242
43	0xbbbab558	-0.0056978874
44	0x3c095fcc	0.008384656
45	0xbb8b2a00	-0.00424695
46	0xbd106278	-0.035250157
47	0xbb954468	-0.004555274
48	0x3c7d3bf0	0.015456185
49	0x3caa97d0	0.020824343
50	0xbb4b02d0	-0.0030977018
51	0x3c78bd4c	0.015181851
52	0xbc81867e	-0.015811201
53	0x3cd31596	0.025767129
54	0x3d178613	0.036993098
55	0x3d209781	0.039206985
56	0x3a4b1ac0	0.00077478215
57	0xbcd26c73	-0.025686478
58	0xbcac7448	-0.021051541
59	0xbc19f850	-0.009397581
60	0x3c14f28c	0.009091031
61	0x3d1b9f6f	0.037993845
62	0x3c49707c	0.012294885
63	0x3cea07fa	0.028568257
64	0x3cf8f2e2	0.030389253
65	0xbc0277bc	-0.007963117
66	0xbcce820b	-0.025208494
67	0xbb9bfc40	-0.004760295
68	0xbcf9e323	-0.030503815
69	0xbce7f9de	-0.028317388
70	0x3cd3fc9a	0.025877286
71	0x3cc22942	0.023701314
72	0x3d166611	0.03671843
73	0xbd0ab6dc	-0.033865795
74	0x3d1abd89	0.03777841
75	0x3c9baaa2	0.019002263
76	0x3d191871	0.037376825
77	0x3d013d75	0.03155275
78	0x3c8b4e02	0.01700497
79	0x3c95e4f6	0.018297654
80	0xbb920e78	-0.004457291
81	0x3cac53be	0.021036025
82	0x3c734e6c	0.01485024
83	0x39834a00	0.000250414
84	0x3c8bc4ce	0.017061617
85	0xbbb58d20	-0.005540505
86	0x3cc2e022	0.023788515
87	0x3c1d5834	0.009603549
88	0x3d0b5cc1	0.034024004
89	0xbd29c7b3	-0.041450214
90	0xbc356cb0	-0.011073276
91	0x3bd143d8	0.0063862614
92	0x3ca37422	0.019952837
93	0xbbf75920	-0.0075484663
94	0x3a5c3900	0.00084008276
95	0xbd2082ca	-0.03918723
96	0x3cbece12	0.023291621
97	0xbd0dedfb	-0.034650784
98	0xbcfd54a8	-0.030924156
99	0x3c107afc	0.008818384
100	0xbcdcf3ab	-0.026971659
101	0x3c2d6090	0.010582104
102	0x3d0289b5	0.03186961
103	0xbcb35b88	-0.021894231
104	0x3b9d4458	0.004799407
105	0x3c2b6de0	0.010463208
106	0xbcd3e06b	-0.025863847
107	0x3c625004	0.0138130225
108	0x3d041cdd	0.03225409
109	0x3d036101	0.032074932
110	0xbaeafe60	-0.0017928593
111	0x3cdb03f2	0.02673528
112	0x3ca0398a	0.019558687
113	0x3cb33ede	0.021880563
114	0x3bc1b348	0.0059112646
115	0x3cb0e11e	0.02159172
116	0x3cea5882	0.028606657
117	0x3c43e9f4	0.011957634
118	0xbca0b898	-0.019619271
119	0x3cfd57c2	0.030925635
120	0x3cf0636a	0.02934428
121	0x3cff6bea	0.031179387
122	0x3d165d8f	0.03671032
123	0xbcf1f91b	-0.029537728
124	0x3b537750	0.003226716
125	0x3c851c00	0.016248703
126	0xbd25c3c8	-0.040469915
127	0xbc8fc5b6	-0.01755033
128	0xba23e900	-0.0006252676
129	0x3cfd7a9e	0.030942257
130	0x3c681944	0.01416618
131	0x3d22ad7d	0.039716233
132	0x3cc72312	0.024308715
133	0xbd26a8ca	-0.040688314
134	0x3d159def	0.03652757
135	0xbc7173a6	-0.014737045
136	0xbc91a628	-0.017779425
137	0x3cf776d2	0.030208025
138	0x3d00b229	0.031419907
139	0x3b3a55b0	0.0028432421
140	0xbc550440	-0.013001502
141	0xbcd9fb48	-0.026609078
142	0x3d1b975f	0.037986156
143	0xbd044e6b	-0.032301348
144	0x3cf77ace	0.030209925
145	0x3c96f50e	0.018427398
146	0xbd18e9cf	-0.037332352
147	0xbcc201bb	-0.023682466
148	0xbc49c676	-0.012315383
149	0x3cfb4fa2	0.03067762
150	0xbc00b784	-0.007856254
151	0x3cc5ce76	0.0241463
152	0xbce37a4e	-0.02776828
153	0x3c50eebc	0.012752231
154	0xbc3c90a6	-0.011509096
155	0xbd07b6fa	-0.033133484
156	0xbc8942fe	-0.016755577
157	0x3d00021f	0.031252023
158	0x3b9ef080	0.004850447
159	0xbcf755f3	-0.030192351
160	0x3c053d64	0.008132312
161	0x3cdff90a	0.02734043
162	0x3cadb1ae	0.021202888
163	0x3ce8049e	0.028322514
164	0xbb8b70e0	-0.004255399
165	0x3d0b2427	0.033970024
166	0x3cbe7e52	0.023253594
167	0x3cca4192	0.02468947
168	0x3d278225	0.0408956
169	0xbcb1271e	-0.021625098
170	0x3d17fcf7	0.03710648
171	0x39c1d380	0.00036969408
172	0x3cd95a3e	0.026532289
173	0x3ce5b312	0.028039489
174	0x3bc8a828	0.0061235614
175	0xbd0f3aba	-0.034968115
176	0x3c5a398c	0.013319384
177	0x3c563980	0.0130752325
178	0x3b9c9c80	0.0047793984
179	0xbd1b67ef	-0.037940916
180	0x3d139f47	0.03604057
181	0x3c92cc68	0.017919734
182	0x3ced2712	0.028949294
183	0xbc293394	-0.010327239
184	0x3b1bcac0	0.0023771971
185	0xbbaaf808	-0.005217556
186	0xbd0af89b	-0.033928495
187	0xbc17a27c	-0.009255048
188	0xbc803670	-0.015650958
189	0xbcc940d6	-0.024567049
190	0x3cb19516	0.021677535
191	0xbceac270	-0.028657168
192	0x3c2c58fc	0.010519262
193	0x3d15fe23	0.036619317
194	0x3d294cf1	0.041333143
195	0xbc9a25eb	-0.018816909
196	0x3c84274a	0.016132016
197	0x3d19dce5	0.037564177
198	0xbd2788db	-0.040902
199	0xbd1b2e9f	-0.03788626
200	0xbcd74526	-0.02627809
201	0x3cc8230a	0.02443077
202	0x3c41d3a0	0.0118302405
203	0x3bb11700	0.005404353
204	0x3d1d80a9	0.038452778
205	0x3b960440	0.0045781434
206	0xbc8b207b	-0.016983261
207	0x3c9d8986	0.019230615
208	0x3ade08a0	0.0016939826
209	0xbbe355a0	-0.0069376975
210	0xbc88aace	-0.016683009
211	0xbc3824d6	-0.011239251
212	0xbc630e1c	-0.013858344
213	0xbd1d2028	-0.038360745
214	0x3cc2e406	0.02379037
215	0x3cdd3136	0.027001005
216	0x3c28b04c	0.010295939
217	0xbc89e328	-0.01683195
218	0xbca26496	-0.019823354
219	0xbc7f1a26	-0.015570199
220	0xbcbfd84b	-0.023418566
221	0x3d08a6af	0.033362087
222	0x3d19e52b	0.037572067
223	0x3cdaefea	0.026725728
224	0x3cd8c91a	0.02646308
225	0xbd0e5426	-0.03474822
226	0x3cc3f596	0.023920815
227	0xbd26876e	-0.0406565
228	0xbc05c6cc	-0.008165073
229	0xbd24ed6a	-0.04026548
230	0xba8a9280	-0.0010572225
231	0x3cb80f66	0.02246828
232	0xbcce420b	-0.025177976
233	0x3c8f4326	0.017488074
234	0x3d1857c5	0.03719308
235	0xbd08eb6e	-0.03342765
236	0x3c72abf4	0.014811505
237	0x3c25a2bc	0.0101096
238	0xbd16d1a4	-0.036821023
239	0x3c8d4506	0.017244827
240	0xbc8c7976	-0.01714776
241	0x3d056953	0.032571148
242	0x3d0f9539	0.03505442
243	0xbcff0c10	-0.031133682
244	0xbd098237	-0.03357145
245	0x3b7576b0	0.0037454776
246	0x3d0d132f	0.034442123
247	0x3ba24238	0.0049517415
248	0xb97f3700	-0.00024339184
249	0x3cf1b9a2	0.029507462
250	0xbd03ea64	-0.032205954
251	0xbcc7479e	-0.024326142
252	0x3d064c85	0.03278782
253	0xbc180a94	-0.009279866
254	0x3d035ba1	0.032069806
255	0xbd2889ae	-0.041146927

conv3.bias f4 [128]
0	0x3cb57d4a	0.022154469
1	0xbca969fe	-0.020680424
2	0xbc10cbdc	-0.008837666
3	0xbd13d10f	-0.036088046
4	0x3bf306c8	0.00741658
5	0xbcbe22f3	-0.023210024
6	0x3d1d92e1	0.038470153
7	0xbb219040	-0.002465263
8	0x3ca58e66	0.020209502
9	0x3b1082c0	0.002205059
10	0xbc132d14	-0.008982915
11	0xbbb998d8	-0.0056639723
12	0xbcb37896	-0.021908086
13	0xbab4d0a0	-0.0013795085
14	0x3c92ab06	0.017903816
15	0xbb8a3ce0	-0.0042186826
16	0x3d13ad47	0.036053922
17	0x3cbdd882	0.023174528
18	0xbc65a516	-0.01401641
19	0x3d1c5979	0.038171265
20	0x3d171551	0.036885563
21	0xb7fc4000	-3.0070543e-05
22	0x3d04aa49	0.03238896
23	0x3cd03182	0.025414232
24	0xbc990028	-0.018676832
25	0xbc64c2e0	-0.013962477
26	0xbd141e1b	-0.036161523
27	0x3c85a38e	0.01631334
28	0x3b50e8f0	0.0031877123
29	0x3d12512d	0.035721947
30	0x3d19cbbb	0.03754781
31	0xbd29f343	-0.041491758
32	0xbd0285f3	-0.031866025
33	0xbd22d3da	-0.03975282
34	0x3d1c8c13	0.038219523
35	0x3c8563e2	0.01628298
36	0x3cb74ff6	0.022376996
37	0xbcbdffe8	-0.023193315
38	0xbcdaba5e	-0.026700195
39	0x3d02a9ab	0.03190009
40	0x3c369c8c	0.011145722
41	0xbad64d00	-0.0016349852
42	0xbcc96213	-0.024582898
43	0x3ce7fcb2	0.028318737
44	0x3ae2f400	0.0017315149
45	0xbabceb00	-0.0014413297
46	0x3b55f630	0.003264796
47	0x398eac00	0.000272125
48	0xbbaf14c0	-0.0053430498
49	0xbbe79d80	-0.007068336
50	0x3cf14c22	0.029455248
51	0x3ce0e2e2	0.027451936
52	0xbd1ad356	-0.037799202
53	0x3cbaa91a	0.022785712
54	0xbd11363c	-0.035452113
55	0x3cbc944a	0.023019928
56	0x3ca6d136	0.020363431
57	0xbc32de3c	-0.010917243
58	0xbc4e9ef0	-0.012611136
59	0xbd1a9b4a	-0.03774575
60	0x3d22eb51	0.039775196
61	0x3c686290	0.014183655
62	0xbc8e9eb3	-0.017409658
63	0xbcd9c38e	-0.026582506
64	0xba87f2a0	-0.001037199
65	0xbd19d168	-0.03755322
66	0xbb43ccd0	-0.0029876716
67	0x3c865d9e	0.016402062
68	0x3c3c42b0	0.011490509
69	0x3d0502cd	0.032473374
70	0xbcba7dab	-0.022765001
71	0xbc22dc20	-0.009940177
72	0xbd1b9e2b	-0.037992638
73	0xbcb19a50	-0.021680027
74	0xbd12fbc4	-0.035884634
75	0xbc988400	-0.01861763
76	0x3d28c43f	0.04120278
77	0xbc547456	-0.01296719
78	0x3c2409d0	0.010012105
79	0x3a1c2c00	0.0005957484
80	0xbcd90026	-0.026489329
81	0xbba29c78	-0.0049625
82	0x3c1a1100	0.009403467
83	0xbd198b6a	-0.03748647
84	0xbb3dccd0	-0.002896119
85	0x3d0145a9	0.031560574
86	0xbc53e690	-0.012933388
87	0xbc1cb484	-0.009564523
88	0x3c761e44	0.015021864
89	0xbd046cf2	-0.03233046
90	0x3c0bd42c	0.008534472
91	0x3d15bccd	0.036557008
92	0x3c330664	0.010926817
93	0x3d02895d	0.03186928
94	0x3d0e44d9	0.034733627
95	0x3b944868	0.004525233
96	0x3b96e7c0	0.0046052635
97	0x3cf045fa	0.029330242
98	0xbd17ba9b	-0.037043195
99	0x3c781ba4	0.015143309
100	0xbd1fa29b	-0.038973432
101	0xbd03340b	-0.032032054
102	0x3a940100	0.0011291802
103	0xbd29ba18	-0.04143724
104	0xbd1cae34	-0.03825207
105	0x3c2bbd4c	0.010482144
106	0x3abf0c80	0.0014575869
107	0xbc777d76	-0.015105596
108	0x3cd58232	0.026063059
109	0x3b8c7fc8	0.0042876936
110	0xbc08a350	-0.008339718
111	0xbcc1d9a0	-0.023663342
112	0x3d091737	0.033469405
113	0x3d18cd01	0.037304882
114	0xbc9e0ea3	-0.019294089
115	0xbd1b5406	-0.037921928
116	0xb94a9900	-0.00019321218
117	0xb9e65a80	-0.00043936446
118	0x3cdaaaba	0.026692737
119	0x3d1811b5	0.03712626
120	0x3cc85962	0.024456684
121	0x3cb5135a	0.022103954
122	0xbd138c24	-0.03602232
123	0x3bd67c08	0.0065455474
124	0x3d083fb9	0.033263896
125	0x3cc76dda	0.024344373
126	0xbc730eb0	-0.014835045
127	0x3ce500f6	0.02795456

act_conv1.weight f4 [4, 128, 1, 1]
0	0x3cf3a60c	0.029742263
1	0xbda09cc4	-0.07842401
2	0xbbfa48b0	-0.0076380596
3	0xbdadbde6	-0.08483486
4	0x3d1ffc16	0.039058767
5	0x3c7e54e0	0.015523165
6	0x3d6614da	0.05617223
7	0xbc380c38	-0.011233382
8	0xbd92f4e6	-0.07175617
9	0x3d67e0f6	0.056611024
10	0xbc23fd28	-0.010009088
11	0xbca457b0	-0.020061344
12	0xbc026990	-0.007959738
13	0x3d0e8250	0.034792244
14	0xbcaa9324	-0.020822115
15	0xbd76fe1e	-0.06030094
16	0x3c4e9760	0.012609333
17	0x3c01a980	0.007913947
18	0x3d4cd9f6	0.05001255
19	0xbc1187c8	-0.00888247
20	0x3db15b47	0.08659988
21	0xbd9b75fc	-0.07590863
22	0xbd9d141e	-0.07669853
23	0x3da5f903	0.08104136
24	0xbd2880a7	-0.041138317
25	0x3d507c0e	0.050899558
26	0xbd0d38d3	-0.03447802
27	0x3d8e9f11	0.06963933
28	0xbc918858	-0.01776521
29	0x3d69b7fa	0.05706022
30	0x3d76e3c6	0.060275815
31	0xbdb1ca57	-0.086811714
32	0x3d7c6a3a	0.061624743
33	0xbd02a257	-0.0318931
34	0x3d956307	0.072942786
35	0xbd457b4e	-0.048213296
36	0xbc8d7120	-0.017265856
37	0x3d4ce746	0.050025247
38	0xbd80a6d7	-0.06281822
39	0x3d95c699	0.0731327
40	0xbd91096e	-0.07081877
41	0xbbd14170	-0.0063859746
42	0xbd816d46	-0.063196704
43	0xbc8c9658	-0.017161533
44	0xbb60ee60	-0.003432177
45	0xbd849ae4	-0.064748555
46	0xbd09a1c0	-0.033601522
47	0xbc774518	-0.015092157
48	0x3c4e9660	0.012609094
49	0x3da009e9	0.0781439
50	0x3da85a43	0.08220341
51	0xbd8a8174	-0.067629725
52	0xbd25847a	-0.040409543
53	0xbd437962	-0.04772318
54	0xbda04aac	-0.078267425
55	0x3d536c6a	0.051617064
56	0x3d1be1ba	0.038057067
57	0x3ce24a94	0.027623452
58	0x3d26df26	0.040740155
59	0x3d4246f2	0.04743094
60	0xbba2a230	-0.004963182
61	0x3cf8fc7c	0.030393831
62	0x3d844f87	0.06460481
63	0xbc5650b8	-0.013080768
64	0x3d3357d6	0.04378494
65	0xbc91c294	-0.017792977
66	0xbd837888	-0.06419474
67	0x3cdb9a80	0.02680707
68	0xbc1a1988	-0.009405501
69	0x3d849095	0.06472889
70	0xbbd247b0	-0.006417237
71	0x3d357df2	0.044309564
72	0xbd372ce1	-0.044720534
73	0x3dabe7cb	0.083938204
74	0xbd8efe71	-0.069821246
75	0x3da0be1d	0.07848761
76	0xbb8fa730	-0.004383944
77	0x3dab4b13	0.08363929
78	0xbd82a39d	-0.06378863
79	0x3c9161d4	0.017746843
80	0x3c5aaac8	0.0133463815
81	0x3cca9434	0.024728872
82	0xbcad43b4	-0.021150447
83	0xbd20f6c8	-0.03929785
84	0xbd9b7ad0	-0.07591784
85	0xbd852463	-0.06501081
86	0xbdac5455	-0.084145226
87	0x3bd3f950	0.0064689294
88	0x3d9de86d	0.07710347
89	0x3d4a4e62	0.049391158
90	0xbb6a0dc0	-0.0035713762
91	0xbd919830	-0.071091056
92	0xbd0fe2f3	-0.035128545
93	0xbd85036f	-0.064947955
94	0xbcb70af8	-0.022344097
95	0x3d99106b	0.074738346
96	0xbd8a007e	-0.06738375
97	0x3d57cb42	0.052684076
98	0x3db357ed	0.08757005
99	0xbdb0c1a1	-0.08630682
100	0x3c700b90	0.014651194
101	0xbd8b11c7	-0.067905
102	0x3c8af8b4	0.016964294
103	0xbd799be7	-0.060939696
104	0xbc4121e0	-0.011787862
105	0xbced9d70	-0.029005736
106	0x3d0f989e	0.035057656
107	0xbd3ec92e	-0.04657858
108	0x3da76725	0.0817397
109	0xbd68bd8c	-0.05682139
110	0x3d3d4316	0.046206556
111	0x3ca89fa0	0.020583928
112	0xbd352922	-0.04422868
113	0x3cf466c0	0.029834151
114	0x3ced4cc8	0.028967276
115	0xbd042534	-0.032262042
116	0x3d99fe35	0.07519189
117	0x3da27b17	0.07933634
118	0xbd94b0cd	-0.072602846
119	0xbd6ca2b3	-0.05777235
120	0xbd145a08	-0.036218673
121	0x3d042fde	0.032272212
122	0xbd1c4dec	-0.03816025
123	0xbd7e5552	-0.062093087
124	0x3cc4dd6c	0.024031363
125	0xbb729460	-0.0037014708
126	0xbd367543	-0.044545423
127	0x3c51d758	0.01280769
128	0xbc33e918	-0.010980867
129	0x3d0c3b5c	0.034236297
130	0xbcf8d296	-0.030373853
131	0xbbed4fa0	-0.007242158
132	0xbc729040	-0.0148049
133	0x3d9593c9	0.073035784
134	0x3cb0c30c	0.02157738
135	0x3db0a8fb	0.086259805
136	0x3d139b26	0.036036633
137	0xbd6c29d4	-0.057657078
138	0xbd5fd753	-0.05464871
139	0x3d827aeb	0.06371101
140	0xbc843058	-0.016136333
141	0xbacbbd00	-0.0015543997
142	0xbdaaffe2	-0.08349587
143	0xbd9fd055	-0.07803408
144	0xbda17212	-0.07883085
145	0x3cd07e64	0.025450893
146	0x3cb82788	0.022479787
147	0x3db0aeb1	0.0862707
148	0x3bf1bcd0	0.0073772445
149	0x3d76bdaa	0.06023947
150	0xbd959624	-0.07304028
151	0x3d896717	0.06709116
152	0x3db04729	0.08607323
153	0x3dafd111	0.08584798
154	0xbd435999	-0.04769287
155	0xbd865b26	-0.06560354
156	0xbd889b3f	-0.06670236
157	0x3d0d155e	0.034444205
158	0x3c241030	0.010013625
159	0xbd055189	-0.03254846
160	0xbd1e49d6	-0.038644634
161	0xbd88a461	-0.06671978
162	0x3d82f0e5	0.06393603
163	0x3db2991b	0.08720609
164	0xbd38a277	-0.045076814
165	0xbd825764	-0.06364325
166	0xbd2bfd08	-0.041989356
167	0xbd525e83	-0.051359665
168	0x3cc9587c	0.024578325
169	0x3d53df26	0.051726483
170	0x3b229780	0.002480954
171	0x3ca11cc8	0.019667044
172	0x3db23c6d	0.087029316
173	0x3d5f4fa2	0.054519303
174	0xbd936aea	-0.071981266
175	0x3d86737f	0.06564998
176	0xbc9319dc	-0.017956667
177	0x3cc85e64	0.024459071
178	0xbbdb80b0	-0.0066986904
179	0x3c549dd0	0.012977079
180	0xbd9625a5	-0.07331399
181	0x3d64669a	0.05576191
182	0xbda780c7	-0.08178859
183	0xbd7ee47a	-0.06222961
184	0xbcc8c56c	-0.0245082
185	0x3d514432	0.051090427
186	0xbd857a8b	-0.06517514
187	0x3dafad59	0.08577985
188	0x3d2492ba	0.04017899
189	0x3d97fd23	0.07421329
190	0x3d5bb2a6	0.05363717
191	0x3ccbbe5c	0.024871044
192	0x3d085804	0.033287063
193	0xbd8852f4	-0.06656447
194	0x3bc33760	0.005957529
195	0x3d07eea0	0.033186555
196	0xbb2842e0	-0.0025674626
197	0x39aebd00	0.00033328682
198	0x3d7fc002	0.062438972
199	0x3d59728e	0.053087763
200	0xbd91b7f7	-0.07115167
201	0xbd50666c	-0.050878927
202	0xbd44d575	-0.04805513
203	0x3cde1bb0	0.027112812
204	0x3da83249	0.08212716
205	0x3c89594c	0.016766213
206	0xbd6f07a9	-0.058356915
207	0x3d2ab07a	0.041672207
208	0x3a5e5b80	0.00084822625
209	0xbc337f98	-0.010955714
210	0x3d0ba01e	0.034088247
211	0x3db360a9	0.08758671
212	0x3da6832f	0.0813049
213	0x3d543c72	0.051815458
214	0xbc87f134	-0.016594507
215	0xbc418d18	-0.0118134245
216	0x3d94b7ad	0.07261596
217	0x3d77c442	0.0604899
218	0x3d54162a	0.05177895
219	0xbd9a04e7	-0.07520466
220	0x3d774d82	0.06037665
221	0xbc891b30	-0.016736597
222	0x3c539640	0.01291424
223	0xbcd160a8	-0.025558785
224	0xbcc6b618	-0.024256751
225	0xbd1e2cf5	-0.038617093
226	0xbdb435bc	-0.087993115
227	0x3cb99568	0.02265425
228	0x3b6e3a80	0.0036350787
229	0x3d7940a6	0.06085267
230	0x3c5e8ce0	0.013583392
231	0xbd94ac99	-0.07259483
232	0xbd654818	-0.055976957
233	0x3da3bde3	0.079952024
234	0xbd683499	-0.056690786
235	0x3c934ca4	0.017980881
236	0xbd60a9e6	-0.054849528
237	0x3d34f2de	0.04417693
238	0x3da55499	0.08072776
239	0x3cc4b480	0.02401185
240	0x3ca35558	0.019938156
241	0x3d99fecd	0.075193025
242	0xbcb86ac0	-0.02251184
243	0xbca85a50	-0.020550877
244	0x3c666d30	0.014064118
245	0xbc2834d8	-0.010266505
246	0xbd723bc8	-0.059139043
247	0xbcb578c4	-0.022152312
248	0x3d8b9f3d	0.06817482
249	0x3d5f39c6	0.054498456
250	0x3d023f8e	0.03179889
251	0xbae698c0	-0.001759313
252	0xbd80fefe	-0.06298636
253	0x3c3c5940	0.011495888
254	0xbd32fd45	-0.043698568
255	0xbdabfaca	-0.083974436

act_conv1.bias f4 [4]
0	0x3d30019a	0.042970277
1	0xbd9a55a4	-0.07535866
2	0xbda30b52	-0.079611436
3	0xbda7fbae	-0.08202301

act_fc1.weight f4 [36, 144]
0	0xbd529183	-0.051408302
1	0xbb306600	-0.0026916265
2	0x3b1a8020	0.0023574904
3	0x3c33b380	0.010968089
4	0x3c91dbc4	0.017804988
5	0x3d301322	0.042986996
6	0xbd1e381b	-0.038627725
7	0x3cb1d410	0.021707565
8	0xbcb05a3c	-0.021527402
9	0xbc762818	-0.0150242075
10	0x3ca05704	0.019572742
11	0x3d7df9fa	0.062005974
12	0xbcd82d36	-0.026388746
13	0x3c958eec	0.018256627
14	0xbbb78130	-0.005600117
15	0x3d47e45a	0.048801757
16	0x3d7cc812	0.06171424
17	0xbd2449b3	-0.040109348
18	0x3d0841f2	0.033266015
19	0x3b994510	0.0046774223
20	0x3d5d4cd6	0.054028355
21	0xbbcec1c0	-0.006309718
22	0x3d9206b1	0.071301825
23	0xbd69968e	-0.057028346
24	0xbd86293a	-0.06550832
25	0x3d76644e	0.06015425
26	0xbd88684b	-0.06660517
27	0x3cec276c	0.028827392
28	0x3daaa8f5	0.08333007
29	0x3d31dc2a	0.043422855
30	0x3da27c8b	0.07933911
31	0x3d63538a	0.05549959
32	0xbd80dd74	-0.06292239
33	0x3d41b032	0.047287174
34	0xbd1c9970	-0.038232267
35	0xbd955452	-0.072914734
36	0x3da7942b	0.08182558
37	0x39b06500	0.00033644587
38	0x3da4de5b	0.080502234
39	0x3cf7295c	0.030171089
40	0x3d886421	0.06659723
41	0xbcf917b0	-0.030406803
42	0x3b2782a0	0.0025560036
43	0x3c055a98	0.008139275
44	0x3d0d661a	0.0345212
45	0xbda07ea3	-0.07836654
46	0xbd1ae768	-0.037818342
47	0x3c5dfb78	0.013548724
48	0x3d2b882a	0.041877903
49	0xbd25e0fe	-0.040497772
50	0xbc95958c	-0.018259786
51	0x3d252218	0.040315717
52	0xbba29770	-0.0049619004
53	0x3d69a8ba	0.057045676
54	0x3d38b0be	0.04509043
55	0xbd265f10	-0.040618002
56	0x3c0258d8	0.007955752
57	0xbc6553a8	-0.013996996
58	0x3d94ba3f	0.07262086
59	0x3d4b5c26	0.049648426
60	0x3d9c075f	0.076185934
61	0x3d8aecd1	0.067834504
62	0xbda2b75e	-0.07945131
63	0x3da1dcb1	0.07903422
64	0xbd7ac246	-0.06122043
65	0xbd8bba93	-0.068226956
66	0x3d3d2252	0.04617531
67	0xbc89bd44	-0.016813882
68	0xbd15ad43	-0.03654219
69	0x3d92d4af	0.071694724
70	0xbd9b97e0	-0.07597327
71	0xbcba4e06	-0.022742283
72	0x3d9192ad	0.07108054
73	0xbcb7432c	-0.022370897
74	0x3d8fa323	0.07013538
75	0xbc26c4d8	-0.010178767
76	0x3d36b596	0.044606768
77	0x3d443b0a	0.047907867
78	0x3d0cc0a8	0.03436342
79	0xbd242828	-0.04007736
80	0xbd1cdbee	-0.03829568
81	0xbc53c5a0	-0.012925535
82	0x3d4a6532	0.049412914
83	0xbd6c0d96	-0.057630144
84	0x3d029760	0.031882644
85	0x3d38dabe	0.045130484
86	0xb9bbf300	-0.00035848469
87	0xbc858644	-0.016299374
88	0x3cf4070c	0.029788516
89	0x3cc7b8b4	0.024380066
90	0xbd828c20	-0.06374383
91	0x3d9a3851	0.07530273
92	0x3d90b981	0.07066632
93	0xbbf3b4d0	-0.007437326
94	0x3d035332	0.032061763
95	0xbc8c67d0	-0.017139345
96	0x3da81d15	0.08208672
97	0x3d3bdd4e	0.04586535
98	0xbd969e1e	-0.07354377
99	0x3c3432f8	0.01099848
100	0xbc9bffac	-0.019042812
101	0xbd3015a8	-0.042989403
102	0x3b300d60	0.002686344
103	0xbd1a3d23	-0.03765596
104	0xbd184fc8	-0.03718546
105	0xbc995f74	-0.018722273
106	0x3d812789	0.06306369
107	0x3d84f151	0.0649134
108	0x3da66bed	0.08126054
109	0xbccb7c80	-0.02483964
110	0xbda1a054	-0.07891908
111	0x3c407d38	0.0117486045
112	0x3bc5ebb0	0.006040059
113	0x3d4d7692	0.050161906
114	0x3d6f420a	0.05841259
115	0xbbc54130	-0.006019734
116	0xbd2af838	-0.041740626
117	0x3cfad92c	0.030621134
118	0xbd82680e	-0.06367503
119	0xbcc0f75c	-0.02355545
120	0xbd3b09f6	-0.045663796
121	0xbd981c34	-0.07427254
122	0xbb900c70	-0.004396014
123	0x3cac487c	0.021030657
124	0xbcd3b3b6	-0.025842529
125	0xbd0b422e	-0.03399866
126	0xbd844ab7	-0.06459563
127	0xbcc3770c	-0.023860477
128	0x3d8b3185	0.067965545
129	0x3d5f2e3e	0.05448746
130	0xbadc2ac0	-0.0016797408
131	0xbd2664c8	-0.040623456
132	0xbda0e7b2	-0.078566924
133	0x3d2c973a	0.04213641
134	0x3cddff0c	0.027099155
135	0x3c2e17b8	0.010625772
136	0xbda88242	-0.0822797
137	0x3d083fc8	0.03326395
138	0x3d85d121	0.06534029
139	0x3d7129ba	0.058877684
140	0xbd6ec19b	-0.058290105
141	0xbd1a823e	-0.037721865
142	0x3b05a360	0.0020391569
143	0xbc3b1d48	-0.011420555
144	0xbd6daa73	-0.05802388
145	0xbd3be960	-0.04587686
146	0xbd82676b	-0.06367382
147	0xbd329da0	-0.043607354
148	0xbd09d8d0	-0.033654034
149	0xbc9390fc	-0.01801347
150	0xbc0c4328	-0.008560933
151	0x3b828c00	0.0039839745
152	0x3c5abd40	0.013350785
153	0xbce7f970	-0.028317183
154	0x3d2c22de	0.04202544
155	0x3bed5030	0.007242225
156	0x3d5a0682	0.053228863
157	0x3d9547c3	0.07289078
158	0xbd496f80	-0.0491786
159	0x3d17f866	0.037102126
160	0x3d14eb00	0.036356926
161	0xbd378de0	-0.044813037
162	0x3d713802	0.058891304
163	0xbc427338	-0.011868291
164	0x3d79b876	0.06096693
165	0x3d882587	0.06647783
166	0xbd9f0886	-0.077652976
167	0xbda35a03	-0.07976153
168	0x3d164666	0.03668823
169	0xbc99988c	-0.018749498
170	0x3cf1814c	0.029480599
171	0x3b7903a0	0.0037996545
172	0xbd832516	-0.06403558
173	0x3c5db720	0.01353243
174	0x3cfcb6fc	0.030848972
175	0x3c49b028	0.012310065
176	0x3cfc17d0	0.030773073
177	0x3b39ba80	0.0028339922
178	0x3d857d05	0.06517986
179	0xbce8cda6	-0.028418373
180	0x3c1b3d20	0.009475023
181	0xbd57685b	-0.052589756
182	0xbbd07450	-0.006361522
183	0xbd0f6538	-0.03500864
184	0xbc27a4a8	-0.010232128
185	0xbcc9fd66	-0.024656963
186	0x3d34ffb2	0.044189163
187	0xbd9e13a8	-0.07718593
188	0x3d1ca276	0.038240872
189	0xbd3ebd7e	-0.046567433
190	0xbc064468	-0.00819502
191	0xbcc9c936	-0.024632078
192	0x3d8cba75	0.06871501
193	0x3d9eb5e1	0.077495344
194	0x3da2ac69	0.07943041
195	0x3d2e5c26	0.04256835
196	0xbd324828	-0.043525845
197	0x3d933d39	0.07189412
198	0x3d311692	0.043234415
199	0x3d8bd2c7	0.06827312
200	0xbd957c8b	-0.07299145
201	0xbd09a0f6	-0.03360077
202	0xbc36d878	-0.011160009
203	0x3c5815d8	0.013188802
204	0xbd450130	-0.048096836
205	0xbce39bf6	-0.027784329
206	0xbc86a6c4	-0.016436942
207	0xbc775d18	-0.015097879
208	0xbd4744db	-0.04864965
209	0x3d975265	0.073887624
210	0x3d6ab39e	0.057300203
211	0x3d4143b2	0.0471837
212	0x3da68f4d	0.08132801
213	0x3d89e8f1	0.06733883
214	0xbd871847	-0.065964274
215	0xbd38e8c8	-0.045143872
216	0xbd0c6f43	-0.034285795
217	0xbd8cb2c6	-0.06870036
218	0xbd2987b3	-0.04138918
219	0x3d7dbebe	0.061949484
220	0x3d8282f9	0.06372637
221	0xbd0d96f8	-0.034567803
222	0x3d4341f2	0.047670312
223	0xbcef34d0	-0.029199988
224	0xbc125618	-0.008931659
225	0xbc3f4d28	-0.01167611
226	0x3c09ffc0	0.008422792
227	0x3da056d9	0.07829065
228	0xbd8e19fe	-0.06938551
229	0xbcace486	-0.021105062
230	0xbd74c4f6	-0.05975815
231	0xbd3e96e3	-0.046530616
232	0xbd2441a3	-0.04010166
233	0xbda310f0	-0.07962215
234	0xbda8b31b	-0.08237287
235	0xbd778246	-0.060426973
236	0xbced2096	-0.028946202
237	0xba124e80	-0.00055811554
238	0x3ce50950	0.027958542
239	0xba882400	-0.0010386705
240	0xbc1b9f40	-0.009498417
241	0x3d817f5f	0.06323122
242	0x3d83ce5d	0.06435845
243	0x3d90e2ff	0.07074546
244	0x3d789b16	0.060694776
245	0xbd07c2be	-0.033144705
246	0xbcad8a86	-0.021184217
247	0x3d03bb60	0.032161117
248	0xbc4a0480	-0.012330174
249	0xbd8e2834	-0.06941262
250	0xbbda3330	-0.006658934
251	0xbd5aaa33	-0.05338497
252	0x3c663698	0.014051102
253	0xbce944e0	-0.028475225
254	0x3d9d7379	0.0768804
255	0x3c382de0	0.011241406

act_fc1.bias f4 [36]
0	0x3b523960	0.0032077655
1	0xbd821496	-0.06351583
2	0x3d35b4c2	0.044361837
3	0x3cfd553c	0.030924432
4	0xbd4d10fb	-0.050065022
5	0xbd44b623	-0.04802526
6	0x3d60575a	0.054770805
7	0xbb76da00	-0.003766656
8	0xbd4a5b96	-0.04940375
9	0xbd79b98b	-0.060967963
10	0xbd6aeed0	-0.057356656
11	0x3b31ee80	0.0027150214
12	0x3d1e3b32	0.03863067
13	0xbb776700	-0.0037750602
14	0xbc01ee38	-0.007930331
15	0xbd6bb0d3	-0.05754168
16	0x3d64ff7a	0.055907704
17	0xbd43a696	-0.04776629
18	0x3bb522f0	0.0055278465
19	0x3d8acc6d	0.067772724
20	0xbd1ec108	-0.038758308
21	0xbd3b11f0	-0.045671403
22	0xbc6831a0	-0.014171988
23	0xbc029d20	-0.007972032
24	0xbd54cf58	-0.05195555
25	0xbac20740	-0.0014803186
26	0xbd316ed0	-0.04331857
27	0xbce3d9fc	-0.027813904
28	0xbd7f1a56	-0.062280975
29	0x3d610442	0.0549357
30	0x3d6b8c86	0.05750706
31	0xbd411653	-0.04714043
32	0x3be3e230	0.006954454
33	0x3d99bca7	0.07506686
34	0xbd0a7e08	-0.0338116
35	0xbd3088eb	-0.043099325

val_conv1.weight f4 [2, 128, 1, 1]
0	0xbcd2d3d8	-0.02573578
1	0xbd44a650	-0.04801017
2	0x3b121f20	0.0022296384
3	0xbdaf041c	-0.08545706
4	0xbd8a25b6	-0.06745474
5	0x3d1d8f5e	0.038466804
6	0xbd9d9ff6	-0.07696526
7	0x3b5013c0	0.0031750053
8	0xbd5d4a91	-0.05402619
9	0xbd4423bd	-0.047885645
10	0xbc9e46a8	-0.0193208
11	0xbd774f86	-0.060378574
12	0xbd120dcc	-0.03565769
13	0xbc3c89a8	-0.011507429
14	0xbd0032d0	-0.03129846
15	0xbd99e407	-0.07514196
16	0xbdac61ff	-0.08417129
17	0x3d7949ba	0.060861327
18	0xbd707e54	-0.058714226
19	0x3cd661b0	0.026169628
20	0xbd03724b	-0.03209142
21	0xbcc2c98c	-0.023777746
22	0xbc4d1070	-0.012516126
23	0xbc5288f8	-0.012850039
24	0xbd1bbb5b	-0.038020473
25	0x3d977423	0.07395198
26	0x3d312a46	0.043253206
27	0xbd75482a	-0.059883274
28	0x3d9cc59f	0.07654881
29	0x3d71a362	0.058993705
30	0x3c985024	0.018592902
31	0x3d8698f9	0.06572146
32	0xbd64c8b7	-0.05585548
33	0x3d93b37d	0.07211969
34	0xbc089b58	-0.008337818
35	0x3c830d68	0.015997604
36	0x3d8851af	0.06656205
37	0xbc981f34	-0.018569566
38	0x3d99aee9	0.075040646
39	0xbcb09de8	-0.02155967
40	0xbd503e3d	-0.050840605
41	0x3db4afff	0.08822631
42	0xbd38deae	-0.04513424
43	0x3d838b65	0.06423072
44	0xbcc278f0	-0.023739308
45	0x3d65b77e	0.056083195
46	0x3d4f5a7e	0.05062341
47	0x3d01b156	0.03166326
48	0xbd759dd6	-0.059964977
49	0xbcb0a884	-0.02156473
50	0x3d416b46	0.047221445
51	0x3c1ea928	0.009683885
52	0xbd9ec32f	-0.07752072
53	0xbd66b79f	-0.05632746
54	0x3d0e299a	0.034707643
55	0x3cc20524	0.023684092
56	0xbd7082d6	-0.058718525
57	0xbda2523c	-0.07925841
58	0x3d242f6a	0.04008428
59	0x3d3222d6	0.043490253
60	0x3d6882ca	0.056765355
61	0x3da66431	0.08124579
62	0x3b882310	0.0041545704
63	0xbd9d7354	-0.07688013
64	0x3d4b66be	0.04965853
65	0x3d2f2ba2	0.04276622
66	0xbd585aec	-0.052821085
67	0x3d373eee	0.04473775
68	0xbd98b233	-0.07455864
69	0x3d8e7091	0.06955064
70	0xbda26bb5	-0.079307
71	0x3db0ac65	0.08626632
72	0xbd399d36	-0.045315944
73	0x3d49cdfa	0.0492687
74	0x3d20d40a	0.039264716
75	0xbc851ecc	-0.016250037
76	0xbcca3880	-0.024685144
77	0x3b0730c0	0.0020628422
78	0xbc40ddd0	-0.011771634
79	0x3ba47470	0.0050187632
80	0xbdaae7e4	-0.08345011
81	0x3c8a0a04	0.016850479
82	0x3d9bfb09	0.076162405
83	0xbcca70c8	-0.024711981
84	0xbc132688	-0.008981355
85	0x3da5cb65	0.08095435
86	0x3c410d68	0.011782981
87	0xbd07254f	-0.032994565
88	0xbc300348	-0.01074297
89	0x3cfdfb34	0.031003572
90	0xbcca435c	-0.024690323
91	0x3d8a0e67	0.06741028
92	0x3cf6a098	0.030105874
93	0x3cc7c75c	0.024387054
94	0xbcfb1604	-0.030650146
95	0xbc27a140	-0.010231316
96	0xbb43d6e0	-0.0029882714
97	0xbcb27cc0	-0.021788001
98	0xbc438fd0	-0.011936143
99	0x3da1e6db	0.0790536
100	0xbd197354	-0.0374635
101	0xba876f80	-0.0010332912
102	0xbd578fa1	-0.05262721
103	0x3d2eb5ea	0.042653956
104	0x3d976cf9	0.07393832
105	0x3ce15bbc	0.027509563
106	0xbd98002c	-0.07421908
107	0x3cad0948	0.02112259
108	0xbcde6f16	-0.02715258
109	0xbc882b2c	-0.016622148
110	0xbc907f48	-0.017638817
111	0xbdab2897	-0.08357351
112	0x3aca3980	0.0015428513
113	0x3d6a9a02	0.05727578
114	0x3db081db	0.08618518
115	0x3c08ed88	0.008357413
116	0x3c86f394	0.016473569
117	0xbd248668	-0.040167242
118	0xbd48d5bf	-0.04903197
119	0xbc91df48	-0.017806664
120	0xbd981f31	-0.07427824
121	0x3d56e69a	0.052466013
122	0x3bcebdb0	0.0063092336
123	0x3d4a1842	0.04933954
124	0x3c2ca0c0	0.010536373
125	0xbd3e9b02	-0.046534546
126	0x3c20f0e8	0.0098230615
127	0xbd3d5e20	-0.046232343
128	0xbd6bfd3f	-0.05761456
129	0xbdb03d9f	-0.08605503
130	0x3c2761c0	0.0102161765
131	0xbd2d2a83	-0.04227687
132	0x3bbcb3e0	0.0057587475
133	0x3d8c9cbb	0.068658315
134	0x3d70881a	0.058723547
135	0x3da5db25	0.08098439
136	0x3ccec488	0.025240198
137	0x3d873fb9	0.06603951
138	0x3d877853	0.06614747
139	0x3d1550d8	0.03645405
140	0x3db18ad9	0.08669061
141	0x3c9d516c	0.019203864
142	0xb93e8800	-0.00018170476
143	0x3d8b7c2d	0.06810794
144	0xbc37ccc0	-0.01121825
145	0xbd717cb3	-0.058956813
146	0x3d812ec3	0.06307747
147	0x3d3eafca	0.046554364
148	0x3d804941	0.06263972
149	0x3db2278d	0.0869895
150	0x3d9ddc7f	0.07708072
151	0x3da28077	0.07934659
152	0xbd649bbf	-0.055812594
153	0x3d5de3f6	0.05417248
154	0xbd86c497	-0.06580465
155	0x3cce98a0	0.025219262
156	0x3cf65744	0.030070908
157	0xbca522e8	-0.020158246
158	0x3c8dfd88	0.017332807
159	0x3c995c6c	0.018720828
160	0xbcc7195c	-0.024304084
161	0x3d33633a	0.0437958
162	0xbd5accd5	-0.053418
163	0x3d35a8b2	0.044350334
164	0x3c82d0a0	0.01596862
165	0x3d78abfa	0.060710885
166	0xbb0903e0	-0.002090685
167	0x3d60d44e	0.05488997
168	0xbc3af948	-0.011411972
169	0xbcb27e18	-0.021788642
170	0xbc9ae28c	-0.018906854
171	0x3cb43c64	0.022001453
172	0x3c5bdfb0	0.0134200305
173	0xbd4f31f2	-0.05058474
174	0xbca6d184	-0.020363577
175	0xbc456500	-0.012048006
176	0xbcf6ffce	-0.030151274
177	0x3d83eb39	0.064413495
178	0x3d64b816	0.05583962
179	0x3cb7ec9c	0.022451691
180	0xbd89d360	-0.0672977
181	0xbd64f132	-0.055894084
182	0xbd64be5d	-0.055845607
183	0xbdac5067	-0.08413773
184	0x3cb86a6c	0.022511683
185	0x3d9bbb5b	0.076040946
186	0x3cd16eac	0.025565468
187	0x3d641b26	0.055689953
188	0x3cd1e090	0.025619775
189	0xbd75bb0f	-0.059992846
190	0xbd4455c5	-0.04793336
191	0xbd7ff82e	-0.062492542
192	0x3cfac6d8	0.030612394
193	0x3bfc5990	0.0077011064
194	0x3d834345	0.06409315
195	0x3d3c10f6	0.045914613
196	0x3c14fa78	0.0090929195
197	0xbc3b8a98	-0.011446618
198	0xbce7a8e4	-0.028278776
199	0xbd27ac11	-0.04093558
200	0x3daa6c67	0.08321457
201	0xbd8ef2c2	-0.06979896
202	0xbcac14d0	-0.021006018
203	0x3d90b35b	0.07065459
204	0xbc55f9c8	-0.013060041
205	0xbd894cd2	-0.067041054
206	0xbc859b64	-0.016309448
207	0x3cd7cbcc	0.026342295
208	0x3cc70090	0.02429226
209	0xbdb202d7	-0.08691948
210	0xbc9e7450	-0.019342571
211	0x3bac8460	0.005264804
212	0xbc88f994	-0.01672057
213	0x3a531f00	0.00080536306
214	0x3b74c580	0.0037349164
215	0xbd6df14e	-0.058091454
216	0xbce0db8e	-0.027448442
217	0x3d370b66	0.044688605
218	0x3d190dc2	0.037366636
219	0x3c58d970	0.013235435
220	0xbc4a2a28	-0.012339152
221	0x3d02a18e	0.03189235
222	0xbd127ddf	-0.03576457
223	0x3c285070	0.010273084
224	0x3d88fec3	0.06689217
225	0xbd953d78	-0.07287115
226	0x3d77362e	0.060354404
227	0xbc256780	-0.010095477
228	0xbd800226	-0.0625041
229	0x3c828034	0.015930273
230	0xbd927d4a	-0.07152803
231	0xbd355c17	-0.044277277
232	0x3d3debae	0.04636734
233	0x3b7974e0	0.0038064048
234	0xbd02ca5b	-0.031931262
235	0x3c110f40	0.008853734
236	0xbd23d034	-0.03999348
237	0xbd8b95ba	-0.068156675
238	0xbce7ff6c	-0.028320037
239	0x3c1e0dd0	0.009646848
240	0x3d94f9b9	0.07274193
241	0xbd8fbb0c	-0.07018098
242	0x3d39e79e	0.045386903
243	0x3c928c24	0.01788909
244	0xbc65c378	-0.014023654
245	0x3daf1463	0.0854881
246	0x3da3b821	0.07994104
247	0xbdb12953	-0.0865046
248	0x3d48392e	0.048882656
249	0x3c8bc35c	0.017060928
250	0x3d37cc6e	0.044872694
251	0x3c2c0c50	0.010500982
252	0xbc104438	-0.008805327
253	0x3c97bc90	0.01852253
254	0x3d3da31e	0.04629814
255	0xbd94afaf	-0.072600715

val_conv1.bias f4 [2]
0	0xbd91252c	-0.07087168
1	0xbcc30ff4	-0.023811318
