Connect6/BitBoard/model/6_6_4_best_policy_fix_return.model (torch, 414602 bytes, 15 tensors)

conv1.weight f4 [32, 4, 3, 3]
000000 39 7c 21 3e b0 fd 5f 3c 6a 7a 94 3d dc a8 07 be
       0.15770043 0.013671324 0.07249911 -0.13248008
000010 16 32 b8 3d 4b 7a 14 be 92 18 b3 3d 00 c6 ad b9
       0.08993928 -0.14499776 0.08744921 -0.00033144653
000020 00 a2 6c 3b 38 0d bd 3c 77 25 12 be 48 39 95 3c
       0.0036107302 0.023077592 -0.14272104 0.01821579
000030 fc dd 22 3d ab ee 1a 3e 6b c4 a1 bd 54 c1 0e be
       0.039762482 0.15130107 -0.07898792 -0.13940936
000040 54 b3 3c 3d 38 e1 b3 3c 76 78 66 bd a1 a1 0a 3e
       0.046069458 0.021957979 -0.056267224 0.13538219
000050 6e c4 bf 3d 60 be b7 bb 32 c7 c2 3d 76 24 76 bd
       0.09363638 -0.0056074113 0.0951065 -0.060093366
000060 40 4d bb bd e0 c9 f8 3c c2 5d dc 3d f0 26 61 bd
       -0.09145594 0.030369699 0.107600704 -0.054968774
000070 40 df 13 3c e8 98 80 3d e3 45 13 be 8a 14 c6 3d
       0.009025395 0.062791646 -0.14382128 0.09671886
000080 d6 21 87 3d 00 92 0c 3d 23 ef 1c 3e 7c c0 04 3d
       0.065982506 0.034318924 0.15325598 0.03241013
000090 60 bb 1c bd a6 0e c0 3d 58 6b a2 3d 4c 71 3d 3d
       -0.038264632 0.09377794 0.079306304 0.046250626
0000a0 17 27 05 be 4e ce f0 bd c2 c4 d4 3d e4 ae 29 be
       -0.13003193 -0.117580995 0.10389091 -0.16570622
0000b0 a0 e1 8c bd b8 92 af 3c 66 25 58 bd dc f4 5a 3d
       -0.06878972 0.021432266 -0.05277004 0.053456172
0000c0 10 1b 8c bd 7d 05 28 3e 18 13 8a bc 12 2c ac 3d
       -0.06841099 0.16408344 -0.016854808 0.08406843
0000d0 6b 70 1b be 30 06 24 3d c2 f5 f9 3d 96 ef 2c bd
       -0.15179603 0.040044963 0.12205078 -0.042220674
0000e0 ef 11 19 be 80 e8 ca ba dd fc 00 3e 39 8e 1a 3e
       -0.14948247 -0.0015480667 0.1259646 0.15093316
0000f0 d6 83 74 bd ae 35 ea 3d 8a 1d a0 3d 19 7f 2a 3e
       -0.05969604 0.1143602 0.07818134 0.16650046
000100 5a 17 f7 3d d0 7b 03 bc 9b 77 dd bd 80 3c a4 ba
       0.12065001 -0.008025125 -0.108138286 -0.0012530237
000110 de 99 d8 3d 9a 87 20 be de ac 96 3d 1c 66 22 bd
       0.10576223 -0.15676728 0.073571905 -0.03964816
000120 f0 4f 1e 3d 05 d9 0e 3e 58 a9 93 bc e4 e7 25 bd
       0.038650453 0.13949974 -0.018025085 -0.04050435
000130 70 e0 f6 bd b6 14 b1 3d 2a 61 a6 3d 50 9b 79 bc
       -0.12054527 0.086465284 0.08124001 -0.015234783
000140 20 15 d6 3c 5f fb 25 be 42 f4 02 be a8 a7 c2 bc
       0.02613312 -0.16209172 -0.1278849 -0.023761585
000150 a8 c2 96 3d 18 93 dc bc 92 69 ed 3d 40 c0 4f bd
       0.073613465 -0.026925609 0.115924016 -0.050720453
000160 06 40 e1 3d af 75 08 3e bc 9f 61 bd 67 65 27 3e
       0.109985396 0.13326143 -0.055083975 0.16347276
000170 d2 a2 e6 3d 9b 2e aa bd 60 83 7d 3d a7 df 18 3e
       0.11261524 -0.083096705 0.061892867 0.14929067
000180 7a d8 db 3d a0 d0 02 3d 7e 70 a1 bd a0 f4 bd 3b
       0.10734649 0.03193724 -0.07882784 0.005796984
000190 1a 00 e5 3d 9b fa b4 bd 9e 67 8a 3d e3 e7 02 3e
       0.1118166 -0.08836862 0.06758045 0.1278377
0001a0 c0 66 98 3d 46 9f e7 3d 10 1d 63 bc 6f 5f 1d 3e
       0.07441473 0.11309676 -0.0138619095 0.15368436
0001b0 00 2c 55 b9 00 c6 b1 bc 78 08 17 be c6 c0 20 be
       -0.00020329654 -0.02170086 -0.14749324 -0.15698537
0001c0 58 4b e8 3c 28 fb 01 be dd f8 1f 3e a7 4c 24 3e
       0.02835624 -0.12693465 0.15622278 0.16044866
0001d0 60 e3 ab bc 6e 2a 15 be ac 7b 25 bd 00 55 03 3d
       -0.020982444 -0.14566967 -0.040401146 0.032063484
0001e0 08 c4 c5 bd 60 36 88 3b 50 60 98 3d 06 ba be 3d
       -0.096565306 0.0041568726 0.07440245 0.09312825
0001f0 d0 00 6a bd ec 70 76 bd af 35 1e 3e 18 b7 88 bc
       -0.05712968 -0.060166284 0.15450166 -0.016688868
000200 13 83 d5 bd f6 65 46 bd d8 10 8a 3c 50 7b 6d 3c
       -0.10425391 -0.04843708 0.016853735 0.014494732
000210 f0 5d 7e bc 00 4b a2 bb b6 59 72 bd e8 08 a5 bc
       -0.015525326 -0.0049527884 -0.059167586 -0.020145848
000220 33 6b 25 be 72 bd 29 be ad 62 01 3e 84 4e 7d 3d
       -0.16154175 -0.16576174 0.12635298 0.061842456
000230 e0 db 27 be 9b 20 dd bd 00 c5 fc bc 4d 67 0a 3e
       -0.1639247 -0.107972346 -0.030855656 0.13515969
000240 60 50 87 3d 6b 4b 24 be 1a 2d 1c be 8e 73 8e 3d
       0.06607127 -0.16044395 -0.1525158 0.06955634
000250 d6 3f a8 bd fa 4d 1f be 20 38 82 3d e4 4d 15 be
       -0.08215301 -0.1555709 0.06358361 -0.14580494
000260 54 7d 0b 3d 9b 55 eb bd 66 66 0b be 80 bb b5 3c
       0.03405507 -0.11490937 -0.1361328 0.022184134
000270 ce bb fd 3d 3c 7e 20 be 9e cb e7 3d 04 f6 2d 3d
       0.123893365 -0.15673155 0.11318134 0.042470947
000280 db 74 87 bd 00 a2 87 3c 71 c3 13 3e b8 9b de bc
       -0.06614085 0.01655674 0.14430024 -0.027173862
000290 b7 ae 1c 3e 70 14 c9 bd e0 93 5d bd 00 34 8f 3d
       0.15301023 -0.09818351 -0.054096103 0.0699234
0002a0 26 35 da bd 4b 75 e6 bd f0 dd 04 3d 17 e7 0c 3e
       -0.106546685 -0.112528406 0.03243822 0.13760029
0002b0 20 47 91 bb 14 ef 24 bd e8 62 98 3c aa 2e c9 3d
       -0.0044335276 -0.040267065 0.01860185 0.098233536
0002c0 ab 0a c6 bd 70 84 4d bc 3c 32 77 bd 80 c0 b9 ba
       -0.096700035 -0.012543783 -0.06035064 -0.0014171749
0002d0 67 bd 0f be 39 47 1d 3e 0e aa d5 3d 1a a9 d3 3d
       -0.14037095 0.153592 0.10432826 0.10334988
0002e0 de 67 a1 bd f8 69 ff 3c fb 4a 03 be 1a 4a 02 be
       -0.07881139 0.03117846 -0.12821572 -0.1272358
0002f0 77 b4 27 3e 60 b5 c2 bc 38 ca e0 bd fa 3c 92 3d
       0.16377436 -0.023768127 -0.1097607 0.071405366
000300 80 cc 82 3c 76 99 fd 3d 6c b7 67 bd 92 8f b4 3d
       0.015966654 0.12382786 -0.05657141 0.08816446
000310 6b 65 99 bd 4c dc 64 3d c5 11 19 3e 50 43 05 bc
       -0.07490047 0.055874154 0.14948185 -0.008133724
000320 1c 7d 14 be 0a 87 12 be f2 bf ea 3d 92 55 f4 3d
       -0.1450085 -0.14309326 0.11462392 0.11930384
000330 99 31 14 3e d2 d0 e2 3d 82 1c db 3d 95 52 19 3e
       0.14472045 0.110749856 0.10698797 0.14972909
000340 7a a2 e2 3d 18 8d c1 bd ae 8c 07 be 2a 43 e9 3d
       0.11066146 -0.094507396 -0.13237259 0.11389764
000350 94 46 74 3d 80 51 a3 3d a3 86 84 bd fb ba f3 bd
       0.05963762 0.07974529 -0.064709924 -0.11900898
000360 02 25 bb 3d 6c 66 3d bd 40 87 a8 3d 00 1f 1c bc
       0.09137918 -0.046240255 0.08228922 -0.009528875
000370 a0 3f c6 3c eb d4 9a bd 93 08 dd bd ff 66 0e be
       0.02420026 -0.07560142 -0.10792651 -0.13906477
000380 e6 f7 95 bd 0a 80 c7 3d 20 d5 ef bb e0 e3 84 bb
       -0.073226735 0.097412184 -0.0073191077 -0.004055485
000390 d0 49 6d bd 83 c3 c8 bd 8e 08 af 3d 30 0a 9b 3d
       -0.05793172 -0.09802916 0.085465536 0.075703025
0003a0 fe 2b e6 bd 81 ab 24 3e c0 a4 3a 3c 16 9e fa 3d
       -0.112388596 0.16081049 0.0113918185 0.12237184
0003b0 c6 46 d7 3d fe d8 e9 bd 16 c3 93 3d 5a 34 ae 3d
       0.10511546 -0.11418341 0.07214944 0.08506079
0003c0 c6 89 81 bd 06 40 f7 3d a0 cc fd bd 53 af a7 bd
       -0.06325106 0.120727584 -0.12392545 -0.08187737
0003d0 00 d5 79 bb d0 43 16 3d 58 7b ba 3c 70 df 32 3c
       -0.0038121343 0.036685765 0.022763893 0.010917529
0003e0 90 db f7 bd a2 18 af 3d 6a 15 ef 3d 50 c8 e1 bd
       -0.12102425 0.0854962 0.11674006 -0.11024535
0003f0 a0 bc 7a bd 9e dd 95 bd be fd 0f be 5c 0f 2e bd
       -0.061215043 -0.07317661 -0.14061639 -0.042495117

conv1.bias f4 [32]
000000 d6 a7 c5 3d 13 a6 04 be a0 fc b7 bd e6 e5 e0 bd
       0.09651153 -0.12953977 -0.08983731 -0.1098135
000010 60 70 7a bd 40 ee 74 3d 9c e5 20 be ec 7a 26 3d
       -0.061142325 0.059797525 -0.15712589 0.04064457
000020 41 e4 1b 3e 40 e0 70 bb ab 70 05 3e 7c 00 70 3d
       0.1522379 -0.0036754757 0.1303126 0.058594212
000030 60 7b b5 bd 5e 42 94 bd 0e 8b 94 3d f0 0f 1f bc
       -0.088614225 -0.07239221 0.07253085 -0.00970839
000040 6d 1f 23 3e 1e 17 fe bd b4 f4 34 3d 50 52 75 bc
       0.15929957 -0.12406753 0.04417868 -0.014973238
000050 0e 4e 94 3d 53 1c 23 be 50 b4 2f 3d 43 b6 be bd
       0.0724145 -0.15928774 0.04289657 -0.093121074
000060 c0 9a 91 bc 98 64 a3 bd c0 b6 2d bb 54 9f 77 3d
       -0.017773986 -0.07978171 -0.0026506633 0.06045468
000070 32 49 a4 3d 94 ed 0a be 78 02 a0 bd cf b8 12 3e
       0.080217734 -0.13567191 -0.07812971 0.14328311

conv2.weight f4 [64, 32, 3, 3]
000000 68 70 d8 3b 89 f1 15 3d 29 1a 49 3d b1 7d 16 3d
       0.0066051967 0.0366073 0.049097214 0.036740962
000010 5a 2e 1b bd 85 78 02 bd 4e 8e 92 3c aa 5c 9e 3c
       -0.037886 -0.031853218 0.017890122 0.019331295
000020 56 dc a1 3c 90 7d be bc db d9 3f bd 64 c9 bc bc
       0.019758385 -0.023253232 -0.046838623 -0.02304525
000030 b3 6e 07 3d 94 f1 e4 bc ae 8a 98 3c 7e d3 dd 3c
       0.033064555 -0.027947225 0.018620815 0.027078386
000040 9d 9d 29 3d 23 38 28 3d 56 ea a5 3c 15 5f 17 3d
       0.041410077 0.04106916 0.020253342 0.03695591
000050 9f 8e 6d 3d 89 57 05 3d 71 bf 6e 3d a0 15 eb ba
       0.057997342 0.032554183 0.05828804 -0.0017935522
000060 df f2 2b 3d 57 e5 ee bc ab 08 14 3d 30 d1 ca bb
       0.041979667 -0.029162092 0.03614108 -0.006189488
000070 5a 15 c3 3c a0 c7 32 3b ae ba 28 bd d6 80 df 3c
       0.023813892 0.002727963 -0.041193657 0.027283113
000080 95 5b 5d 3d 58 50 e0 3b d6 4e bc 3c e0 c3 5f 3b
       0.054042418 0.006845515 0.02298681 0.003414385
000090 6f b6 ec bc 04 8a b9 bc 76 d5 89 3c 99 ba 25 bd
       -0.028895585 -0.022648819 0.016825419 -0.040461157
0000a0 99 e9 5c bd 8c 04 2f bc 74 17 df bc e6 42 08 bd
       -0.053933714 -0.010682236 -0.027232863 -0.033266924
0000b0 40 dc 3d bc de 41 fb bc 14 00 05 3c 04 52 b2 bc
       -0.011588156 -0.030671056 0.008117694 -0.021767624
0000c0 1f cd 62 bd 3f 65 16 3d d4 57 40 3c e0 6b 1f bb
       -0.0553714 0.03671765 0.01173969 -0.0024325773
0000d0 6c d3 3f bc 7f 57 2d 3d bc 2e 61 bc 21 ad 13 3d
       -0.011708122 0.04231977 -0.0137440525 0.03605378
0000e0 d8 d9 8e 3b 9a ba a8 3c c8 8b f3 bb 3f 35 19 bd
       0.004359465 0.020596791 -0.0074324347 -0.037404295
0000f0 00 ac 61 3a 70 18 48 3b e0 ea b1 bb a0 6b 23 bd
       0.0008608699 0.0030532144 -0.0054296106 -0.03989756
000100 ba c5 ab 3c c4 50 5d 3c b9 86 3e bd 22 3a b5 3c
       0.020968307 0.013508026 -0.0465152 0.022122446
000110 26 fb b8 bc 89 15 17 3d cc 4e 4c bc cf 4e 1c 3d
       -0.022580694 0.036885772 -0.0124699585 0.038161095
000120 31 dc 0a 3d 14 55 33 3c 3f 65 3f 3d 20 8a 1f 3b
       0.033901397 0.010945577 0.046727415 0.0024343804
000130 44 e1 3d bc 11 ac 54 3d 16 f3 3e bd 95 57 24 3d
       -0.011589352 0.051921908 -0.046618544 0.040122587
000140 f8 dd 9e bb 30 9b 82 bc 61 5c 55 3d f4 e2 6e 3c
       -0.004848238 -0.01594314 0.052090053 0.014580477
000150 60 af 41 bd 34 14 4e bc 28 c1 f9 3b d9 da fa bc
       -0.04728639 -0.012578059 0.007621903 -0.030621933
000160 3d 0e 0f 3d 8c 93 4f bc 7e 32 b8 3c 68 3f 21 bd
       0.034925688 -0.012669455 0.022485014 -0.03936711
000170 9f 9e 64 3d db db 5e 3d a2 4c 83 3c 6a 4a 64 bd
       0.055815335 0.05440889 0.016027752 -0.05573503
000180 f2 97 92 3c 0e 83 8f 3c e0 f0 c5 3a 8e 5a 81 3c
       0.017894719 0.017518546 0.0015101694 0.01579025
000190 df 39 58 3d 17 d1 27 3d 5b b8 08 3d 92 cf e1 3c
       0.052789565 0.040970888 0.03337894 0.027564798
0001a0 0f 66 69 3d 91 93 4a bd 9d d3 64 3d e4 fa 58 3c
       0.056982096 -0.049457137 0.055865873 0.013243411
0001b0 9f 72 0f 3d 3b bf 41 3d 7d 80 32 bd 7d 2d 2b 3d
       0.03502142 0.047301512 -0.043579567 0.041791428
0001c0 a5 70 4a 3d 13 33 0d 3d 4e cc b0 3c ab 31 27 3d
       0.049423832 0.034472536 0.021581795 0.04081885
0001d0 37 7c 0a 3d 78 e6 89 3b cc 69 67 bd 15 71 4f bd
       0.033809867 0.004208382 -0.05649738 -0.050644953
0001e0 b6 e1 9c 3c 5f fb 46 3d 80 52 3b 3a 9b 1c 0f 3d
       0.019150596 0.04857957 0.00071457773 0.03493939
0001f0 9a 3e 16 bd 1c d9 51 bc 3e d7 dd 3c f7 c9 37 3d
       -0.036680795 -0.012808111 0.027080175 0.044870343
000200 e4 34 2d bd df cc 3a 3d 88 a0 91 3b 6c 57 19 3c
       -0.04228677 0.045605537 0.0044441856 0.009359222
000210 98 52 af bb 15 81 01 3d b9 c9 f0 bc 29 65 1c 3d
       -0.005350422 0.031617243 -0.029393064 0.03818241
000220 74 9d 65 3c 10 ec 61 bc 54 33 d8 bc d2 fa b5 bc
       0.0140145905 -0.013789192 -0.026391663 -0.022214327
000230 2a 01 a4 3c dc ca 3c 3c f3 d1 09 3d e7 20 38 3d
       0.020020086 0.011522975 0.03364749 0.044953253
000240 f9 79 63 3d cf bb 2d 3d 06 59 07 bd 48 e4 02 bc
       0.055536244 0.042415436 -0.033043884 -0.007988997
000250 98 e0 df bb e8 de 38 bd 82 22 e7 3c c0 41 79 3a
       -0.0068321936 -0.045134455 0.028214697 0.00095083937
000260 36 8b bd bc aa 31 05 bd 7a ac e3 3c a1 f5 20 3d
       -0.02313767 -0.032518066 0.027792204 0.03929675
000270 ba b8 f7 3c 6e e1 cc 3c e4 5f d1 bc 9a 21 3f bd
       0.030239452 0.025009837 -0.02555842 -0.046662904
000280 fe 5e 86 3c b4 79 16 bc a4 af 7e bc 2e a9 be 3c
       0.016402718 -0.00918429 -0.015544806 0.02327403
000290 73 2f 1e 3d 03 b1 3b 3d 9a aa 97 bc e3 a5 29 bd
       0.03861947 0.04582311 -0.018513966 -0.041417968
0002a0 d2 e8 96 bc 58 e8 db 3b 9e 00 99 3c 6a 69 c6 3c
       -0.018421564 0.006711047 0.018677052 0.024220187
0002b0 00 9c 10 38 20 e7 05 3b 9c be 0e bd 95 59 0b bd
       3.447756e-05 0.002043195 -0.034849748 -0.03402098
0002c0 3e 4a 5c bd f2 04 8e 3c d7 50 40 bd 24 1e 1f bd
       -0.05378174 0.017336342 -0.046952095 -0.038847104
0002d0 29 10 67 3d 0b 5e 25 3d 06 fe a1 3c b6 d4 e7 3c
       0.056411896 0.04037289 0.019774448 0.02829967
0002e0 6a 93 a9 3c ea 77 e6 bc ce 01 e4 3c 38 aa a4 bc
       0.020700175 -0.028133351 0.027832892 -0.020100698
0002f0 e4 b4 3a bd e0 bf 79 bb 59 0f 4f 3d b8 e8 d9 bc
       -0.045582667 -0.0038108751 0.050551746 -0.026600227
000300 fd 47 35 3d df 6c 68 bd d2 7f fd 3c 50 6d 0c bc
       0.044258106 -0.056744453 0.030944739 -0.008570984
000310 34 64 4b 3c 1c 31 31 3c 60 0e a6 bb a4 65 9d bc
       0.012414027 0.010814931 -0.0050676316 -0.019213505
000320 8c 4a 00 bc bc 66 07 bc d4 6b 0a 3c 20 93 5c bd
       -0.007830273 -0.00826424 0.00844856 -0.053851247
000330 96 69 92 3c e0 9d ea ba 98 fb 2c bd 16 25 f6 3c
       0.017872613 -0.0017899834 -0.042232126 0.03004698
000340 96 33 b2 3c b3 fb 04 3d 00 e9 b9 b9 81 2a 12 3d
       0.021753114 0.0324666 -0.00035459548 0.035685066
000350 8a 08 d9 3c e4 b5 08 3c 7a 9b 70 bd 70 1f 46 bd
       0.02649333 0.008344147 -0.058742024 -0.048369825
000360 bf 19 22 3d 24 45 6b bc 30 30 cb bc 2c 9c 0a 3c
       0.039575335 -0.014359746 -0.024803251 0.008460086
000370 e0 dd de ba 70 ad e8 bc f9 93 43 3d de 8c f5 3c
       -0.001700338 -0.028403014 0.04774854 0.029974397
000380 a0 85 28 3b b9 82 1a 3d 6b 78 35 3d 0c fa 74 3c
       0.0025714412 0.037722323 0.044304293 0.014952194
000390 ad 0c 60 3d 50 5c d3 bc b6 24 07 bd c4 36 66 bd
       0.05469959 -0.025800854 -0.032993995 -0.056204572
0003a0 dd 87 21 3d 91 a5 fa bc 98 65 a0 3b 08 1e f2 bb
       0.03943621 -0.030596526 0.0048949234 -0.007388834
0003b0 38 ea 9f 3b d3 65 57 3d 64 33 4f 3c a6 fb ec 3c
       0.004880216 0.05258734 0.01264653 0.02892859
0003c0 38 fa 34 bd a2 7a c1 3c 9e e3 e1 bc 6c 6d 1f 3c
       -0.04418394 0.023618046 -0.027574357 0.009730678
0003d0 56 dc d3 3c 32 9e da 3c 94 c6 6e 3c cb 7e 17 3d
       0.0258619 0.026686762 0.014573712 0.036986154
0003e0 2c 3b c7 bc c0 4b 42 3b 0a 9e c2 3c eb b9 07 3d
       -0.024320208 0.0029647201 0.023757 0.03313629
0003f0 10 d0 ff bc fc d3 37 bc 33 f1 03 3d 89 d8 11 3d
       -0.031227142 -0.011219975 0.032212447 0.035606895

conv2.bias f4 [64]
000000 50 55 b0 bc f9 71 48 3d 00 e8 5d 3b 90 75 33 bb
       -0.021525055 0.048936818 0.0033860207 -0.0027383305
000010 dd ee 18 3d ac f4 65 bd e2 61 b8 3c d5 75 f8 bc
       0.037337173 -0.05614154 0.022507612 -0.030329624
000020 b4 cf 00 bd 05 ca 66 3d 38 39 81 3b a4 ea 55 3c
       -0.03144808 0.056345005 0.0039435886 0.013056431
000030 9c c3 ab bc 0e e8 c2 3c 08 a4 d0 bb 68 2a d4 bb
       -0.020967297 0.023792293 -0.0063672103 -0.006474782
000040 c2 82 0f bd 80 c6 5e bb 99 0d 5d 3d c0 84 90 ba
       -0.03503681 -0.0033992827 0.053968046 -0.0011025891
000050 1e 22 dc 3c 88 4a 41 bc c7 7a 14 3d aa 76 22 bd
       0.026871737 -0.011797555 0.036249902 -0.039663948
000060 40 14 80 bb 80 6b b4 ba 0f 2e 6c bd 59 89 62 bd
       -0.003908664 -0.0013764948 -0.057661112 -0.055306766
000070 30 58 b0 bc 6e a8 2a bd 18 9d 1b bc 67 21 6e 3d
       -0.021526426 -0.041664533 -0.009497903 0.058137324
000080 bd 6f 23 3d 6c 78 6a 3c 8e ca 38 bd 00 10 64 b9
       0.039901484 0.014310937 -0.045115046 -0.00021749735
000090 a8 eb 8c 3b 31 b9 4f 3d 39 7c 3d 3d fd 23 67 3d
       0.0043005534 0.05071372 0.046261046 0.056430805
0000a0 7a 57 44 bd 38 42 07 bc 04 cf 69 3c ea 01 c2 3c
       -0.047934987 -0.008255534 0.014270548 0.023682553
0000b0 fc 50 26 bd 3d 99 0f 3d 20 42 4f bb e6 84 80 bc
       -0.040604576 0.03505825 -0.0031625107 -0.01568837
0000c0 d8 d4 d7 3b 5f 1a 55 bd 77 c8 12 bd 22 f6 ba 3c
       0.0065866522 -0.052027103 -0.03583571 0.022822443
0000d0 5c ef 18 3c 48 ee a2 bc 26 e5 be bc 86 e5 44 bd
       0.0093344115 -0.019889012 -0.023302626 -0.048070453
0000e0 83 46 51 bd a8 d8 39 bc 4b a0 01 3d b2 07 19 bd
       -0.051092636 -0.011343159 0.031647008 -0.037360854
0000f0 c2 44 d4 3c de 8e a1 bc 1b 46 3d 3d 6e 67 95 3c
       0.025911693 -0.019721445 0.046209436 0.018237796

conv3.weight f4 [128, 64, 3, 3]
000000 96 5f c8 bc db 91 fb bc a8 38 ba bc f6 6a ce 3c
       -0.024459641 -0.030709198 -0.022732094 0.025197487
000010 9a b5 de 3c 64 37 6c 3c c6 b9 ed bc f9 1c 00 3d
       0.027186204 0.014417503 -0.029019248 0.03127763
000020 16 9d be 3c 26 f4 dd 3c 08 a7 a1 3c dc ed 41 bc
       0.023268264 0.027093958 0.019732967 -0.011836495
000030 b0 ae 72 bb a0 a2 88 3c d0 aa f4 bc 37 da 06 bd
       -0.0037030391 0.016679108 -0.029866606 -0.03292295
000040 70 7b 85 3c 7a 43 ae 3c ba c4 e6 3c 78 5e f3 3b
       0.016294211 0.02127241 0.028169978 0.007427033
000050 0e 13 93 bc 5c b9 28 bd 59 c0 04 3d 35 37 2a 3d
       -0.017953422 -0.041192397 0.03241 0.041556556
000060 06 f2 3c bc 02 c1 b4 3c 65 d3 01 3d 44 7e 5e 3c
       -0.011532312 0.02206469 0.031695742 0.013579909
000070 90 dc b8 bc ab 2f 0f 3d 1e 37 ad 3c 80 91 15 3c
       -0.02256611 0.03495757 0.021144446 0.009128928
000080 a0 f2 8e bc 2a 9c b5 3c 23 2a a1 bc 36 b1 ab 3c
       -0.017449677 0.022169191 -0.019673413 0.020958524
000090 ca 7c ca 3c ba 8c ec 3c 70 b5 a3 3c 68 43 9b 3b
       0.024717707 0.028875697 0.019983977 0.00473826
0000a0 64 33 49 3c 7a ec 1a bd 0c e6 44 bc 78 00 92 bb
       0.012280319 -0.037823178 -0.012017738 -0.0044556223
0000b0 1b 8a b7 bc de e2 13 bd 80 d1 ea 3a 06 41 32 bc
       -0.022404721 -0.03610503 0.0017915219 -0.010879761
0000c0 54 15 4a 3c 56 49 e6 bc 80 0b df b9 01 ac 1f 3d
       0.012334187 -0.028111141 -0.00042542443 0.038982395
0000d0 fe 49 ff 3c 4b 95 9c bc 76 90 07 bd 08 ac ea bb
       0.031163212 -0.019114157 -0.033096753 -0.007161621
0000e0 70 cc 0e bb b6 d9 89 bc f3 4a 95 bc 8f 6e 08 3d
       -0.0021789335 -0.016827445 -0.018224215 0.033308562
0000f0 26 4c 84 bc 09 aa 17 3d 96 3b 5a bc 06 d4 ca 3c
       -0.016149592 0.037027393 -0.01331987 0.024759304
000100 4e c6 ce bc 9b 62 d3 bc f3 f1 12 3d 13 e1 de bc
       -0.025241043 -0.025803855 0.035875272 -0.027206933
000110 b4 f9 4d 3c a6 fb a0 bc 98 b2 fa bc 70 8a 02 bc
       0.012571741 -0.019651245 -0.030602738 -0.007967576
000120 50 8d 08 3c 43 2e 25 bd 75 f9 06 3d 07 15 1a 3d
       0.008334473 -0.04032732 0.032952745 0.03761771
000130 66 3b 78 bc 2e db 05 bd 02 8e be 3c c5 0f 21 3d
       -0.01515088 -0.03267973 0.023261074 0.03932168
000140 2e 81 03 bd 05 10 11 3d a0 2d 8f ba 9f e8 0e 3d
       -0.032105617 0.035415668 -0.0010923631 0.034889814
000150 e6 34 1c bd 20 ce 8a bc ee d0 04 bd df c9 1b bd
       -0.038136385 -0.016943991 -0.032425813 -0.038034316
000160 c8 00 cd bc d4 4f 04 bc 2e b9 c3 3c 40 5c 01 3b
       -0.025024787 -0.008075673 0.023892011 0.0019738823
000170 a0 90 20 bc 4a 56 8f 3c e0 c1 ce 3b 5b ba 8c bc
       -0.009800106 0.0174972 0.006309733 -0.017178705
000180 db c1 d3 bc 58 7b ad 3b 88 80 fa bc 0e ae 99 bc
       -0.025849273 0.0052942447 -0.030578867 -0.018759754
000190 d9 bb 22 3d fe 5b 13 bd 84 6b 00 bd e6 b1 4b bc
       0.039729927 -0.035976402 -0.031352535 -0.012432551
0001a0 6b 05 9b bc 1e cd ff 3c d6 62 ef bc 42 c1 fd 3c
       -0.018923482 0.031225737 -0.029221933 0.030975942
0001b0 c0 61 44 bc 92 11 82 3c cb 43 f2 bc 30 2a 75 bc
       -0.011986196 0.015877519 -0.029573342 -0.014963672
0001c0 84 c5 05 3c 0a 98 bc 3c eb 2d 8d bc f6 6c 3b bc
       0.008164767 0.023021717 -0.01723381 -0.0114395525
0001d0 5b 03 10 3d 99 e8 00 3d 17 ac 25 bd e6 73 d1 bc
       0.03515945 0.031471822 -0.04044732 -0.02556796
0001e0 6a aa c9 3c ca 5b 90 3c 30 e9 2e 3b 3e ed 84 3c
       0.024617393 0.017621893 0.0026689284 0.016226407
0001f0 ce 12 ca bc f4 90 09 bd 46 74 9b 3c 6f b9 09 bd
       -0.02466717 -0.033585504 0.018976342 -0.03362411
000200 c0 fc a8 bb 92 cc db 3c 20 56 8e 3a 5b 23 9c bc
       -0.0051570833 0.026830945 0.0010859407 -0.019059828
000210 80 9a 9b bb 9f 28 0a 3d 20 83 e9 bb b0 73 0e bd
       -0.0047486424 0.033730146 -0.007126227 -0.034778297
000220 9b dc 1c 3d 50 da 21 bb 30 b6 f5 bc f0 a7 42 3b
       0.038296323 -0.0024696775 -0.0299941 0.002970215
000230 46 80 9a bc a0 64 7f bc 40 cf 2d ba 0a 5c e1 3c
       -0.018859994 -0.015587956 -0.0006630309 0.027509708
000240 30 53 23 bb 96 0d a5 bc 7a 03 a8 3c 04 4b 21 bc
       -0.002492141 -0.02014808 0.02050947 -0.009844545
000250 a4 88 28 bc 40 dc 16 bd e8 3d 90 bb f2 b8 8f 3c
       -0.010286484 -0.03683114 -0.004401911 0.017544243
000260 50 86 52 3c 50 f8 ba bc 90 8d 14 3c 86 a5 78 bc
       0.012849405 -0.022823483 0.009066954 -0.015176183
000270 ba 44 21 bd b2 eb da 3c dc c5 59 bc 2e 18 a0 bc
       -0.039372183 0.026723716 -0.013291802 -0.01954278
000280 b8 f6 9f bc 00 d4 11 3c 38 a2 9d bc 1b e6 1d bd
       -0.019526824 0.008900642 -0.019242391 -0.038549524
000290 06 38 99 bc 14 84 76 3c aa 0f 04 bd 9e dd 85 bc
       -0.018703472 0.015046138 -0.0322415 -0.016341027
0002a0 a2 5d 05 bd 9a 40 ba 3c 16 9b 68 bc 0c a4 31 3c
       -0.03256 0.022735883 -0.014197132 0.0108423345
0002b0 f8 af b2 bc fe d5 eb bc 00 d9 7a b9 e8 ea f3 3b
       -0.021812424 -0.028788563 -0.00023922697 0.0074437745
0002c0 40 98 dd bc a8 b9 a4 3c 7a 68 cd 3c d0 2a 47 3c
       -0.027050138 0.020108059 0.025074232 0.012156203
0002d0 1a 12 cc 3c 00 2a e8 38 f7 f3 12 bd 60 26 bf bc
       0.024910975 0.00011070445 -0.035877194 -0.023333728
0002e0 08 f9 8c 3b 92 c0 c8 3c 54 65 6e 3c 53 4a 28 3d
       0.004302148 0.024505887 0.014550526 0.041086506
0002f0 1e 31 f8 bc 58 00 de bc 88 bc b2 3b 89 f1 28 3d
       -0.030296858 -0.027099773 0.0054546036 0.04124597
000300 40 ac d1 3b 9e 5f b6 bc 94 29 23 3c 7e c1 1c bd
       0.0063987076 -0.02226239 0.0099586435 -0.038270466
000310 be 64 f8 bc f8 ca f2 bb be 2a ce bc 90 c3 1c 3b
       -0.030321475 -0.0074094497 -0.025166865 0.0023920275
000320 4c df 59 3c dc e6 21 bc 38 13 eb bb d2 9c e3 3c
       0.013297867 -0.009881701 -0.007173922 0.027784739
000330 e0 43 d5 bb 64 99 29 bd 98 83 c6 3b 98 e2 8e bc
       -0.0065083355 -0.04140605 0.0060581677 -0.017442033
000340 0a 98 cd 3c 48 96 8e bb 60 af 9c 3c 72 df b3 3c
       0.025096912 -0.004351411 0.019126594 0.021957133
000350 46 4d b3 3c 88 d1 e9 3b 23 f6 0e bd dd 73 1e 3d
       0.021887433 0.007135574 -0.034902703 0.038684715
000360 52 da 99 3c 27 90 11 bd ab af 8a bc 27 e5 29 bd
       0.018780861 -0.035537865 -0.016929468 -0.041478302
000370 30 64 71 bb 20 7d ab 3b b6 19 6b bc 62 2d cd 3c
       -0.0036833398 0.005233422 -0.014349392 0.025046054
000380 b6 a5 cb bc ca 46 d4 3c 76 83 8b bc aa 20 0f bd
       -0.02485929 0.025912661 -0.017030459 -0.03494326
000390 1e 23 a5 3c 9d 5f 1a 3d 10 27 51 bc 78 e2 89 3b
       0.020158347 0.03768884 -0.012765661 0.0042079054
0003a0 49 2a 0e 3d 5d 8b 26 3d 66 16 c9 3c d8 60 ff bc
       0.034708295 0.04066025 0.024546813 -0.031174108
0003b0 48 93 97 bb da 6f e8 3c b2 f8 87 3c 8a 7c b0 3c
       -0.0046257116 0.028373647 0.01659808 0.02154376
0003c0 6b 48 0a 3d 64 fd 1c bd 6e 09 85 3c 20 4a a0 ba
       0.03376047 -0.03832759 0.016239848 -0.0012229122
0003d0 f0 0e 22 3c cb 0a 05 3d b0 5e 9b bc 40 22 f7 bb
       0.009891257 0.032480996 -0.018966049 -0.0075419247
0003e0 b8 25 89 3c 12 63 9b 3c cf 83 03 bd 08 36 fc bc
       0.016741619 0.018968139 -0.032108124 -0.030787483
0003f0 e6 ef 55 bc 42 a9 13 bd 71 00 22 3d a8 fe bb bc
       -0.0130576845 -0.03605009 0.039551202 -0.022948578

conv3.bias f4 [128]
000000 90 df 76 bb f8 b0 9b bc d0 d7 3d bc d8 c6 91 3c
       -0.0037669875 -0.019005284 -0.011587098 0.017795011
000010 1e de df 3c 02 4d b5 3c 53 97 d5 bc 40 7d 11 bc
       0.027327593 0.022131447 -0.026073134 -0.00887996
000020 73 8c dc bc 97 3f 07 bd 68 58 14 bd 94 a2 5f 3c
       -0.02692244 -0.03301963 -0.036217123 0.0136496015
000030 f8 6d 81 3c 00 31 7b ba 41 b3 08 3d f6 51 ff 3c
       0.015799507 -0.00095821917 0.033374075 0.031167012
000040 88 89 21 bd d0 bb 31 bc a0 fe 6d 3c 70 af 06 3b
       -0.0394378 -0.010848001 0.014526039 0.0020551346
000050 86 5f d7 3c 90 40 08 3c e4 9d 60 3c 6a 64 c0 3c
       0.026290666 0.008316174 0.013709519 0.023485381
000060 66 78 a4 bc c8 02 91 bb 6a 36 cd 3c f0 a5 07 bd
       -0.020076942 -0.0044253804 0.02505036 -0.033117235
000070 05 fb 02 3d a9 93 03 3d a6 af 28 bd 50 7b 15 bd
       0.031977672 0.03212324 -0.041183136 -0.036494553
000080 bf df 01 bd 5c 42 07 bd 94 f2 1c bd b0 f1 92 3c
       -0.03170752 -0.03302227 -0.038317278 0.017937511
000090 50 92 41 3b ce 85 cc 3c 56 2c da 3c 07 ca 21 bd
       0.0029536672 0.024966147 0.02663247 -0.03949931
0000a0 4e 38 f7 3c f0 62 0c bc 68 7a ed bc 76 16 4b bc
       0.030178215 -0.00856851 -0.028989032 -0.012395492
0000b0 8e 22 8d bc 76 01 e1 3c d0 1e 21 bb 98 b1 c0 bc
       -0.017228391 0.027466517 -0.0024585016 -0.023522183
0000c0 ca f9 e8 3c 80 c7 d9 bc ba ed cd 3c 00 99 ca bb
       0.028439421 -0.026584387 0.02513777 -0.00618279
0000d0 20 66 56 bc 00 c8 90 3b 5c 44 22 bc a0 ac a3 3b
       -0.013085872 0.004418373 -0.009903993 0.0049949437
0000e0 22 f5 1c bd 73 1b a3 bc e1 3d 18 3d 60 56 bd bc
       -0.038319714 -0.01991055 0.037168387 -0.023112476
0000f0 c6 ed eb bc 1e 46 89 3c 1c 3b 29 bd bc 45 63 bc
       -0.028799903 0.016757067 -0.041316137 -0.013871606
000100 f7 43 04 bd 08 fe a2 bc 2a d8 8b 3c 48 6e c6 3b
       -0.03229138 -0.019896522 0.017070848 0.006055627
000110 c6 ec 92 3c d0 e8 2f bb f0 e4 76 3b 42 33 93 3c
       0.017935168 -0.0026841648 0.0037673078 0.017968778
000120 9e d3 fb bc fc 9c 41 3c f2 0c bf 3c ed 3a 0b 3d
       -0.030740555 0.011817213 0.023321602 0.033991743
000130 50 52 46 bb e8 96 f4 bc 00 5b 20 bd 80 97 e3 bc
       -0.0030261464 -0.029857114 -0.039149284 -0.027782202
000140 ac f3 60 bc c0 d1 7f ba 8c 23 0f 3c 0b 2e c9 bc
       -0.013729971 -0.0009758733 0.008736502 -0.024558088
000150 52 1e d1 3c ff 06 1a bd a6 d1 7c bc c0 8a 0e bd
       0.025527153 -0.03760433 -0.015430843 -0.03480029
000160 ee 0b ae 3c 80 84 14 3c ea 2b c0 3c 8e 0d a6 bc
       0.021245923 0.009064794 0.02345844 -0.020270135
000170 1b a7 10 bd f3 42 13 bd 0e ec ae 3c c7 2d 20 bd
       -0.035315614 -0.03595252 0.021352794 -0.039106157
000180 4a cb 1b bd 83 80 a3 bc 48 6f 0b bd f6 3c fc 3c
       -0.03803567 -0.01995874 -0.034041673 0.030790787
000190 0f 02 17 bd 9f 33 12 bd f0 f1 f3 bc b4 42 13 bc
       -0.036867198 -0.03569376 -0.02977845 -0.008988071
0001a0 b2 c2 ab 3c 5e 52 be bc cb b7 03 bd c3 f8 f4 bc
       0.020966861 -0.023232635 -0.0321577 -0.029903775
0001b0 00 9c ef ba db 6b 10 3d 2f 5a 21 bd e0 53 2a 3c
       -0.0018280745 0.03525911 -0.039392646 0.010395974
0001c0 ab a7 16 bd 40 fd 29 ba eb 5c d4 bc 54 ed 05 bc
       -0.036780994 -0.00064845756 -0.025923213 -0.008174259
0001d0 40 74 e0 bb d3 be a2 bc 30 50 10 bd cb 00 c4 bc
       -0.0068497956 -0.019866383 -0.035232723 -0.02392616
0001e0 6b 55 16 bd c6 19 8f bc a0 64 c1 3b 5d bd 20 3d
       -0.036702555 -0.017468344 0.005901888 0.03924309
0001f0 88 a2 85 bb 2b 9e 8d bc c0 29 a4 3c e1 d4 20 3d
       -0.004078213 -0.017287334 0.02003944 0.039265517

act_conv1.weight f4 [4, 128, 1, 1]
000000 06 d5 38 3d 90 45 82 3c e4 48 83 bd 70 74 bc bc
       0.04512503 0.01590231 -0.06410387 -0.02300474
000010 53 a7 a7 3d c9 89 24 bd 40 32 0b 3b cc c1 00 3d
       0.081862114 -0.040170465 0.0021239668 0.03143482
000020 1a 86 49 bd 2a 80 66 3d 90 de 05 3c 03 60 b1 bd
       -0.049200155 0.05627457 0.008170739 -0.08660891
000030 52 be 6b 3d 9e 5f ef bc f4 b7 b7 3c 60 80 a1 3b
       0.05755455 -0.029220399 0.022426583 0.0049286336
000040 76 d5 89 bd 78 e5 3b bc ee f9 2f 3d 14 f7 5b bd
       -0.067301676 -0.011468284 0.04296296 -0.05370243
000050 43 03 b5 3d e4 79 8b bd fa 9c f9 bc 1e aa 3a 3d
       0.08838513 -0.06810358 -0.03047036 0.045572393
000060 f5 63 39 bd 5e b8 3f 3d ba 8b 79 3d 10 39 52 3c
       -0.045261342 0.046806686 0.06092427 0.012830988
000070 e3 83 a7 3d d1 f2 47 bd 63 a0 2b bd 7b 3d 83 3d
       0.08179452 -0.048815552 -0.041901004 0.06408211
000080 f8 d2 f6 3c e9 e8 98 bd 8a 5a 79 3d e7 b5 8d bd
       0.030129895 -0.07466299 0.06087736 -0.06919461
000090 84 a4 82 bd 86 68 0e 3d dd cf 60 bd 35 75 b3 bd
       -0.06379035 0.03476765 -0.054885734 -0.0876259
0000a0 6f 15 b1 bd ea 6c 19 3d ad e6 87 3d 80 e1 cb 3b
       -0.08646666 0.037457384 0.06635795 0.00622195
0000b0 92 e9 88 bd c6 f2 3c 3d a3 ae 9a bd 3e 9c 30 3d
       -0.06685175 0.046129964 -0.075528406 0.043117754
0000c0 e7 a0 98 bd ba 21 14 3d 28 bc 3e bc c4 32 e6 3c
       -0.07452565 0.036164977 -0.01164154 0.028100379
0000d0 eb 57 9a 3d ce c5 04 3d da c6 30 3d 4e 91 75 3d
       0.075363 0.032415204 0.04315839 0.059953026
0000e0 3a 02 5b 3d f4 a7 7a bd f0 95 b6 3c 20 a8 39 bd
       0.05346892 -0.06119533 0.022288293 -0.045326352
0000f0 3e 16 65 bd 63 81 97 3d c1 06 6b bd 92 49 1f 3d
       -0.055929415 0.073977254 -0.057379488 0.03888852
000100 60 f3 b1 3b 11 f1 a2 bd 38 52 5b bc 0c 2e cc 3c
       0.005430624 -0.07956136 -0.013386302 0.0249243
000110 92 e8 44 bd 2a e3 de bc 88 f7 f8 bc 4b 76 8c 3d
       -0.04807336 -0.02720793 -0.03039147 0.068585
000120 bb b5 8e bd 41 1c 8e 3d bc 69 a4 bd e3 f2 84 3d
       -0.06968256 0.06938983 -0.0802798 0.064916395
000130 2e 3e 21 3d 62 0f 96 bd d7 db a9 3d 4f 92 a9 3d
       0.03936594 -0.07327153 0.08293884 0.08279859
000140 14 6c ef 3c fa 4f 4c 3d 78 cf 29 3c 21 bc 9b 3d
       0.02922634 0.04988096 0.010364406 0.07604242
000150 f8 dc 53 bd 32 8f 79 bd 17 eb 92 3d f4 a8 9c bd
       -0.051724404 -0.060927577 0.07173746 -0.07649413
000160 ff 77 8d 3d 50 95 27 3c 24 67 a9 bc 8c c5 5f bd
       0.06907653 0.01022847 -0.020679064 -0.054631755
000170 7a 74 7e 3d 63 cf 87 3d 40 0e d8 3b 4a 73 0d 3d
       0.0621228 0.06631353 0.0065934956 0.034533776
000180 e0 f6 6c 3b 53 86 98 3d ce 70 0d 3d b7 0d 80 3d
       0.003615789 0.07447495 0.034531407 0.06252616
000190 4c 08 e5 3c bb 33 99 3d d3 08 b1 3d a0 1c 1d 3b
       0.027958058 0.0748057 0.08644261 0.002397336
0001a0 90 53 35 bc a8 5d 62 bc 16 30 32 bd 00 01 e4 b9
       -0.011067286 -0.013816275 -0.04350289 -0.00043488294
0001b0 c0 5a 83 bb 06 a6 b1 bd 3a f1 62 3d e0 79 0f 3c
       -0.004008621 -0.086742446 0.055405833 0.008757085
0001c0 f6 25 3e 3d 20 ac 61 bd a4 49 5a bd e2 a2 0e 3d
       0.04642292 -0.05509579 -0.053292885 0.034823306
0001d0 a2 d2 5b 3d 16 92 42 3d 30 d2 30 3c 90 da f6 3b
       0.053667672 0.0475026 0.0107923 0.007533379
0001e0 4c cb f7 bc 51 24 76 bd de 50 17 bd b9 4b 96 3d
       -0.030248307 -0.060093228 -0.036942355 0.07338662
0001f0 fa 19 43 3d 88 16 d8 3c 6b ac 9c 3d 2e cd 5c 3d
       0.047632195 0.026377931 0.076500736 0.053906612
000200 76 ce 4e 3d 71 a8 a0 bd 0a 31 02 3d 14 7a ad bc
       0.050489865 -0.07844628 0.03178505 -0.021176375
000210 d3 4a ad bd 00 46 9a 3a f0 a0 00 3d 36 db d5 bc
       -0.08461537 0.0011770129 0.031403482 -0.026105504
000220 8f 69 ab bd a0 b0 1a 3c 98 1e 45 bc 89 ce 06 bd
       -0.08369743 0.009441525 -0.01203122 -0.03291181
000230 c3 63 06 bd 91 b3 81 3d ee e8 40 3d ec b3 af 3c
       -0.032809984 0.06333078 0.04709714 0.021448098
000240 cb c1 8a 3d 42 95 96 bd 2e d0 42 3d d1 9b 98 bd
       0.06775244 -0.073526874 0.047561817 -0.074515946
000250 cb 22 69 bd d1 f3 91 3d 94 94 0b 3d 12 4c 60 3d
       -0.056917947 0.071265824 0.034077242 0.054760046
000260 f6 af 57 3d bb 64 91 3d 6c cb 60 bd bf eb 85 3d
       0.052658044 0.07099291 -0.0548815 0.065391056
000270 60 7c ef bb ad ab 86 bd f0 48 32 bd 3b 0e 8a 3d
       -0.007308528 -0.06575713 -0.04352659 0.067409955
000280 00 32 82 39 6d a0 af 3d 2f 6b 9f 3d f0 9d 15 3c
       0.00024832785 0.08575521 0.077841155 0.0091318935
000290 61 07 93 3d fa 81 44 3d 7a 7a 41 3d f4 e2 88 3c
       0.07179142 0.047975518 0.047235943 0.016709782
0002a0 83 95 b3 3d fe 61 88 bd 2c 4c c6 3c 00 ff a5 ba
       0.087687515 -0.066593155 0.024206243 -0.0012664497
0002b0 10 84 e1 bb b0 ad 03 3d 10 b2 9d 3b 40 7d 92 bb
       -0.006882198 0.032148063 0.0048124865 -0.0044704974
0002c0 44 ef f8 3c b0 55 05 bc 84 7d d3 3c b8 e7 cb bc
       0.030387528 -0.008138105 0.025816686 -0.024890766
0002d0 5a 8d 95 bd c5 ed a5 bd 12 1c f3 bc 3a cc a4 bd
       -0.07302351 -0.081019916 -0.02967647 -0.080467656
0002e0 28 3e 56 3c c1 01 b4 3d 8b b8 92 3d 30 16 79 bc
       0.013076343 0.08789397 0.07164105 -0.015203044
0002f0 1c 72 f9 3c b1 96 86 3d 7f 37 8c bd ac db c4 bc
       0.03044992 0.06571711 -0.068465225 -0.024030529
000300 e2 0b 4a 3d 68 72 bb bc da 5e ff bc 6a 98 b4 bd
       0.04932774 -0.022881702 -0.031173158 -0.08818133
000310 d8 94 20 bd ef d3 28 bd 2d bc 99 bd 8a 2b 5a 3d
       -0.03920445 -0.04121774 -0.07506595 0.05326418
000320 08 ac 47 3c 30 92 83 bd cf 7c 1f bd e4 d8 e7 3c
       0.012187012 -0.064243674 -0.038937386 0.028301664
000330 dd 73 87 bd d9 a2 a9 bd b8 7a a6 bc 48 66 a2 bc
       -0.06613896 -0.08283014 -0.020322189 -0.019824162
000340 90 07 b7 3b e2 bb 75 3d c4 53 d0 bc db 3b a4 bd
       0.0055856183 0.059993632 -0.025430568 -0.08019229
000350 8c ba e2 3c 90 30 d8 bb ac 86 e6 3c ea 5f 66 3d
       0.027676843 -0.006597586 0.028140388 0.056243815
000360 2a fa 8d bd 3f 24 38 bd ea 2a 8b bd 6d 74 aa bd
       -0.06932481 -0.044956442 -0.067952946 -0.08322988
000370 c0 21 3c bc 60 87 aa bc 20 e5 9d bd 40 c7 de 3b
       -0.011482656 -0.020816505 -0.07709718 0.006798655
000380 9e 1c 57 3d 8f e1 2a bd a2 35 de bc 76 21 82 bd
       0.052517526 -0.041719016 -0.027125183 -0.063540384
000390 8a 77 a3 bd 06 aa 65 3d d4 e1 c3 3c 7d 27 91 bd
       -0.07981785 0.05607035 0.023911394 -0.0708761
0003a0 51 c2 49 bd 1f 6d 99 3d 80 22 8b 3c 80 02 53 ba
       -0.04925758 0.07491516 0.016984224 -0.0008049384
0003b0 2d 67 91 3d 0e d4 d9 bc ac f7 b8 bc 88 e0 19 3c
       0.07099757 -0.026590373 -0.022579037 0.009391911
0003c0 80 30 56 3a f1 04 67 bd 00 96 48 ba 38 db d4 3c
       0.0008170679 -0.056401197 -0.0007651746 0.025983438
0003d0 68 cc d0 bc 1a 55 eb bc c0 6b 29 3c 10 6f 6d bc
       -0.025488093 -0.028727103 0.010340631 -0.014491811
0003e0 18 4a b8 3c 40 2a 55 3b 74 82 b5 bc 1e c3 45 3d
       0.022496268 0.0032526404 -0.022156931 0.04828178
0003f0 09 f4 8f 3d 2f e2 85 bd b2 ee ab bd 9d 88 99 bd
       0.07028968 -0.06537282 -0.08395137 -0.0749676

act_conv1.bias f4 [4]
000000 ae 0a a1 bd fd bd 27 bd fa fc 3f 3d 49 b6 ad 3d
       -0.07863365 -0.04095267 0.046872117 0.08482034

act_fc1.weight f4 [36, 144]
000000 0b 17 3a bd b2 ca 58 3d b8 df 83 bd 2b 70 76 bd
       -0.04543213 0.05292768 -0.06439155 -0.060165565
000010 34 16 a2 3c 70 98 b9 3c 00 f9 15 3b 9b 45 a5 bd
       0.019785978 0.022655696 0.0022884011 -0.08069917
000020 e2 d5 2a 3d a0 7c 9f bd 96 d2 93 bd 42 7f 2a 3d
       0.04170788 -0.07787442 -0.072179005 0.04162527
000030 bc 54 c0 3c a2 02 1a 3d 6e 8e 68 bd 88 56 43 3c
       0.023477904 0.037600167 -0.056776457 0.011922486
000040 51 3a 92 3d 66 38 d4 bc d0 e5 f0 3b 80 88 f1 3c
       0.07140029 -0.0259058 0.0073516145 0.029484034
000050 0c d5 94 bc 80 c9 ca bc e7 4c 80 3d 48 9f 0e bd
       -0.018167995 -0.024754286 0.06264668 -0.03481987
000060 1c 3f ca 3c 0c 78 d8 3c cc 9b b4 bc 4b 42 29 bd
       0.024688296 0.02642443 -0.022046946 -0.041322988
000070 a0 3e be bc 5d ef 91 3d fa 2a 6a 3d d4 81 8e 3c
       -0.023223221 0.07125733 0.057169892 0.017395891
000080 e0 90 60 bb f2 c9 18 3d 2a 11 97 bd 76 1b 08 bd
       -0.003426604 0.037301965 -0.07376321 -0.033229314
000090 63 c1 23 bd 08 33 2a bd e0 07 41 bb 95 25 a8 3d
       -0.03997935 -0.041552573 -0.0029454157 0.08210293
0000a0 bc a5 c7 bc 0f 90 97 3d 1e 80 3a 3d fb 44 a5 3d
       -0.02437102 0.07400524 0.04553234 0.080697976
0000b0 67 83 98 bd 00 9b eb 3a f0 90 ed bb e3 33 6c bd
       -0.07446938 0.0017975271 -0.007249944 -0.05766667
0000c0 b8 48 25 bd 21 26 8d 3d c0 c0 9c 3b 9a ae 4f 3d
       -0.040352553 0.06892038 0.00478372 0.050703622
0000d0 e0 d8 1c 3c 94 2d 90 bd a0 1f d5 bc 06 87 7f 3d
       0.009573191 -0.07039943 -0.026016057 0.062384628
0000e0 26 d4 c3 bc 00 98 60 bc f0 2a 84 bc 19 e5 9b 3d
       -0.023904871 -0.013708115 -0.016133755 0.07612056
0000f0 a7 ff 91 bd a0 f7 53 bb 78 19 a1 bd b8 94 2f bd
       -0.0712884 -0.003234364 -0.07866186 -0.04286644
000100 b1 36 a1 3d 80 1f 41 3b 8c 27 f8 3c 1b c8 a1 3d
       0.0787176 0.0029468238 0.030292295 0.07899495
000110 7b c7 62 bd b0 da 9c bd 32 2d 52 3d 94 e0 80 bd
       -0.05536602 -0.07658899 0.051312633 -0.06292835
000120 20 d1 38 3b a0 d7 f1 bc 20 f6 f8 3c 30 c7 86 bd
       0.002820082 -0.029521763 0.030390799 -0.06580961
000130 00 11 d1 3b 9b f4 98 bd 20 89 66 bc 51 2c 83 3d
       0.0063802004 -0.0746853 -0.014070779 0.06404937
000140 8c 2c 8c 3c 4d a4 95 3d b0 8a a0 3b 50 8a 82 bc
       0.017111085 0.073067285 0.0048993453 -0.015935093
000150 4f 90 a8 3d b0 29 bd 3c fe f0 75 bd 40 8f 3b bc
       0.0823065 0.023091167 -0.06004428 -0.011447728
000160 c0 79 66 3c f5 22 87 3d 60 f7 53 3c c0 dc f7 3c
       0.014067113 0.065984644 0.012937397 0.030256629
000170 a0 aa 18 3c 01 ca a8 3d 00 0c 30 bc 18 d7 1a bd
       0.009318024 0.08241654 -0.0107450485 -0.037802786
000180 10 7e e1 3b 00 b5 ef 3a 00 78 f6 ba 00 33 17 3b
       0.006881483 0.0018288195 -0.0018804073 0.002307117
000190 46 cf 19 3d d4 51 bd 3c aa a4 41 3d 75 f6 a1 3d
       0.037551187 0.023110308 0.047276177 0.07908336
0001a0 98 70 4c bd 00 b7 33 bd c2 e2 66 3d d0 66 07 3d
       -0.049912065 -0.043875694 0.056368597 0.033057034
0001b0 5d d3 83 3d 51 02 84 3d c0 b7 e2 3b 70 d2 9f bb
       0.06436799 0.06445754 0.0069188774 -0.004877381
0001c0 aa 96 a9 bd 50 36 d4 3b 62 e5 60 3d d2 36 29 3d
       -0.0828069 0.006476201 0.054906256 0.041312046
0001d0 00 f4 8c b9 10 0a 8d bc ec d1 f1 bc 60 d9 01 3d
       -0.00026884675 -0.017216712 -0.029519044 0.031701446
0001e0 28 16 6a bc 2e 16 65 bd 38 e2 2a bc f4 83 90 bc
       -0.014287509 -0.055929355 -0.010429911 -0.017641045
0001f0 78 ad 06 bd 86 ea 2a bd 52 3b 8c bd 7c cf f0 3c
       -0.032880276 -0.041727565 -0.06847252 0.029395811
000200 08 ea 20 bd 73 2a 55 bd 3a ea 6a 3d 90 30 bd 3b
       -0.03928569 -0.052042436 0.057352282 0.0057736114
000210 6c ba a7 3c c4 b3 95 bd 3e 5c 2a 3d 8e 3e 1f bd
       0.020474635 -0.07309678 0.041591875 -0.038878016
000220 1d dd a5 3d dc ce a1 bd 73 c0 6f bd 3c c6 82 bd
       0.08098815 -0.079007834 -0.058533143 -0.063854665
000230 dc 0e 9d 3c b6 97 5b bd 18 62 17 3c e2 e1 a8 bd
       0.019172125 -0.05361148 0.009239696 -0.08246209
000240 85 9f 81 3d a0 6b 2a 3c 20 4d 28 3d 18 5e 78 bd
       0.06329254 0.010401636 0.041089177 -0.06063661
000250 17 e9 85 bd de 8e 30 3d 45 e7 a1 3d 2c bf c1 bc
       -0.06538599 0.043105 0.07905439 -0.023650728
000260 bf 2b 93 bd fa 21 94 bd 70 16 cb 3c 26 32 7e bd
       -0.07186078 -0.07233043 0.024790972 -0.062059544
000270 19 4a 8c 3d 00 95 8a 39 d1 58 a0 3d 2a 4f 20 3d
       0.068500705 0.00026432425 0.078294404 0.039137997
000280 71 f7 90 3d fe 74 28 3d 02 8b a7 bd f0 13 09 bd
       0.07078446 0.041127197 -0.081808105 -0.03346628
000290 00 c4 34 bc 1d 8d a8 3d 73 ff 9e 3d 0b c0 33 bd
       -0.011033058 0.0823004 0.07763567 -0.04388432
0002a0 5b 9d 13 bd d3 4b 67 bd 23 9d 94 3d 92 e5 79 3d
       -0.036038738 -0.056468796 0.07256534 0.06100995
0002b0 36 36 2f bd 1e ad 89 bd 1e 65 34 bd 7b 38 68 bd
       -0.04277631 -0.067224726 -0.044041745 -0.05669449
0002c0 26 4c 2c 3d c2 2b 6f 3d 9c 70 9a bd 10 1b e3 3c
       0.04206481 0.05839134 -0.0754101 0.027722865
0002d0 e0 42 92 3c da 1b 7c 3d 40 e5 e5 3b ae 1e 80 bd
       0.017854154 0.06155 0.007015854 -0.06255852
0002e0 80 ef c5 bb b6 c2 0c 3d aa d1 5e 3d 44 d8 83 bc
       -0.0060405135 0.03436538 0.05439917 -0.016094334
0002f0 80 21 a4 bd 40 18 64 bc 7d 87 82 3d d0 91 81 bc
       -0.08014202 -0.013921797 0.063734986 -0.0158166
000300 00 3f 5e 3b cb b8 31 bd b7 6b 98 bd 70 a4 fb bb
       0.0033912063 -0.043389123 -0.0744242 -0.0076795146
000310 ea 06 72 3d 3c 66 95 bc 8c ce 89 3c fc ee d2 3c
       0.059088625 -0.018237226 0.016822122 0.025748722
000320 20 b7 47 bb 10 80 5c bd 82 3e 36 3d 9b d4 14 bd
       -0.0030474141 -0.053833067 0.044493206 -0.03633557
000330 2a cf 54 3d 79 de 81 3d 6c 10 ea bc b3 83 63 bd
       0.05195538 0.063412614 -0.028572284 -0.05554552
000340 71 1f a7 3d 08 05 40 3c 86 1a 40 3d 3f 56 a5 bd
       0.08160294 0.01171995 0.046900295 -0.08073091
000350 9e 4a 07 bd c8 21 87 bd d0 e6 73 bd 46 dd 59 3d
       -0.033030145 -0.0659824 -0.05954629 0.05318954
000360 d4 15 89 bc 7d ea 8c 3d 06 ec 3c 3d 70 14 ee 3c
       -0.016734041 0.068806626 0.046123527 0.02906248
000370 ab be 36 bd 7e 93 42 bd 60 db 7a 3c 03 bc 1f bd
       -0.04461543 -0.04750394 0.015311092 -0.03899766
000380 00 27 a3 ba 29 d6 97 3d 76 4a 57 3d 6e 9c 79 3d
       -0.0012447536 0.07413895 0.052561246 0.0609402
000390 1e c3 68 bd ef 8e 8d bd d8 16 09 bd 1e 96 6f bd
       -0.056826703 -0.06912028 -0.03346905 -0.058492772
0003a0 98 5d 77 3c 30 c5 80 bb 80 9c 21 bc 5c 59 f4 bc
       0.015097998 -0.0039297566 -0.009863973 -0.029827766
0003b0 73 95 90 3d 08 f7 2b 3c 5a 58 90 bd 98 bd 10 bd
       0.07059755 0.010495909 -0.07048102 -0.03533706
0003c0 c8 2b 07 3d 3b 24 9a 3d c5 fd 9a 3d 13 4e 25 bd
       0.033000737 0.07526442 0.07567934 -0.04035766
0003d0 03 b1 a5 3d fc a9 88 3c 2a 7d 77 3d 98 15 67 3c
       0.08090403 0.016682617 0.0604221 0.014104269
0003e0 52 ac 92 bd 3b 61 8c 3d 60 e8 89 bd c0 c5 76 bd
       -0.07161774 0.06854483 -0.06733775 -0.060247183
0003f0 9c d5 ab bc 35 a9 a5 3d b0 52 8a 3c b0 9b ec bb
       -0.02097588 0.08088914 0.016885132 -0.007220708

act_fc1.bias f4 [36]
000000 90 34 d0 3c c6 3d 86 bd 2d cf a8 3d 00 5b aa ba
       0.025415689 -0.06554751 0.08242641 -0.0012997091
000010 ac 09 a8 bc 9f 92 93 bd e0 6b 90 3c 86 31 63 3d
       -0.020512424 -0.072057 0.017629564 0.05546715
000020 90 5b 9f bb 2e 7d 05 3d 6e 4a 49 3d 4c f7 cb 3c
       -0.00486321 0.032590084 0.049143247 0.024898194
000030 e7 61 90 3d 2a ea 2c 3d 5f 89 86 3d c6 97 9e bd
       0.070499234 0.042215504 0.0656917 -0.07743792
000040 96 3f 51 bd 44 98 aa bd 5a 8c 2e 3d 48 10 9f bd
       -0.05108603 -0.083298236 0.04261432 -0.07766777
000050 f2 6b 32 3d bc 91 df 3c 56 f2 44 3d 60 ed 5c 3b
       0.043559976 0.027291171 0.048082672 0.0033710822
000060 f2 07 5e 3d fe 13 7f bd 04 52 8c 3c 70 c7 cc bb
       0.054206796 -0.062274925 0.017128952 -0.0062493607
000070 63 e5 27 bd 36 03 0b 3d 1e 87 5b 3d 8d 2a 8e 3d
       -0.040990245 0.03393861 0.053595655 0.0694171
000080 d0 3f fe 3b 00 ee 4d 39 a0 c5 f4 bc 1c 95 e3 3c
       0.007759072 0.00019638985 -0.029879391 0.027781062

val_conv1.weight f4 [2, 128, 1, 1]
000000 a8 6b 38 bc 98 29 03 3d 78 b5 d0 3c e5 be 51 bd
       -0.011256136 0.03202209 0.025477156 -0.05120744
000010 89 3a 81 3d db f0 91 3d c8 4a 4b bd 00 94 2e b9
       0.06309993 0.07126018 -0.049631864 -0.00016649067
000020 19 4d 48 bd a0 f5 79 bc 64 10 8d bc 00 ba a6 ba
       -0.04890165 -0.0152563155 -0.01721973 -0.0012720227
000030 fd a6 84 3d f3 e7 b4 3d 84 c6 12 bd 28 19 8b bd
       0.06477163 0.08833303 -0.03583385 -0.067919075
000040 40 6d e7 bc 0a be 6a 3d 0e cb 10 bd 24 d4 a7 bc
       -0.028250337 0.05731014 -0.035349898 -0.020486899
000050 58 47 1f bd 57 68 57 bd a4 a0 ad bc 8c 10 bf bc
       -0.038886398 -0.05258974 -0.021194763 -0.02332332
000060 aa d3 33 3d 6e 9f 1e bd 9d 35 5a bd 93 3f 87 3d
       0.04390303 -0.038726263 -0.053273786 0.06603923
000070 a8 ce 49 bd ae 28 58 3d 74 49 ce 3c 90 64 63 3c
       -0.04926935 0.05277317 0.02518151 0.013878956
000080 44 c8 b6 3c 83 76 06 bd 1e 80 1b 3d 02 ca 63 3d
       0.022312291 -0.032827865 0.03796398 0.05561257
000090 f2 4e 37 3d 54 75 df 3c 8c 89 84 bd ed 33 6a bd
       0.044753022 0.027277626 -0.064715475 -0.057178427
0000a0 b2 d6 2a 3d e4 20 b8 3c a4 d9 55 bd ea 93 60 bd
       0.041708656 0.022476621 -0.05220951 -0.05482856
0000b0 0d a8 a1 3d e6 e5 a2 bd dd 89 a2 bd 08 80 5f bd
       0.07893381 -0.07954006 -0.079364516 -0.05456546
0000c0 b7 df 54 bd 34 3c d5 bc 14 aa df 3c 67 3c 95 3d
       -0.051971164 -0.026029684 0.02730278 0.072869115
0000d0 20 eb 7a bb 20 a9 28 3b 00 da 45 3a d4 a3 5f bd
       -0.0038287118 0.0025735572 0.0007547438 -0.054599598
0000e0 be 8b f4 bc 29 d8 b1 3d 4a 64 4f 3d 81 12 87 3d
       -0.02985179 0.086838074 0.050632752 0.06595326
0000f0 ea f9 76 3d 04 47 03 3d d4 50 9c bc 80 a7 2c 3b
       0.06029693 0.032050148 -0.01908151 0.0026344955
000100 5b 7e 8e 3d 1c 29 80 3c 8b 0d a2 3d 4f 4d 8b 3d
       0.06957694 0.015644602 0.07912739 0.06801855
000110 f4 37 f4 bc 88 1e 0a 3c 00 d4 4c bb 2b 1c 9a 3d
       -0.029811837 0.008430131 -0.0031254292 0.07524904
000120 76 69 6a 3d dd 42 66 bd e0 17 e4 3b 08 10 b0 bc
       0.05722948 -0.05621611 0.006960854 -0.02149202
000130 98 2a 44 3c 90 85 85 3b 1e b5 4f 3d b5 6b b1 3d
       0.011973046 0.00407476 0.050709836 0.086631216
000140 b3 46 93 3d 40 6f b5 3a fa 01 9e bd 82 8c 4e 3d
       0.07191219 0.0013842359 -0.07715221 0.050426967
000150 bc 6b c8 3c cd aa ab bd f5 50 a0 bd 0a 07 a1 bd
       0.024465434 -0.08382187 -0.07827941 -0.07862671
000160 64 12 81 3c 04 ec fa 3c bc 02 be 3c e0 03 84 3b
       0.01575584 0.03063012 0.023194663 0.0040287822
000170 28 94 a2 bd a0 e8 5c 3b c0 61 6e bc 39 78 b2 3d
       -0.07938415 0.0033707991 -0.014549673 0.08714337
000180 9e 0a 4f 3d f3 97 1c bd ac b1 c9 3c e4 38 02 bd
       0.050547235 -0.038230848 0.024620853 -0.031792536
000190 c0 f7 87 bb 0c 8f e9 3c 68 d7 67 3c 52 d1 80 bd
       -0.004149407 0.028510593 0.014150478 -0.06289925
0001a0 b0 79 04 3c b0 e1 28 bc 51 e8 a9 3d d7 ce 39 bd
       0.008085653 -0.010307714 0.08296264 -0.045363273
0001b0 e1 c1 b3 3d 51 39 3e bd 86 46 47 3d a2 4f 48 3d
       0.08777214 -0.04644138 0.04865124 0.04890407
0001c0 63 78 06 bd 46 11 78 3d 0e 42 59 3d 79 8f 93 bd
       -0.032829653 0.06056335 0.05304151 -0.072050996
0001d0 0a 35 a1 bd 12 0f 01 3d 15 cf 1e bd a4 80 17 bd
       -0.078714445 0.031508513 -0.038771708 -0.036987916
0001e0 fb 54 81 3d 93 55 b2 bd 86 b8 0e 3d c4 45 b1 bc
       0.06315037 -0.08707728 0.034843944 -0.021639712
0001f0 19 2b 1a bd e0 7f 58 3b b0 e8 cc bc 3a 2d a1 bd
       -0.037638757 0.0033035204 -0.025013298 -0.078699544
000200 32 ea 0d bd 13 79 36 bd 88 4b 64 3c d0 3b 4c bc
       -0.034647174 -0.04454906 0.013934024 -0.012465432
000210 48 80 20 3c 65 89 01 bd 0a ba 7a bd 47 6c ad bd
       0.00979621 -0.03162517 -0.061212577 -0.08467918
000220 bb 7f a5 3d 63 8e ae 3d 14 f1 c5 bc 07 6f 84 3d
       0.08081003 0.08523252 -0.024162807 0.06466489
000230 ea 7f 7d 3d 98 5f 76 bc 27 7e ac 3d d4 9e 90 3c
       0.061889566 -0.01503744 0.08422499 0.01765386
000240 2c fd 02 3d b0 fd a9 3c bc ca e0 bc b8 b7 b5 3c
       0.031979725 0.02075085 -0.027440421 0.02218233
000250 d2 87 46 3d 7b 10 9f 3d 70 37 a2 3c 00 e1 8f bb
       0.048469372 0.07766815 0.019801825 -0.0043908358
000260 94 08 03 3d c0 3a f6 3b 79 3f a8 3d 79 22 9d 3d
       0.031990603 0.0075143278 0.082152314 0.07672591
000270 8c 95 d9 3c 33 35 0f bd e2 c3 21 bd 24 ea c5 bc
       0.026560567 -0.034962844 -0.03949345 -0.024159499
000280 b6 8e 2a 3d 00 34 ca 39 08 04 a1 3c 00 17 d8 3b
       0.041640006 0.00038567185 0.019655243 0.0065945387
000290 a6 28 2f 3d c9 e5 aa 3d 69 1f 46 bd d3 4e 9d bd
       0.042763375 0.08344609 -0.0483698 -0.0768105
0002a0 10 c8 53 bd 4b 90 1a bd 15 28 b3 3d 9a 54 19 3d
       -0.051704466 -0.037735265 0.087478794 0.037434198
0002b0 e3 54 8e 3d d6 54 ff bc 09 0d 33 bd ef 4b 16 bd
       0.069497846 -0.031168383 -0.043713603 -0.03669351
0002c0 64 de 80 3c c6 d0 24 bd d0 04 ad 3b e0 69 c3 3b
       0.015731044 -0.040238164 0.0052801147 0.005963549
0002d0 10 5e 14 bc c6 e7 ac bd 70 44 a3 3c 13 71 47 bd
       -0.009055629 -0.08442645 0.019930094 -0.04869182
0002e0 56 29 41 3d 78 11 85 bc e0 64 53 bc f8 e6 9a bc
       0.04715856 -0.016243681 -0.012902468 -0.018908963
0002f0 bd c9 8a bd 38 67 1d bc 86 2a 72 bd d2 4e 41 3d
       -0.0677676 -0.009607129 -0.059122585 0.04719431
000300 f0 58 8f bc 68 0e 07 bd 90 60 ed bb d8 dc 7e bd
       -0.017498463 -0.032972723 -0.007244177 -0.06222233
000310 7c e5 3e bd b3 a7 30 bd 6d b0 90 3d 16 b8 45 3d
       -0.046605572 -0.04312868 0.070649005 0.04827126
000320 c2 d7 61 3d 83 41 8b 3d a9 2c a9 bd 87 7d 97 3d
       0.055137403 0.06799605 -0.082604714 0.07396989
000330 90 3e c9 3c 08 26 92 3c 20 71 a1 3c e0 0f 46 bc
       0.024565965 0.0178404 0.019707263 -0.012088746
000340 24 94 8b bc b3 7c 9f bd 28 8b da 3c 52 c1 58 3d
       -0.017038412 -0.07787456 0.026677683 0.05291874
000350 84 c4 8e 3c ae 27 fa bc c0 d9 79 3c 63 d2 aa 3d
       0.01742769 -0.030536499 0.01524967 0.08340909
000360 e0 78 ff 3c 97 60 ad bd c4 8a e1 3c 1a da 49 3d
       0.031185567 -0.08465689 0.027531989 0.049280263
000370 36 a7 6a 3d 59 98 90 3d 00 d9 ec 3b 7b e4 8d 3d
       0.05728837 0.07060308 0.007228017 0.06928345
000380 2a f0 00 bd d8 b8 ac bc 54 f3 b3 bc 05 67 8d 3d
       -0.03147904 -0.021084234 -0.021966614 0.06904415
000390 70 1a 92 3b 8b 61 a0 3d d4 79 8a 3c d6 f4 5b bd
       0.004458718 0.07831105 0.016903795 -0.05370029
0003a0 64 f8 14 bd 30 fc e5 3b e8 6a 08 bc da bd 4c 3d
       -0.036369696 0.0070185885 -0.00832627 0.049985744
0003b0 0e a5 4c bd 45 55 ae bd af ea b3 3d f0 11 1a bc
       -0.049962096 -0.085123576 0.08784997 -0.009403691
0003c0 09 f9 80 bd 54 5d 6e bd 12 ad 93 bd 7e 26 38 3d
       -0.062975 -0.058194473 -0.07210745 0.044958584
0003d0 32 30 7a bd ba 6b 8b bd b5 42 ab 3d 98 2f 45 3c
       -0.06108112 -0.068076566 0.08362333 0.012035273
0003e0 dd c8 95 bd 6e 57 70 3d 1f 84 8c 3d 00 c0 f2 3b
       -0.07313702 0.05867713 0.068611376 0.007408142
0003f0 a8 32 97 bc b0 dc b0 3c 57 59 b0 3d 62 78 72 3d
       -0.018456772 0.021589607 0.0861079 0.059196837

val_conv1.bias f4 [2]
000000 36 c1 4b bd 6e 91 41 3d
       -0.049744807 0.047257833
