Connect6/BitBoard/model/6_6_4_current_policy_test_1_games.model (torch, 414702 bytes, 15 tensors)

conv1.weight f4 [32, 4, 3, 3]
0	0xbdcbb5be	-0.09946774
1	0xbcca30a0	-0.02468139
2	0x3bb05e00	0.0053822994
3	0x3da5d4c8	0.080972254
4	0xbd1e5254	-0.038652733
5	0xbdf52930	-0.119707465
6	0xbe07c972	-0.13260439
7	0xbdf4979b	-0.11942979
8	0xbdbe4576	-0.09290592
9	0xbd2db06c	-0.042404577
10	0xbe05a91a	-0.13052788
11	0xbd72ebd6	-0.059306942
12	0xbdaef288	-0.08542353
13	0xbdd25933	-0.1027092
14	0xbde1b3d8	-0.110206306
15	0xbe22b77b	-0.15890305
16	0xbe11e98e	-0.1424925
17	0x3d278cc4	0.04090573
18	0xbd583010	-0.05278021
19	0xbe1b9967	-0.15195237
20	0x3dc6e6c6	0.09711985
21	0xbd716b56	-0.058940254
22	0xbd514126	-0.05108752
23	0xbc155f10	-0.009116903
24	0xbe20859f	-0.15675972
25	0x3dbb4d12	0.09145559
26	0xbe27d937	-0.16391455
27	0x3cfd5fa8	0.030929402
28	0x3e2997e9	0.16561855
29	0x3e25901d	0.16168256
30	0x3dce9db2	0.10088672
31	0xbd86c1cb	-0.06579932
32	0x3cd55038	0.026039228
33	0x3da7ec4e	0.081993684
34	0xb84dd000	-4.9069524e-05
35	0x3e12aa97	0.14322887
36	0xbcbdd638	-0.023173437
37	0x3d9370e2	0.07199265
38	0x3cd60ea8	0.026130036
39	0xbddcfd88	-0.10790545
40	0x3d9c3e9a	0.07629128
41	0x3ced6658	0.028979465
42	0x3bbbb8a0	0.005728796
43	0x3e115e65	0.14196165
44	0x3d5ccf7c	0.05390881
45	0x3b46d4c0	0.0030339211
46	0xbdaf4196	-0.085574314
47	0x3da8fbc6	0.08251147
48	0xbd851798	-0.06498641
49	0x3d696efc	0.05699061
50	0xbe080873	-0.13284473
51	0xbe1f46e4	-0.15554386
52	0xbe1dabcc	-0.15397567
53	0x3dc54992	0.09633173
54	0x3dc46eae	0.09591423
55	0xbd495f06	-0.049162887
56	0xbe05224a	-0.13001361
57	0x3e0dcd0d	0.13847752
58	0xbdb90bd3	-0.090354584
59	0x3e137aed	0.14402361
60	0x3da1280e	0.07868968
61	0x3d20e7b4	0.03928347
62	0x3e261381	0.16218378
63	0x3c8dcfc8	0.017310992
64	0xbd5e86a6	-0.05432763
65	0xbd799df0	-0.060941637
66	0x3d846888	0.0646525
67	0xbe2a5ad8	-0.16636217
68	0x3e0089a9	0.12552513
69	0xbe1012a7	-0.14069615
70	0x3a61bc00	0.0008611083
71	0x3d45659c	0.048192605
72	0x3dc136e2	0.09434296
73	0xbd870063	-0.06591871
74	0xbe121722	-0.14266637
75	0xbda7c513	-0.08191886
76	0x3e1d6e11	0.15374018
77	0x3d67db54	0.056605652
78	0xbd498ca0	-0.049206376
79	0xbdf95686	-0.12174706
80	0xbda9a436	-0.08283274
81	0x3c942100	0.018082142
82	0x3d8ae48a	0.067818716
83	0xbdc47848	-0.09593254
84	0x3e1cf74b	0.1532871
85	0xbdc95fb3	-0.09832706
86	0x3d5342cc	0.051577374
87	0xbd19e9e4	-0.03757657
88	0xbc3ab1c0	-0.011394918
89	0xbd0710f4	-0.032975152
90	0x3dfbc9a6	0.12294321
91	0xbe21934f	-0.1577885
92	0x3e227bb1	0.15867497
93	0x3cdffe40	0.027342916
94	0x3dc66a5a	0.09688254
95	0x3e21abf3	0.1578825
96	0xbd4330f0	-0.047654092
97	0x3cad6d08	0.021170154
98	0xbdef0d23	-0.116724275
99	0x3e29d947	0.16586791
100	0x3e29b001	0.16571046
101	0x3df9fcae	0.12206398
102	0x3e199881	0.14999582
103	0xbcaa5fb8	-0.020797595
104	0x3e247305	0.16059501
105	0x3bc93380	0.0061401725
106	0x3c9ecb38	0.019384012
107	0xbd42b226	-0.047533177
108	0x3d98102e	0.07424961
109	0x3d8489a6	0.06471567
110	0xbd9091e0	-0.070590734
111	0xbc922858	-0.017841503
112	0x3e289399	0.16462554
113	0x3cb8c9b8	0.022557124
114	0xbc7566d0	-0.014978126
115	0x3c296a50	0.010340288
116	0xbe18b0f6	-0.14911255
117	0x3a06c000	0.00051403046
118	0xbd3fde20	-0.046842694
119	0x3b8dd020	0.004327789
120	0xbdfe123b	-0.12405821
121	0xbd3004d6	-0.042973362
122	0xbdffb366	-0.124853894
123	0x3dbf8ace	0.09352647
124	0xbd65f4ec	-0.05614178
125	0x3dbf5362	0.09342076
126	0xbd98d220	-0.07461953
127	0xbde290de	-0.110627875
128	0x3e149c8d	0.14512844
129	0xbdae08a0	-0.08497739
130	0x3e0b3e15	0.13597901
131	0xbdcc8cc3	-0.09987786
132	0xbddcd320	-0.107824564
133	0x3cb553a8	0.022134617
134	0x3e08858f	0.13332199
135	0x3c6959b0	0.014242575
136	0x3d32d4c0	0.043659925
137	0xbcb2aea8	-0.021811798
138	0x3de793fa	0.11307521
139	0xbdf367f8	-0.11885065
140	0x3e175f25	0.14782389
141	0xbc18b5f0	-0.009320721
142	0x3de05a92	0.10954775
143	0x3da8dce6	0.08245258
144	0x3def931a	0.11697979
145	0xbd211184	-0.039323345
146	0xbe27c4bc	-0.16383642
147	0x3d3ae350	0.04562694
148	0x3e25d463	0.161943
149	0x3d6a5bc4	0.05721642
150	0x3e2820a9	0.16418709
151	0xbdce54bb	-0.10074755
152	0x3c621910	0.013799921
153	0x3e055e85	0.13024338
154	0x3d49cf40	0.049269915
155	0x3d592880	0.05301714
156	0xbbc46a60	-0.005994126
157	0x3df3cfd2	0.11904873
158	0x3d41c9e0	0.047311664
159	0x3e12fe1b	0.14354746
160	0xbdcfffe8	-0.10156232
161	0x3d88d122	0.06680514
162	0x3dce5cea	0.10076316
163	0x3dfb3a6a	0.12267001
164	0xbd523c5c	-0.051327094
165	0x3db22b56	0.08699672
166	0xbe068518	-0.13136709
167	0x3e1d7451	0.15376402
168	0xbd928233	-0.0715374
169	0xbdac94f3	-0.08426847
170	0xbc634870	-0.013872251
171	0xbdea4750	-0.11439383
172	0xbe21fc0c	-0.15818805
173	0x3e22a471	0.15883042
174	0xbe0b8db6	-0.13628277
175	0xbe0ed76f	-0.13949369
176	0x3cf523a8	0.029924229
177	0xbd88c30e	-0.06677829
178	0xbdcba123	-0.09942844
179	0x3d424e8c	0.04743819
180	0xbd8fdf73	-0.070250414
181	0xbd685fc6	-0.05673196
182	0x3e1feb61	0.15617134
183	0xbe119dd2	-0.1422036
184	0x3c986fb8	0.01860796
185	0xbe1c485f	-0.15261982
186	0xbde88ccb	-0.11354979
187	0xbaf49000	-0.0018658638
188	0xbdd58dee	-0.104274616
189	0xbd2641ac	-0.040589973
190	0x3c2d7200	0.010586262
191	0x3d2762d0	0.04086572
192	0xbddc66b6	-0.10761778
193	0xbd4c25a6	-0.04984059
194	0xbda806a3	-0.08204391
195	0xbd8c8d18	-0.06862849
196	0xbce4dfa8	-0.027938679
197	0xbdfee056	-0.124451324
198	0xbe0cb750	-0.13741803
199	0xbe1199d3	-0.14218836
200	0xbc34b600	-0.01102972
201	0x3de262c2	0.11053993
202	0x3d82ca2e	0.06386219
203	0xbe1ed932	-0.15512541
204	0x3e09c06b	0.13452308
205	0xbde3cb40	-0.11122751
206	0x3d387d9c	0.045041665
207	0xbdde5e43	-0.10857823
208	0xbc807068	-0.0156786
209	0xbe215c32	-0.15757826
210	0x3e16136b	0.14655845
211	0x3d9ede5e	0.07757257
212	0x3c297d80	0.010344863
213	0xbd9a6616	-0.075390026
214	0xbde3f918	-0.11131495
215	0xbc295a00	-0.010336399
216	0x3b482e00	0.0030544996
217	0x3e266985	0.1625119
218	0xbe1eea3b	-0.1551904
219	0x3dc3ebe2	0.095664755
220	0x3cdc14b8	0.026865348
221	0x3e1704cd	0.14747925
222	0xbda0c85e	-0.07850717
223	0x3d3b6914	0.045754507
224	0x3d1e2950	0.038613617
225	0x3ce64e98	0.028113648
226	0x3dda9a6a	0.106739834
227	0xbdf2ca60	-0.11855006
228	0xbc1028f0	-0.008798823
229	0x3d5888d4	0.052864864
230	0xbc12be90	-0.008956566
231	0x3cb90a80	0.022588015
232	0x3ca6a4f8	0.020342335
233	0xbe1149c8	-0.14188302
234	0xbdc1282e	-0.09431492
235	0xbdb5f68e	-0.08884917
236	0xbe1e2f6b	-0.15447776
237	0x3affc180	0.0019512624
238	0xbda755b8	-0.081706464
239	0x3e20de19	0.15709724
240	0x3cb83098	0.022484109
241	0xbe071b54	-0.13194019
242	0xbd2d86d0	-0.042364895
243	0x3cdb8098	0.026794717
244	0xbd7a5c60	-0.061123252
245	0xbcccd2a8	-0.025002792
246	0x3ded4ffa	0.1158752
247	0xbc844800	-0.016147614
248	0x3ce38738	0.027774438
249	0x3de97822	0.11399867
250	0x3da7ea60	0.08199
251	0x3db6e962	0.08931233
252	0x3d9601c6	0.07324557
253	0xbe2a8f5f	-0.16656254
254	0x3dcc0132	0.099611655
255	0x3d8e4662	0.06947018

conv1.bias f4 [32]
0	0xbe264fce	-0.1624138
1	0xbd66ead0	-0.05637628
2	0x3c86d418	0.016458556
3	0x3cd2f080	0.025749445
4	0xbe1fd98e	-0.15610334
5	0x3de56582	0.11201002
6	0x3d54a4ec	0.051915094
7	0x3c9baf00	0.019004345
8	0xbde76e5b	-0.113003455
9	0x3d0cba9c	0.034357652
10	0xbddecfbb	-0.10879465
11	0xbe21547f	-0.15754889
12	0xbd9430d3	-0.07235875
13	0x3e19e19d	0.15027471
14	0x3e1d1d47	0.153432
15	0xbac81280	-0.0015264302
16	0xbe015a84	-0.12632185
17	0x3d1cdf70	0.038299024
18	0xbd8c09d0	-0.06837809
19	0xbdc2cc4e	-0.09511624
20	0xbc8d9798	-0.0172842
21	0x3d2d863c	0.042364344
22	0x3ddc08ba	0.10743852
23	0x3d0dd524	0.034627095
24	0x3d034944	0.032052293
25	0xbd3efd3c	-0.046628222
26	0x3e0a3c99	0.13499679
27	0xbdb16cbe	-0.08663319
28	0x3d904e90	0.070462346
29	0x3dc5986a	0.09648211
30	0xbd2248c4	-0.039620176
31	0x3e151203	0.14557652

conv2.weight f4 [64, 32, 3, 3]
0	0xbcf7efec	-0.03026577
1	0xbca4328e	-0.020043638
2	0x3d685385	0.056720275
3	0x3cc57e9a	0.02410822
4	0xbd042812	-0.032264777
5	0xbd5e2340	-0.054232836
6	0x3d0413ad	0.032245327
7	0x3c05a1bc	0.008156236
8	0xbd09ab9a	-0.033610918
9	0xbbb9a1e0	-0.005665049
10	0xbd303c49	-0.043026242
11	0xbd423285	-0.04741146
12	0x3c9a62c2	0.01884592
13	0xbcc0459a	-0.023470689
14	0x3cee427e	0.02908444
15	0xbc9c930a	-0.019113082
16	0x3b202260	0.0024434552
17	0xbd2c31ba	-0.04203961
18	0x3cd92952	0.02650896
19	0xbd2b579e	-0.041831605
20	0xbc9475a2	-0.018122498
21	0x3c761abc	0.015021022
22	0xbcc30b5c	-0.023809128
23	0xbcb701e0	-0.022339761
24	0xbd18fe5a	-0.037351944
25	0x3b2038f0	0.0024448
26	0x3b7c1bf0	0.00384688
27	0xbc00ccdc	-0.007861342
28	0xbb005070	-0.0019579194
29	0xbc55e5a4	-0.013055239
30	0x3cff6716	0.031177085
31	0x3cbf6aea	0.02336641
32	0xbd6ebc05	-0.05828478
33	0x3d365ec9	0.044523988
34	0xbb862058	-0.004093211
35	0xbd0d606e	-0.03451579
36	0xbd6069f9	-0.054788563
37	0x3d713c7d	0.058895577
38	0xbbd16100	-0.006389737
39	0x3d44a2bd	0.04800676
40	0xbc972ff2	-0.01845548
41	0x3d4daef3	0.050215673
42	0x3cb5678e	0.022144105
43	0xbd004460	-0.031315207
44	0x3cb0aa42	0.02156556
45	0x3d47846b	0.048710268
46	0xbcd5fb84	-0.026120909
47	0x3c94a38a	0.018144388
48	0x3d2dc45d	0.042423595
49	0x3d0c59bf	0.034265276
50	0xbcd6fe6c	-0.026244365
51	0x3a576d40	0.00082178786
52	0x3b8d2bd8	0.004308205
53	0xbcaf13fe	-0.021371838
54	0x3c79c0fc	0.015243765
55	0x3d02279b	0.031776052
56	0x3cb8b622	0.022547785
57	0x3d40a26f	0.04702991
58	0xbd606170	-0.054780424
59	0xbd2fa83a	-0.042885043
60	0x394beb00	0.00019447133
61	0xbce15b6e	-0.027509417
62	0x3c4ed2b4	0.012623478
63	0xb973c800	-0.00023248792
64	0x3c596444	0.013268534
65	0x3d5d6559	0.05405173
66	0xbd1be331	-0.038058463
67	0x3d2d9ef3	0.042387914
68	0xbc64d3d0	-0.013966516
69	0xbcb113ec	-0.021615945
70	0x3ce3da46	0.027814042
71	0xbd37c69b	-0.04486714
72	0xbcbda3fe	-0.023149487
73	0x3cefbca6	0.02926476
74	0xbd6060f0	-0.054779947
75	0xbce39ce2	-0.027784768
76	0x3d3b219f	0.04568636
77	0xbd2b3aa8	-0.041803986
78	0xbc9119e6	-0.017712545
79	0x3baefc28	0.005340118
80	0x3cb48226	0.022034716
81	0x3cb56cee	0.022146668
82	0x3c76e594	0.015069384
83	0xbd125fbf	-0.03573584
84	0xbccd4c20	-0.025060713
85	0xbd65e80a	-0.056129493
86	0xbd654252	-0.05597145
87	0x3d4328a9	0.0476462
88	0x3c1330bc	0.008983787
89	0x3adbfe40	0.0016784146
90	0xbd21d82e	-0.039512806
91	0x3d6f729d	0.058458913
92	0xbd638534	-0.055546954
93	0xbd6610e0	-0.056168437
94	0x3bf99638	0.0076167844
95	0xbca8feb2	-0.02062926
96	0xbc39eadc	-0.011347499
97	0x3cd8696a	0.026417453
98	0xbc8ba092	-0.01704434
99	0x3c68623c	0.014183577
100	0xbc9d59de	-0.019207891
101	0xbbd864e0	-0.006603822
102	0x3c03fc74	0.008055795
103	0x3d65e055	0.056122143
104	0x3d6bb67f	0.05754709
105	0x3d45f641	0.04833055
106	0x3b0a2f60	0.0021085367
107	0xbbd93180	-0.0066282153
108	0xbb84d110	-0.0040532425
109	0xbd40072f	-0.04688185
110	0xbc2c6b7c	-0.010523673
111	0x3c928346	0.017884862
112	0x3cdb537e	0.02677321
113	0x3d3fcb75	0.04682489
114	0xbb2361a0	-0.0024930015
115	0xbc58a7d4	-0.013223607
116	0xbc9f9b3a	-0.019483197
117	0x3d3c05d3	0.045903992
118	0x3cd901d2	0.026490126
119	0x3d481159	0.04884467
120	0xbbc39510	-0.0059686974
121	0x3d422df3	0.0474071
122	0x3d2baacf	0.041910943
123	0x3b17ba10	0.0023151673
124	0x3c93ce0a	0.018042583
125	0x3c48a3cc	0.0122460835
126	0xbbb459e0	-0.005503878
127	0x3c07a754	0.00827964
128	0x3d2f5b61	0.042811755
129	0xbcac32fc	-0.021020405
130	0xbd6c97ed	-0.057762075
131	0xbd5bbf24	-0.053649083
132	0xbd29ade6	-0.041425608
133	0x3c2ad944	0.010427777
134	0xbcf53787	-0.029933704
135	0x3d5ee9df	0.054422256
136	0x3d568b6f	0.052379068
137	0xbcc056a2	-0.02347881
138	0x3c38d454	0.011281092
139	0xbd2edf6a	-0.042693533
140	0xbd0f7e96	-0.03503283
141	0x3b0a11d0	0.0021067746
142	0xbd1c3fa6	-0.038146637
143	0xbd0e2fb8	-0.034713477
144	0xbbe56cb0	-0.007001482
145	0x3d03991b	0.032128435
146	0xbce0ca10	-0.0274401
147	0xbd2b52b4	-0.04182692
148	0x3d1d33d5	0.03837951
149	0x3d42aa8d	0.04752593
150	0x3d016603	0.031591427
151	0xbce58edd	-0.028022224
152	0xbd6dda72	-0.058069654
153	0xbd65318a	-0.055955447
154	0x3d39575d	0.04524933
155	0x3d58159d	0.052754987
156	0x3d108c27	0.03528991
157	0x3bc08658	0.00587539
158	0x3d2e7f91	0.042602126
159	0x3ccad136	0.024757963
160	0xbcb35f5e	-0.02189606
161	0xbd57b4a4	-0.052662507
162	0x3d345c99	0.04403362
163	0xbc2dd888	-0.010610707
164	0x3c395094	0.011310715
165	0x3aa40520	0.0012513734
166	0x3d2895d9	0.04115853
167	0x3d4e9845	0.050438184
168	0xbd67d27a	-0.05659721
169	0xbd67bdf9	-0.056577656
170	0x3c461f2c	0.012092393
171	0x3ccfbb8a	0.02535798
172	0x3ce52d36	0.02797566
173	0x3d428277	0.047487702
174	0xbd4de54f	-0.050267514
175	0x3c853e2a	0.016264994
176	0xbcaddf7c	-0.02122473
177	0x3d0fc5f9	0.03510091
178	0xbd3dc885	-0.04633381
179	0xbcac8f12	-0.021064315
180	0x3c4a2e74	0.012340177
181	0x3d459995	0.04824217
182	0x3d00411d	0.031312097
183	0x3c80cf92	0.015723977
184	0xbd4fb900	-0.05071354
185	0x3d174dd9	0.036939476
186	0xbcaa2072	-0.020767424
187	0x3ca5697a	0.020191897
188	0x3cc9caf6	0.024632912
189	0xb6fa6000	-7.4617565e-06
190	0x3b51ec20	0.003203161
191	0xbc839868	-0.016063884
192	0x3ce0a88a	0.027424116
193	0x3d2095a5	0.039205212
194	0xbcd9b844	-0.026577123
195	0x3cbff04e	0.023430016
196	0x3cc7c972	0.024388049
197	0xbcca6848	-0.024707928
198	0x3bd9aaa8	0.0066426583
199	0xbd10191e	-0.035180204
200	0x3d14d465	0.036335368
201	0x3c1f7724	0.009732995
202	0x3c6c9ea4	0.01444212
203	0xbc1c08c0	-0.009523571
204	0xbc4d7330	-0.01253967
205	0x3d5942b1	0.053042118
206	0xbae42340	-0.0017405525
207	0xbd670be4	-0.056407824
208	0xbc923e4c	-0.017851971
209	0xbc76ded0	-0.015067771
210	0x3cc40ace	0.023930933
211	0x3d6cbcdb	0.057797294
212	0xbd022616	-0.031774603
213	0x3c3c66fc	0.011499163
214	0x393ebc00	0.00018189847
215	0xbd53351e	-0.05156433
216	0xbc7c3d9c	-0.015395548
217	0x3d6bf8e1	0.057610396
218	0x3d56108b	0.05226187
219	0xbd12eb56	-0.035868965
220	0xbbc75c40	-0.006083995
221	0x3d1418bb	0.036156397
222	0x3cc8ec02	0.0245266
223	0xbd5610b2	-0.052262016
224	0x3d05c3cf	0.03265744
225	0x368b4000	4.1499734e-06
226	0xbc85503e	-0.016273614
227	0xbd46d460	-0.04854238
228	0xbcbf611a	-0.023361731
229	0x3bff13d8	0.007784348
230	0xbd1c6656	-0.038183533
231	0xbc3f93f4	-0.01169299
232	0xbb868ea8	-0.0041063614
233	0x3d63a32d	0.05557554
234	0xbd10633e	-0.035250895
235	0xbc516360	-0.0127800405
236	0xbc8b87ce	-0.01703253
237	0xbbede878	-0.0072603785
238	0xbd587286	-0.052843593
239	0xbc357460	-0.011075109
240	0x3d3b4863	0.04572333
241	0x3cea030e	0.02856591
242	0xbcc89bc4	-0.024488337
243	0xbce29ec4	-0.027663596
244	0xba89d300	-0.0010515153
245	0x3cfdad32	0.030966375
246	0x3b794f70	0.0038041733
247	0xbd0a8a8a	-0.033823527
248	0x3c608f7c	0.013706084
249	0xbcb8ec26	-0.022573542
250	0x3ccdf152	0.025139485
251	0x3c6f7054	0.014614183
252	0x3c34590c	0.011007559
253	0xbcac63f2	-0.021043751
254	0x3c7b1444	0.015324656
255	0xbd462755	-0.048377354

conv2.bias f4 [64]
0	0xbd324cb3	-0.043530177
1	0x3c4fd54c	0.012685131
2	0xbba35468	-0.0049844272
3	0x3d2acab9	0.041697238
4	0xbc62b624	-0.013837371
5	0x3c3e39c4	0.011610452
6	0x3c94523a	0.018105615
7	0xbce0db2e	-0.027448263
8	0x3d5ea8b7	0.054360118
9	0x3d1ede95	0.03878649
10	0xbcc50882	-0.024051908
11	0xbd1151dc	-0.035478458
12	0x3c6eb5ec	0.014569741
13	0x3cca67ca	0.024707694
14	0xbc5b1380	-0.013371348
15	0x3ccb705a	0.024833847
16	0xbd3147c9	-0.04328135
17	0xbd3a5cbf	-0.045498606
18	0x3cf373ae	0.029718246
19	0x3c512f0c	0.0127675645
20	0x3d65abdd	0.056072105
21	0x3d008977	0.031381097
22	0xbb6b8100	-0.0035935044
23	0xbcf5a555	-0.029986063
24	0xbd47c8b2	-0.048775382
25	0xbbebe318	-0.0071987025
26	0xbd30feca	-0.043211736
27	0xbd508314	-0.050906256
28	0xbca16368	-0.01970072
29	0x3d0a24f1	0.033726636
30	0xbd20925c	-0.03920208
31	0xbd087ec2	-0.03332401
32	0x3d352ec1	0.04423404
33	0xbcc0deac	-0.023543678
34	0x3c73cdb4	0.014880586
35	0xbd41dc9d	-0.047329534
36	0x3d131725	0.035910744
37	0xbd376924	-0.044778004
38	0xbcfb5bc0	-0.030683398
39	0x3c7d8794	0.015474219
40	0xbc5c26f0	-0.013437018
41	0xbb916988	-0.004437629
42	0xbcdfb660	-0.027308643
43	0xbc83ff0e	-0.01611283
44	0x3a8a87c0	0.0010569021
45	0x3ca352c2	0.019936923
46	0x3d3b6e67	0.045759585
47	0xbca1f832	-0.019771669
48	0x3c08a8dc	0.00834104
49	0x3d6af213	0.057359766
50	0xbd26128c	-0.04054503
51	0x3d640583	0.05566932
52	0x3adb6b60	0.0016740374
53	0xbc2d8b74	-0.01059233
54	0x3d540ea1	0.051771764
55	0xbccc1fa6	-0.024917435
56	0x3cf65ff2	0.030075047
57	0x3cc3e746	0.02391399
58	0x3c5ac964	0.013353679
59	0x3d4492df	0.04799163
60	0x3c2c9e8c	0.010535847
61	0x3d077c01	0.033077244
62	0xbd481444	-0.04884745
63	0xbc816668	-0.015795901

conv3.weight f4 [128, 64, 3, 3]
0	0xbbd91a38	-0.00662544
1	0xbd079738	-0.033103198
2	0x3bcd3da0	0.00626345
3	0xbbf84e18	-0.007577669
4	0x3cb33ea2	0.021880452
5	0x3ca42980	0.02003932
6	0x3b5f9100	0.0034113526
7	0x3c8c92a8	0.017159775
8	0xbca5477e	-0.020175692
9	0xbb1d8740	-0.0024036914
10	0xbccb5718	-0.024821803
11	0x3cbc477a	0.022983301
12	0xbd1e5728	-0.038657337
13	0x3b8be6c8	0.0042694546
14	0x3be16d00	0.006879449
15	0xbccad51b	-0.02475982
16	0x3d08bd87	0.033383872
17	0x3cf3baa6	0.029752087
18	0xbcdb29e0	-0.026753366
19	0xbd002e08	-0.0312939
20	0x3ba67178	0.0050794445
21	0xbcab9efe	-0.020949837
22	0x3cb21b86	0.02174164
23	0x39df5180	0.00042594597
24	0xbb5ca100	-0.00336653
25	0x3d029111	0.031876627
26	0xbd09bfe8	-0.03363028
27	0xbd05d9ee	-0.032678537
28	0x3cafbc0a	0.021451969
29	0x3c4cf720	0.012510091
30	0x3a69b740	0.0008915551
31	0x3bb00d68	0.005372692
32	0xbd206cc0	-0.039166212
33	0x3cd0ff86	0.025512468
34	0xbd24021b	-0.04004107
35	0xbca4d5cb	-0.020121476
36	0x3c8e2bde	0.017354902
37	0x3cfb5212	0.030678783
38	0xbc380226	-0.011230981
39	0xbd0eec7a	-0.03489349
40	0x3a84ede0	0.0010141693
41	0x3b955c08	0.00455809
42	0x3b1475f0	0.0022653304
43	0xbd004500	-0.031315804
44	0x3b0c47c0	0.002140507
45	0x3c4953d4	0.012288053
46	0x3d06abf7	0.032878842
47	0xbd146bee	-0.036235742
48	0x3d060b29	0.032725487
49	0xbd059ef4	-0.032622293
50	0x3d0dc829	0.034614716
51	0xbd084393	-0.03326757
52	0x3c59fa1c	0.01330426
53	0x3c664ac4	0.014055911
54	0xbc769df6	-0.015052309
55	0xbd1f1253	-0.038835835
56	0x3ad2e8e0	0.0016091131
57	0x3d25d751	0.040488545
58	0x3c0bdae0	0.008536071
59	0x3d1dc93d	0.038521994
60	0xbce7b09b	-0.028282454
61	0x3b7d41d0	0.0038643964
62	0xbd229f06	-0.039702438
63	0xbbdac748	-0.006676588
64	0x3c91fa70	0.017819613
65	0xbc3107c6	-0.010805076
66	0xbccfd1ee	-0.025368657
67	0x3bae65f8	0.005322214
68	0xbcec3b70	-0.028836936
69	0x3bd1dce8	0.006404508
70	0x3d02fa71	0.03197712
71	0x3ac3d5e0	0.0014941059
72	0x3d0092c1	0.031389955
73	0x3c471580	0.012151122
74	0x3bba6d18	0.0056892745
75	0x3c286ffc	0.010280605
76	0x3cbbc182	0.02291942
77	0xbc75a326	-0.014992511
78	0xbb711d50	-0.0036791153
79	0xbca14533	-0.019686317
80	0x3c3f3944	0.011671368
81	0x3d2783bd	0.04089712
82	0x3cbee7f2	0.02330396
83	0xbc3f2f96	-0.01166906
84	0x3c85e852	0.01634613
85	0x3ad61220	0.0016332306
86	0xbbceb300	-0.0063079596
87	0xbc800bb8	-0.015630588
88	0xbbb98760	-0.00566189
89	0x3ce1480a	0.027500171
90	0xbc912238	-0.017716512
91	0x3d24da63	0.040247332
92	0x3d27eff9	0.04100034
93	0xbc5fcc66	-0.013659572
94	0xbcf00fc3	-0.02930439
95	0xbc15ae24	-0.009135757
96	0xbc2bb23c	-0.010479506
97	0xbce15346	-0.027505528
98	0x3ca3bbea	0.019987065
99	0xbc072ecc	-0.008250903
100	0x3cee6662	0.029101554
101	0x3cb40cd2	0.02197877
102	0xbb9bc048	-0.0047531463
103	0xbbb533a0	-0.005529836
104	0xbd06f35a	-0.032946922
105	0x3d098e6f	0.0335831
106	0x3d06c6a9	0.0329043
107	0xbc93476b	-0.01797839
108	0x3cd8e342	0.026475552
109	0x3ba9db98	0.0051836483
110	0x3c701cf0	0.014655337
111	0x3c42747c	0.011868592
112	0xbaea05e0	-0.0017854534
113	0x3cc5a9a2	0.024128739
114	0xbd1d16a0	-0.038351655
115	0xbcb12b98	-0.021627232
116	0xbc5ae9cc	-0.013361406
117	0xbb87bd98	-0.0041424744
118	0xbbe7db28	-0.007075686
119	0xbd181a64	-0.037134543
120	0xbc52259c	-0.01282635
121	0xbcab0f13	-0.020881211
122	0x3be3bdc8	0.006950114
123	0x3cc191d2	0.023629103
124	0x3b0605b0	0.0020450167
125	0xbc653c60	-0.013991445
126	0x3c83f936	0.016110044
127	0x3cf7e562	0.030260745
128	0x3cc62f12	0.024192367
129	0x3d01ada1	0.031659726
130	0xbc4cb716	-0.012494823
131	0x3ca4b8de	0.020107683
132	0xbd105346	-0.035235666
133	0xbd1fa3b0	-0.038974464
134	0x3d25afa7	0.04045072
135	0xbc90e92b	-0.017689308
136	0x3ccdc8d2	0.025120173
137	0xbcd8726b	-0.026421746
138	0x3cae6816	0.021289866
139	0xbcfb59a3	-0.03068239
140	0xbd21af4c	-0.039473817
141	0xbd0895f3	-0.033346128
142	0x3d240295	0.040041525
143	0x3c8c62a0	0.017136872
144	0xbc2c4d4c	-0.010516476
145	0x3cbb2472	0.022844527
146	0xbd08af42	-0.033370264
147	0xbce6fe20	-0.028197348
148	0x3c81792e	0.015804853
149	0xbc24eac0	-0.010065734
150	0x3c081a40	0.00830704
151	0xbd049494	-0.032368258
152	0x3ab61960	0.001389306
153	0x3d1a5bbd	0.037685145
154	0x3c8b5e28	0.01701267
155	0x3ce75026	0.02823646
156	0xbc5567d6	-0.013025245
157	0xbd17c548	-0.037053376
158	0x3c7ed434	0.015553523
159	0x3d165257	0.03669962
160	0xbc3f066c	-0.011659246
161	0xbc0700e4	-0.008239958
162	0x3c8e82fe	0.017396446
163	0x3d1339ab	0.03594367
164	0x3ce2ba0e	0.027676608
165	0x3c014344	0.0078895725
166	0x3cb90bfe	0.022588726
167	0xbcab3408	-0.020898834
168	0x3d0b6389	0.03403047
169	0x3cd8acfa	0.02644967
170	0x3b907040	0.0044079125
171	0x3c618b54	0.013766129
172	0xbb04ea70	-0.0020281337
173	0xbcfcf5b8	-0.030878887
174	0x3d0902fb	0.033450108
175	0xbcc6fa68	-0.024289325
176	0x3c258234	0.010101844
177	0x3ca86c3a	0.020559419
178	0xbd003923	-0.03130449
179	0x3cb4918e	0.022042062
180	0x3d16e445	0.03683879
181	0x3d11f8bd	0.035637606
182	0xbcfb9cf6	-0.030714493
183	0xbbb5d3c0	-0.005548924
184	0x3b93eb00	0.004514098
185	0x3cf7932a	0.03022154
186	0x3cd0539a	0.02543049
187	0x3cf342c6	0.029694926
188	0xbcd9a506	-0.026567947
189	0xbcb8dadb	-0.022565296
190	0xbcee87d8	-0.02911751
191	0xbd1f2692	-0.038855143
192	0xbc86b9c6	-0.016446006
193	0xbc425f40	-0.01186353
194	0x3cd15a86	0.02555586
195	0xbcb41dbe	-0.021986838
196	0xbce715bb	-0.028208604
197	0x3ce7d76a	0.02830096
198	0xbd11ceef	-0.035597738
199	0x3cfbee4e	0.030753281
200	0x3cf14d42	0.029455785
201	0x3d0c5819	0.034263704
202	0x3cb27342	0.021783475
203	0x3c9ee0d0	0.019394308
204	0x3a95a9a0	0.001141835
205	0xbcc1ee93	-0.023673331
206	0xbcb969e8	-0.022633508
207	0x3b61f890	0.003448043
208	0xbccd7b86	-0.025083315
209	0x3d14223d	0.036165465
210	0xbce6bfe8	-0.02816768
211	0xbc27fb54	-0.010252792
212	0xbbf61ea0	-0.007510975
213	0xbc1d1db0	-0.009589598
214	0x3d298445	0.041385908
215	0xbce21f3b	-0.027602782
216	0xbc200cd4	-0.009768683
217	0x3d00e1d5	0.03146537
218	0x3afe4ee0	0.0019402169
219	0xbd220487	-0.0395551
220	0x3b058ef0	0.0020379387
221	0x3b132b10	0.0022456087
222	0x3ca969f6	0.020680409
223	0xbcd6d696	-0.02622537
224	0xbd075a43	-0.033045065
225	0xbc533276	-0.012890449
226	0x3d13b699	0.03606281
227	0x3d25a8e5	0.040444274
228	0x3be33fb8	0.006935086
229	0x3c873f8a	0.01650979
230	0x3ca51512	0.020151649
231	0xbcc87403	-0.024469381
232	0x3cd77e8a	0.026305456
233	0xbd07193f	-0.03298306
234	0xbc3a8b8c	-0.01138581
235	0x3cd012a2	0.02539951
236	0x3c64f364	0.0139740445
237	0x3c0cddc4	0.008597795
238	0x3bbfe2e8	0.0058559068
239	0x3c5084b4	0.012726951
240	0x3cba51be	0.022744056
241	0x3cee1782	0.029063944
242	0xbd03aa2f	-0.03214472
243	0x3c87656a	0.01652785
244	0xbbfd1228	-0.0077231117
245	0x3b14cdc0	0.0022705644
246	0x3d231481	0.039814476
247	0x3b00e000	0.0019664764
248	0xbb08f9d0	-0.0020900853
249	0x3cf360ae	0.029709186
250	0xbbf86438	-0.0075803064
251	0x3cc39616	0.023875277
252	0xbcf423a0	-0.029802144
253	0xbc4147bc	-0.011796888
254	0x3cc2276e	0.023700442
255	0x3c9e0558	0.019289657

conv3.bias f4 [128]
0	0xbd1ad3df	-0.037799712
1	0xbc9c87db	-0.01910775
2	0xbd1133bc	-0.03544973
3	0xbb5f5f90	-0.003408406
4	0xbd15d067	-0.0365757
5	0x3cdea45e	0.027177986
6	0xbcf41e58	-0.029799625
7	0x3cd1db0e	0.025617149
8	0x3d0b0c09	0.033947024
9	0x3cd5ae3a	0.026084054
10	0x3beb18e0	0.007174596
11	0x3ce12646	0.02748407
12	0xbd180752	-0.037116356
13	0x3d0fbf3d	0.03509449
14	0xbc9f9cb8	-0.019483909
15	0xbc58852c	-0.013215344
16	0xbb8f83b8	-0.004379716
17	0xbcfbea33	-0.030751323
18	0x39d05580	0.00039736554
19	0xbb4a4cc0	-0.00308685
20	0xb994e680	-0.00028400496
21	0xbb1e77f0	-0.0024180375
22	0x3c77907c	0.015110131
23	0xbd18887b	-0.037239533
24	0x3b7f0770	0.0038914345
25	0x3bff0220	0.0077822357
26	0x3c809b78	0.015699133
27	0xbacf4fa0	-0.0015816577
28	0xbc3f4e86	-0.011676436
29	0xbc99f2cb	-0.01879253
30	0x3cea53c2	0.028604392
31	0x3d1ad74d	0.037802983
32	0x3d17cde9	0.037061606
33	0xbc2e1bd6	-0.010626754
34	0x3cc95e3a	0.024581064
35	0xbcae074e	-0.021243718
36	0x3cc38282	0.023865942
37	0x3caac4da	0.02084582
38	0x3c1b2114	0.009468336
39	0x3ce1bf62	0.027557079
40	0x3d14cb71	0.03632683
41	0xbd0afa53	-0.033930134
42	0xbc8b42d0	-0.016999632
43	0xbc862f08	-0.016379848
44	0xbc0b7840	-0.008512557
45	0x3d1e9c2d	0.03872316
46	0xbca0e5ce	-0.01964083
47	0x3d124d91	0.035718504
48	0xbc8ee8d3	-0.017445004
49	0xbd0455d2	-0.032308407
50	0x3c6d0970	0.014467582
51	0x3d0be7e3	0.03415669
52	0xbba2e6e0	-0.00497137
53	0xbc3002fc	-0.010742899
54	0x3c567044	0.01308829
55	0xbc3d220c	-0.011543762
56	0xbd1edc92	-0.03878457
57	0xba0d36c0	-0.00053868815
58	0x3c115664	0.008870695
59	0x3baa4c00	0.005197048
60	0x3d0ede45	0.03487994
61	0xbac1e020	-0.0014791526
62	0x3a81f560	0.0009915046
63	0x3c37eb9c	0.011225607
64	0x3c8a4ea6	0.016883206
65	0x3a195c00	0.0005850196
66	0xbc9a6bf6	-0.018850308
67	0x3c3f5b9c	0.011679556
68	0xbd24691c	-0.040139303
69	0x3c89342a	0.016748507
70	0xbc245b14	-0.01003148
71	0xbcb8fc4b	-0.02258124
72	0x3cb0faea	0.02160402
73	0x3c86742a	0.016412813
74	0xbd0be353	-0.03415234
75	0x3b6e1440	0.0036327988
76	0xbc82f1cb	-0.015984436
77	0xbd0445ec	-0.032293245
78	0xbccddec8	-0.025130644
79	0x3d0a893d	0.033822287
80	0x3b9e75c0	0.0048358142
81	0xbbfa88a0	-0.0076456815
82	0x39b99380	0.00035395846
83	0xbc090fc0	-0.0083655715
84	0xbce70d4b	-0.02820458
85	0xbc4d0030	-0.012512252
86	0x3c48d6fc	0.0122582875
87	0x3cd3ebaa	0.02586921
88	0x3d1da25d	0.03848492
89	0x3c2a2e54	0.010387022
90	0x3c1ff3a0	0.009762675
91	0xbccaa4a0	-0.024736702
92	0x3ce27cea	0.027647454
93	0x3c8a2f36	0.016868215
94	0x3c86fe8a	0.016478796
95	0x3d051cff	0.032498356
96	0xbc09f6f0	-0.008420691
97	0x3cf414a6	0.029795002
98	0xbac3a600	-0.0014926791
99	0xbbb0cde0	-0.005395636
100	0x3d0ca2e9	0.03433505
101	0xbba9d700	-0.0051831007
102	0x3c8c0926	0.017094206
103	0xbc8f4e3b	-0.017493358
104	0xbcafea06	-0.021473896
105	0x3ce516ca	0.027964968
106	0x3c7f113c	0.015568074
107	0x3cd58562	0.026064578
108	0xbcc708ee	-0.02429625
109	0x3c7b666c	0.0153442435
110	0xbd19bac7	-0.03753164
111	0xbc438c26	-0.011935269
112	0x3cf25f1a	0.029586364
113	0x3cd81772	0.026378367
114	0xbd27d180	-0.04097128
115	0x3b8e4e28	0.004342813
116	0x3d20606b	0.03915445
117	0xbc965b4e	-0.018354084
118	0xbc8e10f0	-0.01734206
119	0x3cd6f1aa	0.026238281
120	0xbc2f6a3c	-0.010706481
121	0xbb9dd4a0	-0.0048166066
122	0x3c4231ec	0.011852723
123	0x3b427730	0.0029673092
124	0x3bb4bd00	0.0055156946
125	0xbb2b3d90	-0.0026129223
126	0xbcb04123	-0.021515435
127	0x3ca04ee2	0.019568864

act_conv1.weight f4 [4, 128, 1, 1]
0	0xbd11d5de	-0.03560435
1	0x3da4ad8f	0.08040916
2	0x3d0bad78	0.03410098
3	0x3b800460	0.0039067715
4	0xbd80a346	-0.06281142
5	0xbd6a818a	-0.057252444
6	0x3dad51d9	0.08462877
7	0x3cc2684c	0.023731373
8	0x3d99c58b	0.075083815
9	0x3d207f3a	0.039183833
10	0x3da183a9	0.0788644
11	0xbc78dc98	-0.015189312
12	0xbd8913e0	-0.06693244
13	0x3d486d12	0.048932143
14	0xbd67ace9	-0.056561384
15	0x3dadebed	0.08492265
16	0xbc2b15a8	-0.010442175
17	0xbd97669c	-0.07392618
18	0xbaace400	-0.0013190508
19	0x3d217886	0.03942158
20	0x3a18ac00	0.000582397
21	0xbd2462e5	-0.040133376
22	0x3da38545	0.079844035
23	0x3c1e0088	0.009643681
24	0xbc97d7ac	-0.018535458
25	0x3d3dffa6	0.046386383
26	0x3d8fb661	0.07017208
27	0x3c095448	0.008381911
28	0x3d8ae5dd	0.06782124
29	0x3db4e37f	0.08832454
30	0x3db06e89	0.08614833
31	0xbd6c6f3c	-0.05772327
32	0xbda5ea4f	-0.081013314
33	0x3d3ade0e	0.045621924
34	0xbda93b82	-0.08263303
35	0x3db2272b	0.08698877
36	0xbbc14250	-0.0058977976
37	0xbd0e0a86	-0.034678005
38	0x3d727626	0.059194706
39	0x3d9562e9	0.07294256
40	0x3d8b1e31	0.06792868
41	0x3d6aa30e	0.057284407
42	0x3c1b0240	0.009460986
43	0x3d9b0687	0.07569604
44	0xbd70de57	-0.05880579
45	0x3cbcb944	0.02303756
46	0xbd468b58	-0.048472732
47	0xbd62091c	-0.05518447
48	0x3cd870c0	0.02642095
49	0x3d881237	0.06644099
50	0x3d5173be	0.05113577
51	0x3d90d409	0.070716925
52	0xbcac0e5c	-0.02100294
53	0x3d2d668e	0.042334132
54	0x3d64cb32	0.055857845
55	0xbd72a623	-0.05924047
56	0x3d631f8e	0.055450015
57	0x3da1e43f	0.079048626
58	0xbd29a5c8	-0.041417867
59	0x3d94da51	0.07268203
60	0x3d1fa856	0.038978897
61	0xbc9a5a24	-0.01884181
62	0xbcdfd784	-0.027324446
63	0xbd98ffd2	-0.07470669
64	0xbd34a3f4	-0.04410167
65	0x3d8ff3f1	0.0702895
66	0xbd22f6f8	-0.03978631
67	0xbd230ff9	-0.039810155
68	0x3d28cc92	0.04121072
69	0xbb903b60	-0.0044016093
70	0x3d3c8a0a	0.04603008
71	0x3d71f3a2	0.059070237
72	0xbd8df7d7	-0.06932037
73	0xbd6f27c2	-0.058387525
74	0xbc92d1a4	-0.01792223
75	0xbcdc82d4	-0.026917852
76	0x3ba430d0	0.0050107017
77	0x3dae538b	0.08512028
78	0xbd3b7cc6	-0.04577329
79	0xbd4e4f27	-0.050368454
80	0x3d86376f	0.06553542
81	0x3d72b2ba	0.05925248
82	0x3d5d3a96	0.05401095
83	0xbc4096c0	-0.011754692
84	0x3cf74ba4	0.030187435
85	0x3d07e28c	0.033175036
86	0x3d2e2db2	0.042524047
87	0xbd07af29	-0.03312603
88	0x3d3710fa	0.044693924
89	0xbca43ed4	-0.02004949
90	0xbd00496e	-0.031320028
91	0x3d0fa1f6	0.035066567
92	0xbd33af51	-0.043868367
93	0xbcd883f0	-0.0264301
94	0xbb841040	-0.0040302575
95	0xbcf7d2c4	-0.030251868
96	0x3d96ab51	0.07356895
97	0xbccd4438	-0.025056943
98	0x3d93889d	0.07203791
99	0x3d82f8d7	0.06395119
100	0x3d19dbb6	0.03756305
101	0x3c6b9e48	0.014380999
102	0xbce0ea50	-0.027455479
103	0xbd472cbb	-0.048626643
104	0xbcc291c0	-0.02375114
105	0xbdb157c9	-0.08659322
106	0x3d374e32	0.044752307
107	0xbd39d660	-0.04537046
108	0x3b82dd10	0.003993638
109	0x3b4e5b40	0.0031487495
110	0x3d8f80e1	0.070070036
111	0x3b241080	0.0025034249
112	0x3d8494cd	0.06473694
113	0x3d9cc8dd	0.07655499
114	0xbd0791b2	-0.03309793
115	0xbc9e7a74	-0.0193455
116	0xbd584292	-0.05279786
117	0x3d9cf25b	0.07663413
118	0xbb64fc60	-0.0034940466
119	0x3c326d28	0.010890283
120	0xbdb0aaae	-0.086263046
121	0x3d83bee7	0.06432896
122	0x3c701698	0.014653824
123	0x3d7a18e6	0.0610589
124	0x3d7e2f16	0.062056623
125	0xbb0fcd60	-0.0021942481
126	0x3d3bc57a	0.045842625
127	0xbd510d06	-0.05103781
128	0x3cd57914	0.026058711
129	0xbd8ef566	-0.069804
130	0x3d1972ba	0.037462927
131	0x3da490cf	0.080354325
132	0x3c863ab8	0.016385421
133	0x3d2f6762	0.042823203
134	0xbd2d0262	-0.0422386
135	0xbc9771c4	-0.018486865
136	0xbd5b54c1	-0.053547624
137	0xbc82a8c8	-0.015949622
138	0xbd5dce38	-0.054151744
139	0x3ccd8764	0.025088973
140	0x3d074004	0.033020034
141	0xbd83006c	-0.06396565
142	0xbd05cf94	-0.032668665
143	0xbd2c5525	-0.042073388
144	0x3daf002f	0.08544957
145	0x3c84bc04	0.016202934
146	0xbd378c98	-0.044811815
147	0x3db114e3	0.08646562
148	0x3c213160	0.009838432
149	0xbcf5bc82	-0.029997114
150	0x3d992e47	0.0747953
151	0x3da1bb77	0.07897084
152	0x3d807713	0.062727116
153	0xbce8c6b8	-0.028415069
154	0x3d18a042	0.03726221
155	0x3da2aa17	0.07942598
156	0x3d7cc1e6	0.061708353
157	0x3d9b6ec1	0.07589484
158	0xbd69ffd2	-0.057128735
159	0xbd19dc58	-0.03756365
160	0xbd77757f	-0.060414787
161	0x3d54764e	0.051870637
162	0xba929fc0	-0.0011186525
163	0x3ccbef04	0.024894245
164	0x3da0a133	0.07843246
165	0xbd4211eb	-0.04738037
166	0x3d3bab12	0.045817442
167	0xbc0ef550	-0.008725479
168	0xbc919e44	-0.017775662
169	0x3d4e5646	0.050375246
170	0xbd006aee	-0.031351976
171	0x3db374c9	0.087625094
172	0xbbb3c7e0	-0.0054864734
173	0xbd25c5a2	-0.04047168
174	0x3cdbeb94	0.02684573
175	0x3da8240b	0.0821
176	0x3b2b80c0	0.002616927
177	0xbca0fc28	-0.019651487
178	0x3d0a95c4	0.033834234
179	0xbcc5aa54	-0.02412907
180	0xbd8285dc	-0.06373188
181	0x3d2237c2	0.039603956
182	0xbd6cbb02	-0.057795532
183	0x3d8816a1	0.06644941
184	0xbd005fa9	-0.03134123
185	0xbd0f6d51	-0.03501636
186	0x3d81f4b3	0.06345501
187	0xbda54765	-0.08070258
188	0xbdb2ba71	-0.08726967
189	0x3ccb63f0	0.024827927
190	0xbd2457d3	-0.04012282
191	0xbd077b47	-0.03307655
192	0x3d5e5f6a	0.054290213
193	0x3d47ebde	0.048808925
194	0xbd613c5c	-0.054989204
195	0x3d399f76	0.04531809
196	0x3d836b21	0.064169176
197	0xbad72800	-0.0016415119
198	0xbcef5820	-0.029216826
199	0xbc0e16a0	-0.008672386
200	0x3d4b635a	0.049655296
201	0xbd8d8eec	-0.06912026
202	0xbccc76b0	-0.024958938
203	0x3c87c434	0.01657305
204	0xbd544e0f	-0.051832255
205	0xbb3a3600	-0.0028413534
206	0xbd162c91	-0.036663596
207	0xbd75c342	-0.060000665
208	0xbd40abe7	-0.04703894
209	0xbc8305dc	-0.015994005
210	0xbd20e9eb	-0.03928558
211	0xbdac81d6	-0.08423202
212	0xbd9e1b02	-0.07719995
213	0xb902b800	-0.00012466311
214	0xbd654878	-0.055977315
215	0xbd3ef98d	-0.04662471
216	0xbd97bd57	-0.074091606
217	0x3d06720c	0.032823607
218	0xbaec4fc0	-0.0018029138
219	0x3cd92ee8	0.026511624
220	0xbcdae932	-0.026722524
221	0x3d1cc22e	0.03827112
222	0x3da315a7	0.07963114
223	0xbbbc1a50	-0.0057404414
224	0x3daea871	0.085282214
225	0x3c7ceec0	0.015437782
226	0x3ca391d4	0.019966997
227	0x3da387ef	0.07984912
228	0xbc1dc568	-0.009629585
229	0x3c869f68	0.016433433
230	0x3cc6e760	0.02428025
231	0xbd319fb7	-0.043365207
232	0xbc939424	-0.018014975
233	0x3d05a968	0.03263226
234	0xbd809699	-0.06278724
235	0xbce4d20c	-0.02793219
236	0x3d879d7b	0.06621834
237	0xbc9e4fbc	-0.01932513
238	0xbd85506e	-0.06509481
239	0x3cabe418	0.020982787
240	0xbd5341ea	-0.051576532
241	0x3d1e94c6	0.0387161
242	0x3d56f47a	0.052479245
243	0xbd43330f	-0.047656115
244	0xbd998952	-0.07496895
245	0xbd2e686f	-0.042580064
246	0xbda8dc6d	-0.08245168
247	0xbda2e66b	-0.07954105
248	0xbca8220c	-0.020524047
249	0x3d533c8e	0.05157142
250	0xbd5f82df	-0.054568168
251	0x3b0a9760	0.0021147355
252	0xbb994d20	-0.0046783835
253	0xbd158acb	-0.036509316
254	0x3d3f60f2	0.046723314
255	0x3cc90bec	0.024541818

act_conv1.bias f4 [4]
0	0x3cc67ed4	0.024230398
1	0xbba9b430	-0.0051789507
2	0x3d314872	0.04328198
3	0xbd9500b0	-0.07275522

act_fc1.weight f4 [36, 144]
0	0xbd7859ae	-0.0606324
1	0xbd2f9648	-0.04286793
2	0xbc7b4bd8	-0.015337907
3	0xbc920820	-0.01782614
4	0xbd46d07b	-0.048538666
5	0xbc8035fc	-0.015650742
6	0xbd526798	-0.051368326
7	0x3d9ff3eb	0.078101955
8	0xbcd0f516	-0.025507491
9	0xbb940170	-0.004516773
10	0xbda3d2f2	-0.07999219
11	0x3d96b8ff	0.07359504
12	0x3cab7bcc	0.020933054
13	0xbd9f53b4	-0.07779637
14	0xbd1d9798	-0.03847465
15	0x3c5b3c98	0.013381146
16	0x3d8e73a5	0.06955651
17	0x3d396582	0.04526282
18	0x3c8cbbe0	0.01717943
19	0x3d6fff92	0.05859334
20	0x3d8e8cf7	0.06960481
21	0xbcda6b16	-0.02666239
22	0x3d5c5a92	0.053797312
23	0x3cdcb664	0.02694244
24	0xbd69e1e6	-0.0571002
25	0xbd68c4ab	-0.056828182
26	0x3d9f8415	0.077888645
27	0xbcac933c	-0.0210663
28	0xbd0fe6fb	-0.03513239
29	0xbcf8d700	-0.030375957
30	0xbcf2d78c	-0.029643796
31	0xbd6631b6	-0.05619975
32	0x3ce43c0c	0.027860664
33	0x3d8b9acd	0.06816635
34	0x3d7a561a	0.06111727
35	0x3d1fb688	0.038992435
36	0xbd14c846	-0.036323808
37	0x3d248246	0.0401633
38	0x3d5d6ee2	0.054060824
39	0xbc406318	-0.011742376
40	0xbda146ae	-0.07874809
41	0xbd92deb2	-0.07171382
42	0x3c7217e8	0.0147762075
43	0xbd1fd1f8	-0.0390186
44	0xbceecf3c	-0.029151551
45	0x3bff1070	0.007783942
46	0xbd5c5abb	-0.053797465
47	0xbd3c0e18	-0.04591188
48	0xbda0cb68	-0.07851297
49	0xbd444300	-0.04791546
50	0x3c53e138	0.012932114
51	0x3b32cf80	0.0027284324
52	0x3d8745e9	0.06605131
53	0xbbf1b9c0	-0.0073768795
54	0xbda8e740	-0.082472324
55	0xbd0e0d43	-0.034680616
56	0xbcc0937c	-0.023507826
57	0xbca99e14	-0.02070526
58	0x3cffa2d0	0.031205565
59	0x3b2321e0	0.0024892017
60	0xbda428e2	-0.0801561
61	0x3cd99d5c	0.026564293
62	0xbd3a4948	-0.045480043
63	0x3da44749	0.08021409
64	0xbd78a43e	-0.06070351
65	0xbccf44d6	-0.025301378
66	0x3ce7c604	0.028292663
67	0x3ce05ff4	0.027389504
68	0xbd2690ab	-0.04066531
69	0x3c6efc18	0.014586471
70	0xbcdbbde0	-0.026823938
71	0x3da98c3f	0.08278703
72	0xbcf9cca6	-0.030493092
73	0x3d6383fe	0.0555458
74	0xbd05697e	-0.03257131
75	0x3d6b6f3a	0.05747912
76	0x3caea04c	0.02131667
77	0xbd9351ba	-0.071933225
78	0xbc915b40	-0.017743707
79	0xbc017c08	-0.0079031065
80	0x3d30b432	0.043140598
81	0xbd492f3b	-0.049117308
82	0xbd103fa3	-0.03521694
83	0xbd924c22	-0.071434274
84	0x3ccd94b0	0.025095314
85	0xbd89019e	-0.066897616
86	0x3c332a98	0.010935448
87	0x3d06d42e	0.032917194
88	0x3da8652d	0.08222423
89	0xbce38670	-0.027774066
90	0xbd8c3784	-0.06846526
91	0xbd1fee0e	-0.039045386
92	0x3cdefa4c	0.02721896
93	0xbb7fc480	-0.0039027035
94	0x3c870420	0.01648146
95	0xbd32c246	-0.043642305
96	0x3b1acc80	0.0023620427
97	0xbc316780	-0.010827899
98	0x3d1ad1c8	0.03779772
99	0xbd4991b3	-0.049211215
100	0x3cd88b6c	0.026433669
101	0x3d8cd077	0.06875699
102	0x3d3c76ce	0.04601174
103	0xbcbe5946	-0.023235928
104	0x3c76a640	0.0150542855
105	0x3d581dc2	0.052762754
106	0xbd96b997	-0.07359617
107	0x3cc69004	0.024238594
108	0xbd9ba6d7	-0.076001815
109	0x3c8926bc	0.016742103
110	0xbbe03df0	-0.006843321
111	0x3d763b3e	0.06011509
112	0xbd68f48e	-0.05687385
113	0x3a1f8c80	0.0006086305
114	0xbcadd6b6	-0.021220546
115	0x3d381606	0.04494288
116	0x3d91ceb1	0.071195014
117	0x3d59aa82	0.053141125
118	0x3c335c40	0.010947287
119	0xbda18538	-0.078867376
120	0x3cd74494	0.026277818
121	0x3d508fc2	0.050918348
122	0xbd34305e	-0.04399144
123	0xbc10f258	-0.008846842
124	0xbd3f4923	-0.046700608
125	0xbd7a41b6	-0.061097823
126	0xbcf678dc	-0.030086927
127	0xbd942eeb	-0.072355114
128	0x3c6a7308	0.014309652
129	0xbd9bffb2	-0.076171294
130	0xbcd85496	-0.026407521
131	0x3c95aae0	0.018269956
132	0xbd491cb8	-0.049099654
133	0x3d4edcea	0.05050365
134	0x3d4379ba	0.04772351
135	0xbd467b5e	-0.048457496
136	0x3da3e9bb	0.08003565
137	0xbd831cf2	-0.06402005
138	0x3c509e20	0.012733012
139	0xbd58fe40	-0.052976847
140	0xbd3165fb	-0.043310147
141	0xbb8b6570	-0.0042540357
142	0x3d2e3152	0.042527504
143	0xbcbc3d9c	-0.022978596
144	0x3c45f638	0.012082629
145	0xbda488b6	-0.08033888
146	0x3cb4a2fc	0.022050373
147	0x3d2cf852	0.042229004
148	0x3d11a748	0.035559922
149	0xbcb65f06	-0.022262108
150	0xba629580	-0.0008643493
151	0x3aadbac0	0.0013254508
152	0x3d80b0cf	0.062837236
153	0xbcbcefb0	-0.02306351
154	0xbce1eb50	-0.027578026
155	0x3d1ee342	0.03879095
156	0xbb8751b0	-0.004129611
157	0x3c2a51d8	0.01039549
158	0x3d91b8d1	0.07115329
159	0xbd9574cf	-0.0729767
160	0xbd7ed588	-0.062215358
161	0x3d54c87a	0.051949
162	0xbd33bf8b	-0.04388384
163	0x3b733aa0	0.00371138
164	0x3cefc550	0.02926889
165	0xbcc220bc	-0.02369725
166	0xbda7f254	-0.08200517
167	0xbc801f80	-0.01564002
168	0x3d84a245	0.06476263
169	0x3d0d90f0	0.03456205
170	0x3d3b8a62	0.04578627
171	0xba92c240	-0.0011196807
172	0x3d9d1d67	0.07671624
173	0x3d8da605	0.06916431
174	0xbd7977ab	-0.06090514
175	0x3cf33b44	0.029691346
176	0xbd53b7c6	-0.051688932
177	0x3d750e1a	0.0598279
178	0x3c5f36f8	0.013623945
179	0xbda32576	-0.079661295
180	0xbd2b4e63	-0.041822802
181	0x3da5e3ab	0.08100065
182	0x3d0986ce	0.033575825
183	0xbb4e7720	-0.003150411
184	0x3d3663ae	0.044528656
185	0x3d453b62	0.048152335
186	0x3cb71994	0.022351064
187	0xbd3703ab	-0.044681232
188	0x3d8058b1	0.062669165
189	0xbd6abb76	-0.057307683
190	0xbd8d3bd6	-0.068961784
191	0x3da2e6c5	0.07954172
192	0xbd1415f6	-0.036153756
193	0xbc9cfe14	-0.019164123
194	0xbd33f4d6	-0.043934666
195	0x3cd60b74	0.026128508
196	0xbd9cb550	-0.0765177
197	0xbda3d3c7	-0.07999378
198	0xbd677236	-0.056505404
199	0x3b1befa0	0.002379395
200	0x3c8670d4	0.016411223
201	0x3c5660b8	0.013084583
202	0xbd014c3e	-0.03156685
203	0x3d0dddc0	0.034635305
204	0xbd5fbce8	-0.054623514
205	0x3c4467f8	0.011987679
206	0xbd355788	-0.04427293
207	0xbd091d28	-0.03347507
208	0xbd8951ac	-0.06705031
209	0x3d886349	0.06659562
210	0x3d93b0b7	0.0721144
211	0xbd9c6df6	-0.07638161
212	0x3c08df98	0.00835409
213	0xbb86d5c0	-0.0041148365
214	0xbd9ed0b0	-0.07754648
215	0x3d5e749a	0.05431042
216	0x3da4cb85	0.08046631
217	0xbda1c52f	-0.07898938
218	0x3d17f34a	0.037097253
219	0x3d6bfa56	0.057611786
220	0xbd102900	-0.03519535
221	0xbd6fc25b	-0.05853496
222	0xbd5aaa40	-0.05338502
223	0xbd7ad56e	-0.0612387
224	0x3d4dbb26	0.050227307
225	0xbce5b9a0	-0.028042614
226	0x3cbe69f0	0.023243874
227	0x3c061708	0.008184202
228	0xbc5b2aa0	-0.013376862
229	0x3c1c8c38	0.009554915
230	0xbce8eb80	-0.028432608
231	0x3da9d4a9	0.08292515
232	0x3d0d0350	0.034426987
233	0xbce8338c	-0.028344892
234	0xbc9fb274	-0.019494273
235	0x3d36c65a	0.044622757
236	0xbca40784	-0.020023115
237	0x3a233580	0.00062259287
238	0x3c826bbc	0.015920512
239	0x3c6bd178	0.014393203
240	0xbcec8a86	-0.028874647
241	0xbcdb62e6	-0.026780557
242	0x3d250738	0.040290087
243	0xbd3e8b60	-0.046519637
244	0x3c9f66f4	0.019458272
245	0x3cf8c43c	0.03036701
246	0x3b9d8380	0.004806936
247	0xbcc36ed6	-0.023856562
248	0xbd893377	-0.06699269
249	0x3d045d78	0.0323157
250	0x3cc167a4	0.02360899
251	0xbd84bc3c	-0.06481215
252	0xbd156cd6	-0.036480747
253	0x3d94bf5b	0.07263061
254	0x3d55f7ae	0.05223816
255	0xbc9b7c00	-0.018980026

act_fc1.bias f4 [36]
0	0x3d047808	0.032341033
1	0x3cc7b150	0.024376541
2	0xbc766728	-0.015039243
3	0x3d159d2a	0.036526836
4	0xbd8a2e0a	-0.067470625
5	0x3c3892e0	0.0112654865
6	0xbbad38f0	-0.0052863285
7	0xbda4b61c	-0.08042547
8	0x3d985bd5	0.074393906
9	0x3d99fda1	0.07519079
10	0x3d868a5d	0.065693595
11	0x3cc09b90	0.023511678
12	0x3ca8adf0	0.020590752
13	0x3d8152b9	0.06314606
14	0x3d389692	0.04506547
15	0xbb134ae0	-0.002247505
16	0xbd3edd6b	-0.04659788
17	0xbd429283	-0.047503006
18	0x3d023868	0.031792074
19	0xbc5f9360	-0.013645977
20	0xbce4b4b6	-0.027918201
21	0x3d11bcba	0.035580374
22	0x3d720c2e	0.059093647
23	0x3d9c0b1b	0.07619306
24	0x3d2eac8e	0.04264503
25	0x3d6aa442	0.057285555
26	0x3d47c9ca	0.048776425
27	0x3cee392c	0.029079996
28	0x3d82a41d	0.063789584
29	0x3d14029e	0.03613531
30	0xbc2418f8	-0.010015719
31	0xbc3f6d78	-0.011683814
32	0x3c9669cc	0.018360995
33	0xbd28f0e6	-0.041245364
34	0x3d273732	0.040824123
35	0x3d49ceca	0.049269475

val_conv1.weight f4 [2, 128, 1, 1]
0	0x3d9dde5b	0.077084266
1	0x3d72f672	0.05931706
2	0x3c8850ac	0.01664003
3	0x3d323a3e	0.043512575
4	0xbcf43bd2	-0.02981368
5	0xbd6d1a5a	-0.05788646
6	0xbcd65530	-0.026163667
7	0xbdb36fca	-0.087615564
8	0x3cf52218	0.029923484
9	0x3d7306de	0.05933272
10	0xbd18ddbe	-0.037320845
11	0xbc991af8	-0.018689618
12	0xbcec8cea	-0.028875787
13	0x3d7d0c6a	0.061779417
14	0xbd78f7be	-0.06078314
15	0xbd886437	-0.066597395
16	0xbcdd5636	-0.027018648
17	0x3a8f3840	0.0010926798
18	0xbdb48574	-0.08814517
19	0x3d224156	0.03961309
20	0x3d6fa1d6	0.05850395
21	0x3c846624	0.016161986
22	0xbd1816ef	-0.037131246
23	0xbd75c0ac	-0.0599982
24	0x3d57c2ca	0.052676
25	0xbd87a4df	-0.066232435
26	0x3daa6d01	0.08321572
27	0x3d68058a	0.056645907
28	0xbd3d49c0	-0.04621291
29	0xbc886c1c	-0.016653113
30	0x3d75eb4a	0.060038842
31	0xba879880	-0.0010345131
32	0xbc089b98	-0.008337878
33	0x3da9b22d	0.082859375
34	0x3bab94c0	0.0052362382
35	0xbd5e7f5a	-0.05432067
36	0xbd665098	-0.056229204
37	0x3c403220	0.011730701
38	0xbc54db48	-0.012991734
39	0x3db43643	0.08799412
40	0x39aeb600	0.00033323467
41	0xbdb503a8	-0.08838588
42	0xbd9d0342	-0.07666637
43	0x3d3848fa	0.04499147
44	0xbd32ee2b	-0.043684166
45	0xbd627d27	-0.055295136
46	0x3b87e2d0	0.004146911
47	0xbb12e8c0	-0.0022416562
48	0xbd1be526	-0.03806033
49	0x3d96ceb1	0.07363642
50	0xbcd6f240	-0.02623856
51	0xbdb3d0ea	-0.087800816
52	0xbd8c2b71	-0.06844223
53	0xbcc10248	-0.023560658
54	0xbcce4564	-0.025179572
55	0xbce7299c	-0.028218083
56	0x3da11103	0.07864573
57	0xbd4ec8eb	-0.05048458
58	0xbce112fe	-0.027474876
59	0xbd8b17f4	-0.06791678
60	0x3daacff5	0.08340446
61	0x3d68fbca	0.05688075
62	0xbda4d782	-0.08048917
63	0xbb86d980	-0.0041152835
64	0x3db49e57	0.088192634
65	0x3d9f8c5d	0.07790444
66	0x3c8bcec4	0.017066367
67	0xbd850da4	-0.06496742
68	0x3d21370a	0.03935913
69	0xbbb2fcd0	-0.0054622665
70	0x3d6f947a	0.058491208
71	0xbdb2b9e3	-0.08726861
72	0xbd97e8de	-0.07417463
73	0xbd546f38	-0.05186388
74	0x3d2611f6	0.040544473
75	0xbd7dcc74	-0.06196256
76	0xbd4381f8	-0.04773137
77	0xbd5f4746	-0.05451133
78	0x3da6fc01	0.08153535
79	0x3d1023e2	0.03519047
80	0xbcd42d44	-0.02590049
81	0x3c0f6df8	0.008754246
82	0xbd869127	-0.06570654
83	0x3d4bc1ca	0.04974536
84	0x3b6aa980	0.0035806596
85	0x3d39e4b6	0.04538413
86	0x3d7a4fc2	0.06111122
87	0x3da137e3	0.07871988
88	0xbd6fcee0	-0.0585469
89	0xbc555dc8	-0.0130228475
90	0xbd80f979	-0.06297583
91	0x3d5bd746	0.053672098
92	0x3d31f1c2	0.04344345
93	0xbda67919	-0.08128566
94	0xba152400	-0.00056892633
95	0xbdac7d0b	-0.084222876
96	0xbd831b88	-0.064017355
97	0xbcec0734	-0.028812028
98	0xbd8cfa06	-0.06883626
99	0x3c466048	0.012107916
100	0x3cd2c468	0.02572842
101	0xbbd487a0	-0.0064858943
102	0x3c037568	0.008023597
103	0xbd815a75	-0.063160814
104	0xbcf4d45a	-0.029886413
105	0xbcb5c150	-0.022186905
106	0xba37cf00	-0.00070117414
107	0xbdab2aa2	-0.08357741
108	0x3d8c232d	0.06842647
109	0x3c2ede68	0.010673143
110	0x3c4cc280	0.012497544
111	0x3dae31a5	0.08505563
112	0xbd8f4b36	-0.06996767
113	0x3ccd3c00	0.025053024
114	0xbd9ba88a	-0.07600506
115	0x3c8e9454	0.017404713
116	0x3d9d03f5	0.0766677
117	0xbabb9600	-0.0014311671
118	0xbd67c95d	-0.05658852
119	0x3d9226b9	0.07136292
120	0xbd7680f0	-0.060181558
121	0x3da44733	0.08021393
122	0xbd8779fe	-0.06615065
123	0x3d7cfcee	0.06176465
124	0x3bbaf5e0	0.00570558
125	0x3cc8e7ac	0.024524532
126	0x3d6fb516	0.058522306
127	0xbd86f29e	-0.06589244
128	0x3d52577a	0.051352955
129	0x3c00db40	0.007864773
130	0x3d845451	0.064613946
131	0x3d102fb6	0.03520175
132	0x3d5274b2	0.05138082
133	0x3c699ad8	0.014258109
134	0x3d998fd1	0.07498134
135	0x3c5c30c0	0.013439357
136	0xbbfdcb30	-0.007745169
137	0xbcb75d28	-0.022383288
138	0xbd861c90	-0.065484166
139	0xbc0ab178	-0.008465163
140	0xbd7546fc	-0.05988215
141	0x3c15df58	0.009147488
142	0xbd7ec00a	-0.06219486
143	0xbd69fc5a	-0.057125427
144	0xbcae1924	-0.021252222
145	0xbd3a385b	-0.0454639
146	0xbd94abe6	-0.072593495
147	0x3c0cb6d0	0.008588508
148	0xbd8b13ac	-0.067908615
149	0xbd80b715	-0.0628492
150	0x3b4bebc0	0.003111586
151	0x3d917af5	0.0710353
152	0xbc7c69f0	-0.015406117
153	0x3d29edd2	0.04148657
154	0xbb0d8420	-0.0021593645
155	0xbd15d88b	-0.036583465
156	0xbd480f9f	-0.048843022
157	0x3b612c60	0.0034358725
158	0x3ac877c0	0.0015294477
159	0xbd41f4c3	-0.047352564
160	0xbc714860	-0.014726728
161	0xbd939a8a	-0.0720721
162	0x3cc95030	0.02457437
163	0x3db04837	0.08607524
164	0x3d947fb1	0.07250918
165	0xbd360393	-0.044437002
166	0x3da25e87	0.07928186
167	0xbda67f57	-0.08129757
168	0xbd1db04b	-0.038498204
169	0x3c9debd0	0.019277483
170	0xbd1bd946	-0.038049005
171	0x3c30d1a8	0.010792173
172	0xbd529501	-0.051411632
173	0x3ae32bc0	0.0017331764
174	0xbd151dfa	-0.03640554
175	0x3d060f12	0.032729216
176	0xbd002e40	-0.031294107
177	0x3d8c8085	0.06860451
178	0xb9488000	-0.0001912117
179	0x3d80258f	0.06257164
180	0x3ccb6d78	0.024832472
181	0x39009e00	0.00012265891
182	0x3d0c40be	0.03424143
183	0x3d945f39	0.07244725
184	0xbdac7c11	-0.08422101
185	0xbd3ad470	-0.045612752
186	0xbd419413	-0.047260355
187	0xbd0c0859	-0.03418765
188	0x3d3c3c5a	0.045955993
189	0xbd613960	-0.054986358
190	0xbd532a09	-0.05155376
191	0x3db34c65	0.087548055
192	0xbd139522	-0.036030896
193	0x3d30c6ba	0.04315827
194	0x3cd80924	0.026371546
195	0x3db04081	0.08606053
196	0xbd68cf20	-0.056838155
197	0xbd12e2ec	-0.03586094
198	0x3d461f8a	0.04836992
199	0x3d0d5e30	0.034513652
200	0xb8d2f000	-0.00010058284
201	0x3ca29108	0.019844547
202	0xbd0bec07	-0.03416064
203	0xbc8e3ba4	-0.017362423
204	0xbd93a6b4	-0.072095305
205	0x3dae0aad	0.0849813
206	0x3c9beb40	0.019033074
207	0x3d3754ba	0.044758536
208	0x3bc9e600	0.0061614513
209	0x3d73a672	0.059484906
210	0x3d309b8a	0.043117084
211	0x3d2e0c1a	0.04249201
212	0xbd5a1428	-0.05324188
213	0xbd80dc92	-0.062920704
214	0x3da883ef	0.08228289
215	0xbd122891	-0.03568322
216	0x3a671d00	0.0008816272
217	0x3d214726	0.039374493
218	0xbdb14ad2	-0.08656849
219	0x3d24f4ae	0.040272407
220	0xbdab9751	-0.08378471
221	0x3d4c5fc2	0.04989601
222	0x3b3ded00	0.0028980374
223	0xbd295129	-0.041337166
224	0x3ccdf7c8	0.025142565
225	0x3dabcb29	0.08388359
226	0xbd907a30	-0.070545554
227	0xbcb7e00c	-0.022445701
228	0xbc597ac0	-0.013273895
229	0x3d806a91	0.06270326
230	0x3ca9ebd0	0.020742327
231	0x3d92e541	0.07172633
232	0x3d5d197e	0.05397939
233	0x3da6709b	0.081269465
234	0xbd41334a	-0.047168054
235	0xbd4f0434	-0.050541118
236	0x3d993f37	0.074827604
237	0xbd811d34	-0.06304398
238	0x3d6a3f6a	0.057189383
239	0x3aaac380	0.0013028234
240	0x3da47421	0.08029962
241	0x3be968a0	0.007123068
242	0x3cca55bc	0.024699084
243	0xbda81831	-0.08207739
244	0x3d6d6afe	0.057963364
245	0xbd7083d4	-0.05871947
246	0xbda6c16c	-0.08142361
247	0xbc291170	-0.010319099
248	0xbd0638c2	-0.032768972
249	0xbc475968	-0.012167312
250	0x3da03b45	0.07823805
251	0x3b1c9ca0	0.0023897067
252	0xbd813491	-0.06308854
253	0x3d12a26c	0.03579943
254	0xbdb29c0f	-0.08721172
255	0xbcf82de0	-0.030295312

val_conv1.bias f4 [2]
0	0x3d2e4732	0.042548366
1	0xbd3e170b	-0.046408694
